dual/pg_same/es_supervised/model.pth.tar (torch, 163543 bytes, 6 tensors)

net.0.weight f4 [32, 874]
0	0xbcec1c6c	-0.028822146
1	0xbe5c53cd	-0.21516342
2	0xbfee7118	-1.8628263
3	0x4088b473	4.2720275
4	0x3ff72381	1.930771
5	0xc0e60b2b	-7.1888633
6	0xbf3042ff	-0.6885223
7	0xbfe123fd	-1.7589108
8	0xbfeb8b6e	-1.8401926
9	0x3f113b02	0.56730664
10	0x3f619e66	0.8813232
11	0x40011171	2.0166895
12	0xc07ed3d3	-3.9816787
13	0x3ee1bc77	0.440891
14	0x40503993	3.253514
15	0xbf84c892	-1.0373709
16	0x3f90a846	1.1301353
17	0x3edfab83	0.4368554
18	0x3ff3d169	1.9048282
19	0xbf578ce4	-0.8419936
20	0xc01af711	-2.4213297
21	0xbf6bede7	-0.92159885
22	0xc0a400ed	-5.125113
23	0x40900e12	4.5017176
24	0xc05485af	-3.3206594
25	0xbfea3adc	-1.8299212
26	0x3fd41637	1.656928
27	0x3deb9f65	0.115050115
28	0x3cf9bcb4	0.030485488
29	0xbf39d342	-0.7258798
30	0x3fb2f21d	1.3980137
31	0xbfcf59c3	-1.6199268
32	0x3f1d2540	0.61384964
33	0xbfee0fb9	-1.8598548
34	0x3fa3ddd3	1.280207
35	0xc000ea74	-2.01431
36	0x3f0383f2	0.5137321
37	0x3c4cca7d	0.012499449
38	0xbed85b00	-0.42256927
39	0xbfecd18d	-1.850145
40	0x3fa99885	1.324967
41	0xc004355b	-2.0657566
42	0x3fec2abd	1.8450543
43	0xc08ef32d	-4.4671845
44	0x3ec374ed	0.38175145
45	0x403dbd74	2.9646883
46	0x401ef24f	2.4835393
47	0xc06f9a57	-3.7437952
48	0x3f46de49	0.7768293
49	0xc074cf40	-3.8251495
50	0xbfd3b5da	-1.6539872
51	0x40075bf6	2.1149879
52	0xc0761f74	-3.8456697
53	0x4058045c	3.375266
54	0xbffe14aa	-1.9850056
55	0x3d9404f9	0.07227511
56	0xc038413b	-2.8789814
57	0x4059a5ea	3.4007516
58	0x4010fb95	2.2653553
59	0x3fb954ad	1.4478966
60	0xbf567596	-0.8377317
61	0x3f9c951d	1.2233006
62	0x402d33bf	2.7062833
63	0x3f91f6d6	1.1403453
64	0xbff2fd3c	-1.8983531
65	0xbe9ffcb9	-0.312475
66	0x3ecc53a1	0.39907554
67	0xbe5d36e4	-0.2160297
68	0xbfd2650d	-1.6437088
69	0x4013c740	2.3090363
70	0x3e280d67	0.16411363
71	0x3f0169b8	0.5055194
72	0xbfa7c95b	-1.3108324
73	0x3f86e14f	1.0537509
74	0xbe2c8bb9	-0.16850175
75	0x401b3bd4	2.4255266
76	0x3f879b46	1.0594261
77	0x408a8d12	4.3297205
78	0x3f85ca99	1.0452453
79	0xc0bf4a8d	-5.9778504
80	0xbf9655f1	-1.1744977
81	0x4052d995	3.2945302
82	0x3f78a020	0.9711933
83	0xc00064e4	-2.0061579
84	0x3f85e435	1.0460268
85	0xbf1c98fa	-0.61170924
86	0xbf8830ce	-1.0639894
87	0xc046285a	-3.0962129
88	0xc04ef65b	-3.2337863
89	0xc05d216b	-3.4551647
90	0x3fa533e6	1.2906463
91	0x3fd91430	1.6959286
92	0xbfbb422b	-1.4629568
93	0x4003a84d	2.0571473
94	0xc01f9d2e	-2.4939685
95	0x3eed8913	0.46393642
96	0x3fb006c3	1.3752064
97	0xc03057a9	-2.7553504
98	0xbee71d34	-0.45139468
99	0xbdde9d7e	-0.10869883
100	0x4061c5a1	3.5276873
101	0x4014298b	2.3150356
102	0xc04c33cb	-3.1906612
103	0x3e9751a6	0.2955448
104	0x4058df6a	3.388636
105	0x4034cd1d	2.8250191
106	0xbd75b21a	-0.059984304
107	0xbe3b2758	-0.18276727
108	0x3e3f5ca9	0.18687691
109	0xbf107170	-0.5642309
110	0xbdd56c7f	-0.104210846
111	0x3c43a660	0.011941522
112	0x3f190fc4	0.5978968
113	0x3f652bea	0.8952013
114	0x3edbdd46	0.42942256
115	0x3f52d586	0.8235706
116	0x3f661449	0.898747
117	0xc06fe6bc	-3.748458
118	0x3f6d9414	0.92804074
119	0xbfa243c0	-1.2676926
120	0xbf220447	-0.63287777
121	0xbd78f6f4	-0.060782388
122	0xbea093b1	-0.3136268
123	0x3ec6a6b7	0.38799068
124	0x409b59ff	4.854736
125	0x4094456d	4.633475
126	0xbfa65ec7	-1.2997674
127	0x3f9d4d23	1.2289165
128	0xc007c538	-2.1214123
129	0x3e45ce7d	0.1931705
130	0xc06160b7	-3.521528
131	0xbe7fea16	-0.2499164
132	0xc07f6e76	-3.991117
133	0xc0078c1e	-2.117927
134	0x3e8af9e7	0.27143785
135	0xc008e85b	-2.1391819
136	0xbf89d4f6	-1.0768116
137	0x40178cb0	2.367962
138	0x3f5468a6	0.8297218
139	0xbfa82c5f	-1.3138541
140	0x4040a405	3.010011
141	0xbdf915e5	-0.12162379
142	0x40554069	3.3320563
143	0xc056b458	-3.3547573
144	0x4058d1f7	3.3878152
145	0xc07cac6e	-3.9480243
146	0xbfd577a9	-1.6677142
147	0xbfb5ecc0	-1.4212875
148	0xbffbf597	-1.9684323
149	0xbee2a7f9	-0.44268778
150	0xc02e09f0	-2.7193565
151	0xbf9a3c22	-1.2049601
152	0x402bfb03	2.6871955
153	0x3dff5030	0.124664664
154	0xc075eafc	-3.8424673
155	0xbeeaefca	-0.4588607
156	0x3fc959cf	1.5730532
157	0xc05540fd	-3.3320916
158	0xc0a85e03	-5.261476
159	0xbf776f78	-0.9665446
160	0xbeced5ec	-0.40397584
161	0xbfc5c116	-1.544955
162	0x3e607c83	0.21922497
163	0x4089a200	4.3010254
164	0x4057b0d8	3.3701687
165	0x402348a1	2.551308
166	0x40b16d6d	5.5446076
167	0xbfcbfe3b	-1.593696
168	0xbf65c520	-0.89753914
169	0x402673f7	2.600828
170	0x3f940b68	1.1565981
171	0xbe453ecd	-0.19262238
172	0x406d53fb	3.7082508
173	0xbff88158	-1.9414473
174	0x3fb75c04	1.4324956
175	0xbfa457c8	-1.2839289
176	0xbf06303f	-0.5241737
177	0x3f4322ea	0.7622515
178	0x3f282c14	0.6569226
179	0x3f017251	0.5056506
180	0xbdd9ec8c	-0.10640821
181	0x3e33e1d4	0.17566615
182	0x3fa89c02	1.317261
183	0x3f8f82f3	1.1211838
184	0xbdedec7c	-0.116173714
185	0x4049ee09	3.1551535
186	0x3fc302a1	1.5235177
187	0xbf62c404	-0.88580346
188	0x3f034e1d	0.51291066
189	0xbe8f9bac	-0.28048456
190	0xbf038152	-0.513692
191	0x3f6bfd68	0.9218354
192	0xbed62d98	-0.4183166
193	0xbf5b57a2	-0.8568059
194	0xbf8a6c71	-1.0814344
195	0x3ea1080b	0.3145145
196	0xc008aeb3	-2.1356628
197	0xc0356c1e	-2.834724
198	0x3f07f2eb	0.5310504
199	0xbf62c6f5	-0.88584834
200	0x3f04b53c	0.5183904
201	0xc061c6e1	-3.5277636
202	0x3df7c655	0.12098376
203	0xbf892b2d	-1.0716301
204	0xc095ba00	-4.678955
205	0x4049b53b	3.1516864
206	0x4018a5fb	2.3851306
207	0x409e24a6	4.9419737
208	0x3eb3e137	0.35132763
209	0xc012ca4b	-2.293597
210	0xc0248095	-2.570348
211	0x3ec87a48	0.39155793
212	0x40282da8	2.6277866
213	0x3eda86f7	0.42681095
214	0xc080a4ea	-4.020131
215	0xbfef9b5b	-1.8719286
216	0xbfbcdb8b	-1.4754499
217	0xc038cad3	-2.8873794
218	0x4037b417	2.8703668
219	0x3f3231e6	0.6960739
220	0xbf5623b9	-0.8364826
221	0xc06cd8e4	-3.700738
222	0xc004559c	-2.0677252
223	0xbf8b2c5b	-1.0872911
224	0x3fa22d30	1.267004
225	0x400bcc00	2.1843262
226	0xbf844a4f	-1.0335177
227	0x40470cee	3.1101642
228	0xbc9300a6	-0.017944645
229	0xbe8d7f36	-0.27636117
230	0xc0420857	-3.031759
231	0x3fffab5d	1.9974171
232	0xbfea92c5	-1.832604
233	0x400e01d0	2.2188606
234	0x402a6d99	2.6629393
235	0xbe495fc4	-0.19665438
236	0x3d5a358b	0.05327372
237	0xbfbcf4ba	-1.4762185
238	0x40222d07	2.5339983
239	0xc01614ee	-2.3450274
240	0x3e0f6130	0.14001918
241	0x3ffaf5eb	1.9606298
242	0x3fccf31c	1.6011691
243	0x3f8a13b7	1.0787266
244	0xbf8573d9	-1.0425979
245	0xbf2e8ea5	-0.6818641
246	0x3fd9e5f3	1.70233
247	0x3fe16b9d	1.7610966
248	0x407d4ed6	3.9579368
249	0x4029632b	2.6466777
250	0xc09e5d70	-4.948906
251	0xbfca8e20	-1.5824623
252	0xc01e065b	-2.469138
253	0x3fdf69c8	1.7454157
254	0x3df9eff0	0.122039676
255	0xbfa8f7aa	-1.3200581

net.0.bias f4 [32]
0	0x3f07839a	0.52935183
1	0x3fca4b46	1.5804222
2	0x4074b0eb	3.8232982
3	0xbfd3a18e	-1.6533678
4	0x3f45efcc	0.77319026
5	0x40741539	3.8137953
6	0xc0964bac	-4.6967373
7	0xbf1a7445	-0.60333663
8	0x403f396d	2.98788
9	0xc04fe28f	-3.248203
10	0xbebf84ee	-0.37406105
11	0x3f17e330	0.59331036
12	0x406252a8	3.536295
13	0x4005b315	2.0890553
14	0xbe6f9cf2	-0.23399714
15	0xc070ac3f	-3.760513
16	0x3f5106af	0.81650823
17	0xbf37304b	-0.71558064
18	0x3fe90c86	1.8206947
19	0xc0824754	-4.071207
20	0x402f4efb	2.7391956
21	0xc014eb9a	-2.32688
22	0xc0251843	-2.5796058
23	0xbfb23e31	-1.3925229
24	0xc090aeba	-4.521329
25	0x4013a886	2.3071609
26	0xbf312d55	-0.69209796
27	0xbf98e078	-1.1943502
28	0xc07f51fe	-3.9893794
29	0x405974b6	3.3977485
30	0x407ae281	3.9200747
31	0xbe734f90	-0.2376082

net.2.weight f4 [32, 32]
0	0xbf7af8b0	-0.98035717
1	0xbff6f4b6	-1.929343
2	0x3ed5625f	0.41676614
3	0xc0399e1f	-2.900276
4	0xbfb00088	-1.3750162
5	0xc03a4e4c	-2.9110289
6	0xbf3deb9b	-0.7418763
7	0x406bd8cd	3.6851075
8	0xc06acc40	-3.6687164
9	0xbf8823f4	-1.0635972
10	0xbfe7ca35	-1.8108584
11	0xbf8d2cd4	-1.1029305
12	0xc02a0f4c	-2.6571836
13	0xc008173f	-2.1264188
14	0xbf4c18d4	-0.79725385
15	0x408a6f73	4.3261046
16	0x40943a75	4.632136
17	0x4044eb90	3.0768776
18	0xc00c7678	-2.1947308
19	0xbf531ac9	-0.82462746
20	0x407be40f	3.9357946
21	0x3fbf6088	1.4951334
22	0xbfeab897	-1.8337582
23	0x3dc06bf5	0.09395591
24	0xbfaf6d57	-1.3705243
25	0xc055b696	-3.3392692
26	0xbfc39446	-1.5279624
27	0xc00cdac2	-2.200852
28	0x3f2d595a	0.67714465
29	0xbe55f880	-0.20895576
30	0xc0ca5070	-6.322319
31	0x3fa88941	1.3166887
32	0x3ff9238b	1.9463972
33	0x3fe0f4d7	1.7574719
34	0xbd5c093b	-0.05371974
35	0x3f36877b	0.71300477
36	0x3ffcba89	1.9744426
37	0x3fe4552b	1.7838491
38	0xbf6aed45	-0.91768295
39	0x3c5cd21e	0.01347783
40	0xc08c6274	-4.387018
41	0x3f8fa8a5	1.1223341
42	0xbe584c74	-0.21122915
43	0x3fe4f35c	1.7886767
44	0x402c6b31	2.6940424
45	0x3fcbabeb	1.591184
46	0xbfc0e280	-1.5069122
47	0x3eef7a33	0.46772918
48	0x40237832	2.5542111
49	0xc0309611	-2.7591593
50	0xc034859e	-2.8206553
51	0xbf6a0ac5	-0.91422683
52	0x400efb7b	2.2340991
53	0xbf0af595	-0.5428098
54	0xbe185433	-0.1487587
55	0x3f94abe1	1.1614953
56	0xc04e6593	-3.2249496
57	0x3f82c9e9	1.0217868
58	0xbe75cb1c	-0.24003261
59	0xc00afb68	-2.1715946
60	0x3ec2676b	0.37969527
61	0xbfd5dbc6	-1.6707695
62	0xbd97f89d	-0.07420466
63	0x3f16b5f6	0.588714
64	0x3fe536a5	1.7907301
65	0x4010bfd8	2.2617092
66	0xc000aff2	-2.0107388
67	0x40ad5dff	5.417724
68	0x3f6d50c8	0.9270139
69	0x3fa6fdd8	1.3046217
70	0x3d4b6a20	0.049661756
71	0xc04787d6	-3.1176658
72	0xbfa4e297	-1.288165
73	0x4065ef06	3.5927138
74	0xbe801451	-0.250155
75	0x40a3cf0e	5.119025
76	0xbfc32ba8	-1.5247698
77	0x3f139ebb	0.5766408
78	0xbf776dd2	-0.9665195
79	0xbf45d576	-0.7727884
80	0xbf321ab6	-0.6957201
81	0x3b3c3d8e	0.0028723213
82	0x40215a31	2.5211298
83	0xc0b5be31	-5.6794667
84	0xbf9f3af1	-1.2439862
85	0x405a1b88	3.4079304
86	0xbfebd459	-1.8424178
87	0xbe5f61a5	-0.21814592
88	0xc0a00093	-5.00007
89	0xbea23241	-0.31678966
90	0x3f9af776	1.2106769
91	0xbf89fae9	-1.0779697
92	0x4099c8e4	4.805773
93	0xbff993e6	-1.949826
94	0x3ff18550	1.8868809
95	0xbd8a676b	-0.06758007
96	0xbf6324b9	-0.8872791
97	0xbf632dcd	-0.8874176
98	0x3ec58caa	0.3858388
99	0xbdeb3589	-0.114848204
100	0xc04c6ade	-3.1940227
101	0x4042c7b4	3.043439
102	0x3f422bc5	0.75848037
103	0x3e3648f5	0.17801268
104	0x3fa6b219	1.3023101
105	0x40272548	2.6116505
106	0x405e1331	3.4699214
107	0x3f749b37	0.9554934
108	0x408556fd	4.1668687
109	0x3fba7a9a	1.4568665
110	0xbf586808	-0.8453374
111	0x3ff19d21	1.8876077
112	0x4015fe43	2.343644
113	0x3fe6e219	1.803775
114	0x3f369037	0.71313804
115	0xbfe5064a	-1.7892544
116	0xc015b938	-2.3394299
117	0x406b95fc	3.6810293
118	0xbfb51662	-1.4147456
119	0x3e7529a5	0.23941667
120	0x3f41afa5	0.7565864
121	0x3fca8283	1.5821079
122	0x3fdf24a7	1.743306
123	0xbf3a7ad8	-0.72843695
124	0x4008198d	2.1265595
125	0xbffb01b8	-1.96099
126	0x3eea95e7	0.4581749
127	0xbeaacd14	-0.33359587
128	0x3fbc321e	1.4702795
129	0xbfd9ef88	-1.7026224
130	0x4004472a	2.0668435
131	0x3dfcec9e	0.12349819
132	0xbf0b1042	-0.5432168
133	0xbfdfeee6	-1.7494781
134	0xbf8c8df0	-1.0980816
135	0x4091bd63	4.5543685
136	0xbf8c5983	-1.0964817
137	0xbe8bf920	-0.27338505
138	0xc09065ec	-4.5124416
139	0x3f54a457	0.8306326
140	0x3e827c34	0.25485384
141	0x409016e4	4.5027943
142	0xc011c558	-2.27767
143	0x405e00e8	3.4688053
144	0x3fedd006	1.8579109
145	0xc002cdb4	-2.0438051
146	0x3f9b7f70	1.2148266
147	0xbf8f04cc	-1.1173339
148	0xbff57428	-1.9176073
149	0xbedf3378	-0.43593955
150	0x3fbbf9b2	1.4685576
151	0xbfc02849	-1.5012294
152	0xbe99925a	-0.2999447
153	0xbf84db03	-1.0379337
154	0x402fdd94	2.747899
155	0xc0dd753c	-6.920561
156	0x3f6f8c0a	0.9357306
157	0x409cabc2	4.8959665
158	0xbf2b1d21	-0.6684132
159	0x3ea6f25a	0.32606775
160	0xbbae1ff8	-0.0053138696
161	0xbeae11c8	-0.3399794
162	0xc04b341b	-3.1750553
163	0xc04dac2e	-3.213634
164	0xbfe574ee	-1.7926309
165	0xbf96a884	-1.1770177
166	0xc039caa3	-2.902993
167	0xc0c44a8b	-6.1340995
168	0x4028d0e0	2.6377487
169	0x40144807	2.3168962
170	0xbe48e0f6	-0.19617066
171	0x3eb0f7ec	0.3456415
172	0x3f6c5f7b	0.9233319
173	0x40121051	2.2822459
174	0xc05ee8ba	-3.4829545
175	0x3eff76e2	0.49895388
176	0xbede5925	-0.43427387
177	0xbd955cee	-0.072931156
178	0xc03b93b7	-2.9308908
179	0xc05499e7	-3.3218935
180	0xc04f830c	-3.2423735
181	0xc0341b94	-2.8141832
182	0x3ee5e762	0.44903094
183	0x40b22bcc	5.5678463
184	0x40530e68	3.2977543
185	0xbedf4aa7	-0.43611643
186	0x3f0311cd	0.51199037
187	0x400a3a74	2.1598177
188	0x40266d73	2.6004303
189	0xbe10f17d	-0.1415462
190	0x3f6bc3da	0.9209572
191	0x40830586	4.0944242
192	0x3faa74e1	1.3316919
193	0x3eda2e5e	0.426135
194	0x40175f7a	2.3652024
195	0xbf9e51f3	-1.2368759
196	0x400d0b4c	2.2038145
197	0xc0365d78	-2.8494549
198	0x3e99ca87	0.3003733
199	0xbe5f0b08	-0.21781552
200	0x408dff32	4.437402
201	0xc061b44f	-3.5266302
202	0x3e92ea4d	0.28694382
203	0xbe28a4e7	-0.16469155
204	0x3faabab7	1.3338231
205	0xbf86290f	-1.048128
206	0x40301fc7	2.7519395
207	0xc038dc66	-2.888452
208	0x3f8a9515	1.0826746
209	0x3ff099d2	1.8796942
210	0xbfb6b3d3	-1.4273628
211	0x3fc8e526	1.569493
212	0xbec15f4b	-0.37768015
213	0x4090f224	4.529558
214	0x3f2be1a1	0.6714116
215	0xbf88aba4	-1.067738
216	0xc0542cc5	-3.3152325
217	0xc0be4a6e	-5.9465857
218	0x405eff08	3.4843159
219	0x3fdd29ba	1.7278359
220	0xc0207cb0	-2.5076103
221	0x3d460134	0.04834099
222	0x3fcf0904	1.6174626
223	0xbf5fc4f5	-0.8740991
224	0xc0330672	-2.7972684
225	0x3eabefa9	0.33581284
226	0xbefe4187	-0.49659368
227	0x4013fbd9	2.3122466
228	0xbea2b3e4	-0.3177787
229	0xbf87bd56	-1.0604656
230	0xbff7c13b	-1.9355844
231	0xbe7155dc	-0.23567909
232	0xbec2dc52	-0.38058716
233	0xc08ae4f5	-4.340449
234	0xbf8827ec	-1.0637183
235	0xc0767826	-3.8510833
236	0x3f7cd780	0.98766327
237	0xbffddfd3	-1.9833931
238	0x3efae373	0.49001655
239	0x405c2b9c	3.4401617
240	0x403500ac	2.828166
241	0x3f9e8c73	1.2386612
242	0xc01ec3bf	-2.4806974
243	0x40223346	2.5343795
244	0x3faca10e	1.348665
245	0x3f3efcf6	0.7460474
246	0xbfc6787e	-1.5505521
247	0xc028cedb	-2.6376255
248	0x3fca1dfe	1.5790403
249	0x3fcf08d1	1.6174566
250	0x3dc68c86	0.096947715
251	0xc068e986	-3.6392531
252	0x3fafd7f1	1.3737775
253	0x3f98b7d1	1.1931096
254	0x404f60e7	3.2402894
255	0x4081ebcf	4.060035

net.2.bias f4 [32]
0	0xc06e8dd9	-3.7274077
1	0xbfdaa60a	-1.7081921
2	0xbfc60e1a	-1.5473053
3	0x401b30d8	2.4248562
4	0x4072a78b	3.791476
5	0x3fdd887d	1.7307278
6	0x3e2c3598	0.1681732
7	0xc026eac3	-2.6080787
8	0xbff72e24	-1.9310956
9	0x3f5552c4	0.83329415
10	0xbff57a6f	-1.9177989
11	0xc001f09f	-2.0303113
12	0x40068d8b	2.102389
13	0xbeb27100	-0.34851837
14	0xbf420f63	-0.7580473
15	0x3ff37a9f	1.9021796
16	0x3ec541b5	0.38526693
17	0x40b8ddd3	5.777078
18	0xc00448f3	-2.0669525
19	0x3f4c9ab0	0.79923534
20	0x3f042980	0.51625824
21	0xbf692f3f	-0.91087717
22	0xbfae2d21	-1.3607522
23	0x3f849919	1.0359222
24	0xbed6b835	-0.41937414
25	0x3f84d58f	1.0377673
26	0x3f243bae	0.64153564
27	0xc04413b5	-3.0637028
28	0x404c5574	3.1927156
29	0xbf914711	-1.1349813
30	0xbefad9d5	-0.48994318
31	0x3f54c37d	0.8311079

net.4.weight f4 [344, 32]
0	0x4021e6ad	2.5297043
1	0x40064be8	2.098383
2	0x3ecc3401	0.39883426
3	0xbffe733d	-1.9878918
4	0xc094a29d	-4.6448503
5	0xbf1d82cc	-0.61527705
6	0xc0430964	-3.0474482
7	0x3f93bd8c	1.154222
8	0x403e289b	2.9712284
9	0xc003b5f0	-2.0579796
10	0x400039d3	2.0035293
11	0x3fbcf64e	1.4762666
12	0x4043b50b	3.057925
13	0xc0083dc8	-2.1287708
14	0x3f5c07c2	0.8594934
15	0xc02cf252	-2.70229
16	0x3edfb3fb	0.43692002
17	0x3ee26d42	0.44223982
18	0xbe8cdd2f	-0.275125
19	0xc03a3d9c	-2.9100103
20	0xbf50e47b	-0.81598634
21	0xc08ed9b2	-4.464074
22	0x402c25af	2.6898
23	0xc0948417	-4.6411242
24	0x3d467f4d	0.048461247
25	0xbe7e14f5	-0.24812682
26	0x3e7cb53d	0.24678512
27	0xc081fce2	-4.0621195
28	0x3f3226b3	0.695903
29	0xbf19a602	-0.6001893
30	0x3ff48e5e	1.9105947
31	0xbfdfd0dc	-1.7485614
32	0xc073e852	-3.8110547
33	0xc04dfe21	-3.2186358
34	0xc055c5f0	-3.3402061
35	0xbf66d414	-0.90167356
36	0xc00a12fd	-2.157409
37	0x3f98041d	1.1876255
38	0x401d8cad	2.4617112
39	0x402cc8ec	2.6997633
40	0x3f775392	0.96611893
41	0x3f947368	1.1597719
42	0xbf8b80bf	-1.0898665
43	0x3fb9b3c9	1.4507991
44	0xc062707d	-3.5381157
45	0xbf04345f	-0.5164241
46	0xc06d4d9f	-3.7078626
47	0xc00175be	-2.0228114
48	0xbfdf1231	-1.7427427
49	0x40047a2f	2.0699575
50	0xbff2cc84	-1.8968663
51	0xbf29eb98	-0.6637511
52	0x40792bc6	3.8932967
53	0xc07bcd05	-3.9343884
54	0x3f5aba10	0.8544016
55	0xbd12d8d9	-0.035851333
56	0x408f43b1	4.477013
57	0x3e386702	0.18008044
58	0x40666811	3.6001017
59	0xc007760c	-2.11658
60	0xbf9964e5	-1.1983916
61	0xc02bac7e	-2.682403
62	0xc030f751	-2.765095
63	0xbe8e2ac1	-0.27766994
64	0xbe264cc6	-0.16240224
65	0x40397834	2.8979616
66	0x4018cf86	2.3876662
67	0x3de2c12f	0.11072003
68	0x4049f303	3.1554573
69	0xbf50e4f6	-0.81599367
70	0xbf3aa9c9	-0.7291532
71	0x3d4d51ac	0.050126716
72	0xc0551073	-3.329129
73	0x3f827c78	1.0194235
74	0xbf9be946	-1.2180564
75	0x3ee4cf59	0.44689444
76	0xbf67f2ec	-0.90605044
77	0xbf79eb9d	-0.9762514
78	0xc0192655	-2.3929646
79	0xbfe3b794	-1.7790399
80	0x3f9522f8	1.1651297
81	0xbf542dbe	-0.828823
82	0x3f1907f6	0.5977777
83	0xbf1d85bb	-0.6153218
84	0xc01031c4	-2.2530375
85	0xbbcdc390	-0.0062794164
86	0xbded0b66	-0.1157444
87	0xbf5bd2a0	-0.85868263
88	0x40517edf	3.2733686
89	0xc03ea66d	-2.9789078
90	0xc01bcfb1	-2.4345515
91	0xc01497b4	-2.3217592
92	0xbbe12864	-0.00687127
93	0xbf0c514c	-0.5481155
94	0x3f8ac2ee	1.0840738
95	0xbf40e87f	-0.7535476
96	0x3feb4edc	1.8383441
97	0xbf68e94d	-0.9098099
98	0xbf844c59	-1.03358
99	0x40635ca7	3.55253
100	0x3f3e64ff	0.7437286
101	0xbed5181a	-0.4161995
102	0x3fa1ae32	1.2631285
103	0x3ed9333e	0.42421907
104	0x4089b417	4.3032336
105	0xc0536631	-3.3031123
106	0x4066d6eb	3.6068676
107	0xbfcdb82a	-1.6071827
108	0xc0600688	-3.5003986
109	0xbf7897d4	-0.9710667
110	0xc03816b8	-2.8763866
111	0xbffc3b14	-1.9705529
112	0xc024ee2b	-2.5770366
113	0xbffdfdbc	-1.9843059
114	0xc02593b8	-2.587141
115	0x3feac35c	1.8340869
116	0x40710eda	3.7665315
117	0x3ed691c0	0.41908073
118	0xbff80ba3	-1.9378551
119	0xbfcaeb5c	-1.5853076
120	0x3fc98c44	1.5745931
121	0x3ff54bcd	1.9163758
122	0x403dd31d	2.9660103
123	0xbf9c90d6	-1.22317
124	0xc084b34d	-4.1468873
125	0x40411887	3.017122
126	0x400948ab	2.1450603
127	0x40667468	3.6008549
128	0xc015b5d6	-2.3392234
129	0xbed20b92	-0.41024452
130	0x40386098	2.8808956
131	0x3fa2463e	1.2677686
132	0x40666e40	3.6004791
133	0x3de3fe9c	0.11132547
134	0x4082765f	4.0769496
135	0x407c8139	3.9453871
136	0xc0022ab0	-2.0338554
137	0x3f14c5f9	0.5811458
138	0x3f0a0384	0.53911614
139	0xbf4c400a	-0.79785216
140	0x3fbd3090	1.4780445
141	0x4093c782	4.618104
142	0x3fa36bb7	1.2767247
143	0x402e26b2	2.7211118
144	0x3df4b538	0.11948627
145	0x3f1fcea7	0.624247
146	0xc06877ae	-3.6323047
147	0x3fc09fe7	1.5048798
148	0xc0176ccb	-2.3660152
149	0xbfd1bfe8	-1.638669
150	0xbef29083	-0.4737588
151	0x3ef38cac	0.47568262
152	0xbee47189	-0.4461787
153	0x402470b6	2.5693793
154	0xbfc0e63a	-1.507026
155	0x3ed1f92d	0.4101042
156	0xbf42e997	-0.7613768
157	0x3fc558b6	1.5417697
158	0xbf85dcb9	-1.0457984
159	0x402073f2	2.5070767
160	0x3fea2fdd	1.8295857
161	0x400b7fe0	2.1796799
162	0xbfdc09c7	-1.7190484
163	0xbfcc0315	-1.593844
164	0x3fcc7e8d	1.597612
165	0xc006daab	-2.1070964
166	0x402fb65b	2.745505
167	0xbe489932	-0.1958969
168	0x3f1dab00	0.6158905
169	0x3f980f9b	1.1879762
170	0x3fcc06d9	1.593959
171	0x40670fb4	3.6103334
172	0xbf878a93	-1.0589164
173	0x3f142692	0.57871354
174	0xbf89d9d8	-1.0769606
175	0xc02496da	-2.5717072
176	0xc0706dd9	-3.7567046
177	0xbe894e80	-0.26817703
178	0x4061f30e	3.53046
179	0x3eae3fc4	0.34033024
180	0x3fe8a11a	1.8174164
181	0xc082f846	-4.092807
182	0xbfb3926c	-1.402906
183	0x3f675dd0	0.9037752
184	0x3e38221b	0.1798176
185	0xbfad9664	-1.356152
186	0xbfc22b90	-1.5169544
187	0xbe81a957	-0.2532451
188	0x3fcb4516	1.5880458
189	0xc0b60f21	-5.689347
190	0x40480dd8	3.125845
191	0x3eb0ff06	0.34569567
192	0x3fae69f3	1.3626083
193	0xc05d7653	-3.460347
194	0x3fb4f2ff	1.4136657
195	0x3f98e60f	1.1945208
196	0xc02c1903	-2.6890266
197	0x406b299c	3.6744146
198	0x3fec776f	1.8473948
199	0x407fba08	3.9957294
200	0x3f3ffaa5	0.7499183
201	0xbed4da0e	-0.41572613
202	0x40357b8b	2.8356655
203	0x3f85f3c0	1.0465012
204	0x3fcd6b6f	1.6048411
205	0x3f1c15e5	0.6097091
206	0xbfd85772	-1.6901686
207	0xc09894aa	-4.7681475
208	0x3d180079	0.037109826
209	0xbf09e0bc	-0.5385854
210	0x406de1cf	3.7169073
211	0xc0503fc4	-3.253892
212	0x40408c36	3.0085578
213	0x3f2677a0	0.65026283
214	0x3ffc6c09	1.972047
215	0x3e2abd11	0.16673686
216	0x3fa84c14	1.3148217
217	0x3efd3168	0.49451756
218	0xbf68c174	-0.90920186
219	0xc007a3ef	-2.1193807
220	0x401bfc32	2.4372678
221	0xc089a0ae	-4.300864
222	0x4072b6fa	3.792418
223	0xbf5c4dc2	-0.8605615
224	0x3fabbc3c	1.341682
225	0x3eba9d06	0.36447924
226	0x40069611	2.1029093
227	0x3e92a6d9	0.2864292
228	0x3fb9e1b2	1.4522002
229	0xbdad84cd	-0.08472595
230	0x40811221	4.033463
231	0xbe88503f	-0.26623723
232	0xbf625496	-0.8841032
233	0xbef3506f	-0.47522303
234	0x405af413	3.421147
235	0xbffbbfb6	-1.966788
236	0x4098210f	4.7540355
237	0x40452f3a	3.0810075
238	0xbf286cde	-0.6579112
239	0x3fd25dd4	1.6434884
240	0xbe5401ab	-0.20703761
241	0x3f0c1961	0.54726225
242	0x3fb63512	1.4234946
243	0xc01b0621	-2.422249
244	0x40650897	3.5786493
245	0x3fb67534	1.4254518
246	0x3ecd9b95	0.40157762
247	0xbf9c892a	-1.2229359
248	0xbfc7454a	-1.556802
249	0x3f369973	0.71327895
250	0x3fe8efcb	1.8198179
251	0xc05a8df9	-3.4149153
252	0x4010c2e2	2.2618947
253	0xbf2a138d	-0.6643608
254	0x409e1fc7	4.941379
255	0xbfd33bb9	-1.6502601

net.4.bias f4 [344]
0	0x3fd68490	1.6759205
1	0xbf00b4ae	-0.50275695
2	0xbf2ecffd	-0.68286115
3	0xbe300d64	-0.17192608
4	0x40395a4a	2.8961358
5	0xbf5e32e1	-0.86796385
6	0x3d9beaa3	0.07613113
7	0x3f8fd8d2	1.1238043
8	0x405d3180	3.4561462
9	0xc0458546	-3.0862594
10	0x40086d07	2.1316545
11	0xc09064c5	-4.512301
12	0xbfceaec8	-1.6147089
13	0x3f04733c	0.51738334
14	0xbfc2acf6	-1.5209033
15	0xbec9578f	-0.39324614
16	0x3ecf7f3d	0.40526763
17	0x3f830d65	1.0238463
18	0x4076cbfb	3.8562
19	0xc095a943	-4.676912
20	0x409a5b16	4.823619
21	0xc03bffe1	-2.9374926
22	0x3ff6e317	1.9288052
23	0xc00adab7	-2.1695993
24	0x3d12a60d	0.03580289
25	0xbf3f4a5f	-0.74722856
26	0x3f55ec0a	0.8356329
27	0x402111d5	2.5167134
28	0x3fce4cb5	1.6117159
29	0xbe1261b8	-0.14295089
30	0x40e2f13b	7.091947
31	0xbf3d3998	-0.73916006
32	0xbc74fb04	-0.014952425
33	0xbf4a4755	-0.79015094
34	0x3e7613cf	0.24030994
35	0xbf5b3e21	-0.85641676
36	0x3ffd1f2a	1.9775136
37	0x3d8db327	0.06918936
38	0x3ec27c9c	0.37985694
39	0x40106b0a	2.2565331
40	0x400528e7	2.0806215
41	0xc0367979	-2.851164
42	0xc0be8c61	-5.954636
43	0x4068982d	3.634288
44	0x3f1e1172	0.6174537
45	0x3f99cfc0	1.2016525
46	0x3ff29819	1.8952667
47	0x3f8d1381	1.1021577
48	0xbf1b8663	-0.6075193
49	0xc018677a	-2.3813157
50	0x3fcb71f0	1.5894146
51	0x3fb0a638	1.3800726
52	0xbf77348d	-0.9656456
53	0xc0a4f674	-5.1550846
54	0xbff61dd6	-1.9227855
55	0xc0649e63	-3.5721672
56	0xbf85c42d	-1.0450493
57	0x3fa5dcce	1.2958009
58	0xbebe86f5	-0.3721234
59	0x3e7b9557	0.24568687
60	0xbecff10f	-0.406136
61	0x401c9b52	2.44698
62	0xbff9c92d	-1.9514519
63	0xc02bbe5c	-2.6834936
64	0x3f4b2c98	0.7936492
65	0x3fa0f746	1.2575462
66	0xbf90f3b6	-1.1324375
67	0xbfd71c18	-1.6805449
68	0x3e615f55	0.22009023
69	0x3f98b88c	1.1931319
70	0xc025ee48	-2.5926685
71	0x3fd96c8c	1.6986251
72	0xc02a033d	-2.6564476
73	0xbdaf0ce5	-0.08547381
74	0xbf7ec139	-0.99513584
75	0x3f578fc5	0.8420375
76	0xc0cfb8f2	-6.4913263
77	0xbf2ef253	-0.6833851
78	0xc010db66	-2.263391
79	0x40050769	2.0785773
80	0x3fab7bed	1.3397194
81	0x3fc12721	1.5090066
82	0xc01c8bc1	-2.44603
83	0xbe2db570	-0.16963744
84	0xbfaf5225	-1.3696944
85	0xbf12b30b	-0.5730445
86	0x3eb68a11	0.3565221
87	0x403efb33	2.984082
88	0x3eab8405	0.3349916
89	0xbf2b8b5b	-0.67009515
90	0x3f4b5ed4	0.7944157
91	0x405d19b2	3.4546933
92	0xbff93b81	-1.9471284
93	0xc021c6d0	-2.5277596
94	0xc0086d5a	-2.1316743
95	0xc04775a1	-3.1165545
96	0x40269b35	2.603223
97	0xbf94b44b	-1.1617521
98	0xbf878c79	-1.0589744
99	0xbff6d6dc	-1.928432
100	0x3dfbce99	0.12295265
101	0xbffe12d0	-1.9849491
102	0xc067512c	-3.6143293
103	0x3f67bf1d	0.9052599
104	0xbeaae214	-0.3337561
105	0xbf89c8e3	-1.0764431
106	0xc055f47d	-3.3430474
107	0xbdc5acc7	-0.09652095
108	0xbdf8fcd0	-0.12157595
109	0xc05e4554	-3.4729815
110	0x3ffe22e0	1.9854393
111	0xc009507d	-2.1455376
112	0x402e8b5f	2.7272565
113	0xbfeec732	-1.865454
114	0x3f7a7bb8	0.9784503
115	0x3f81cf8f	1.0141467
116	0x4027d28a	2.6222253
117	0xbefd25b4	-0.49442828
118	0xbea61c95	-0.3244368
119	0x3e2966e9	0.16543163
120	0x3f145d5e	0.5795497
121	0xbdbf8262	-0.093510404
122	0x405861b2	3.3809628
123	0x3f3791bb	0.7170674
124	0xc04daa42	-3.2135167
125	0x3fe9dcb2	1.8270476
126	0xc07a19d1	-3.9078257
127	0xbf6ba28e	-0.92044914
128	0xbf91f4a0	-1.1402779
129	0xbecbf549	-0.39835575
130	0x3f161e63	0.58640116
131	0xbfd64f68	-1.6742983
132	0xbf89b731	-1.075903
133	0x403835b6	2.8782783
134	0xc0278a48	-2.617815
135	0xc0335a2d	-2.802379
136	0xbf001fc4	-0.5004847
137	0xbfa8d497	-1.3189877
138	0x3f78ecd4	0.9723637
139	0xbf895a1d	-1.0730625
140	0x404232aa	3.0343423
141	0xc026e4b2	-2.6077085
142	0xbf8d8db3	-1.1058868
143	0xbf8506f4	-1.0392747
144	0x3f862f54	1.0483193
145	0xbfbaea52	-1.4602759
146	0x40277f1d	2.6171334
147	0x3f889df3	1.0673202
148	0x3fc98661	1.5744134
149	0xbfee34ed	-1.8609902
150	0xbf14ac15	-0.58075076
151	0xbf69327f	-0.91092676
152	0xc08fa6e1	-4.489121
153	0xbf34ce9f	-0.7062778
154	0x4017b764	2.3705683
155	0xbf4eacbd	-0.8073233
156	0x3f59518d	0.8489006
157	0xc088a9a8	-4.27071
158	0x3f5f86e3	0.87315196
159	0x409df041	4.935578
160	0xbf84f85f	-1.0388297
161	0x3fb748a1	1.431904
162	0x3fa68a5f	1.3010978
163	0xc0484038	-3.1289196
164	0xbfff15c4	-1.9928517
165	0xc046d3f1	-3.1066859
166	0x3f05de69	0.52292496
167	0xbeab5776	-0.33465165
168	0x3f28110e	0.65651023
169	0xbbd404c2	-0.0064702937
170	0x400127eb	2.0180614
171	0xc027cef8	-2.6220074
172	0x3e14f98b	0.14548318
173	0xbc72bedf	-0.014816015
174	0x40000881	2.000519
175	0x405799c1	3.3687594
176	0x4021e441	2.5295565
177	0xbfb8bdb4	-1.4432893
178	0xbf9d4084	-1.2285314
179	0x3eaa0260	0.33204937
180	0x403cf586	2.9524856
181	0xc030a860	-2.7602768
182	0x3f2309db	0.63686913
183	0x3d2d0191	0.042237822
184	0xbd0db467	-0.034595873
185	0x4007336d	2.1125138
186	0x3ec57d6f	0.3857226
187	0x400aaa8a	2.1666589
188	0x3fe00a41	1.7503129
189	0xc09b83f3	-4.859857
190	0xbfb0dfd1	-1.3818303
191	0x401da561	2.463219
192	0x40163ef1	2.3475916
193	0x405ce56c	3.4515028
194	0xbe15d9b0	-0.14633822
195	0x40a4c93f	5.149566
196	0x3f67fa30	0.9061613
197	0x404bd2fc	3.1847525
198	0x406f11dd	3.7354653
199	0x40586a76	3.3814979
200	0x408d7c2b	4.421407
201	0x4037c9de	2.871696
202	0xc0ab3035	-5.3496346
203	0x40122145	2.2832806
204	0x40103c90	2.2536964
205	0xbffbe081	-1.9677888
206	0x3f176d3a	0.5915104
207	0x3f9996d0	1.1999149
208	0x400b5354	2.176961
209	0xbf08e965	-0.5348113
210	0xbfb96179	-1.4482871
211	0x3e2724db	0.16322653
212	0x3f0e9dc6	0.55709493
213	0x403584d4	2.8362322
214	0xbf45ba3f	-0.77237314
215	0x3f9e8ac6	1.23861
216	0xbfcbd2e9	-1.592374
217	0x404d05da	3.2034822
218	0xbfc3dc72	-1.530165
219	0x40111a89	2.2672446
220	0xbf12f43e	-0.57403934
221	0x406d742f	3.7102163
222	0x3ee499f5	0.4464871
223	0x3f814084	1.0097814
224	0xbf879379	-1.059188
225	0xbfef62f1	-1.870207
226	0x408c05d8	4.3757133
227	0x3ed92fff	0.4241943
228	0x401650b4	2.3486757
229	0x400bb8b3	2.1831481
230	0x3fb15188	1.3853006
231	0x3f78220b	0.96926945
232	0xc0aa963b	-5.3308387
233	0xbff65dc8	-1.924737
234	0x3ff9280f	1.946535
235	0x3edb0b64	0.42782128
236	0x40a8273c	5.2547894
237	0xbfda118f	-1.7036608
238	0xbdb7a819	-0.08967609
239	0xc07d0ab6	-3.9537787
240	0x4071946f	3.7746847
241	0x40444d59	3.067221
242	0x3ff3433c	1.9004893
243	0x403f9020	2.9931717
244	0x400a7723	2.1635215
245	0x3fa07308	1.2535105
246	0x3f7c85a3	0.98641413
247	0x40569b5e	3.3532329
248	0x40097306	2.1476455
249	0x3f1be301	0.60893255
250	0x3f2d6ade	0.6774119
251	0x3f1c31bb	0.6101338
252	0xbff55126	-1.916539
253	0x3e935ca0	0.28781605
254	0x3f6ba178	0.92043257
255	0x403b9983	2.9312446
