dual/pg_same/es_supervised/model.pth.tar (torch, 163543 bytes, 6 tensors)

net.0.weight f4 [32, 874]
0	0xbeaa12e5	-0.3321754
1	0xbd9a77eb	-0.07542404
2	0xbe72839a	-0.23683015
3	0x3e92254e	0.28544086
4	0xbe5c8b13	-0.21537428
5	0xbd951d0d	-0.072809316
6	0xbe8f6f1d	-0.2801446
7	0xbe82c248	-0.2553885
8	0xbd680ea8	-0.056654602
9	0xbe55039e	-0.20802161
10	0x3e11d22b	0.14240329
11	0xbd5f7549	-0.05455521
12	0xbd55b6fa	-0.052176453
13	0x3e31c05e	0.17358539
14	0xbe098a6b	-0.13431709
15	0xbdfe75d8	-0.12424821
16	0x3e4510c9	0.19244684
17	0x3e014f51	0.12627913
18	0xbe049b87	-0.12949954
19	0xbe970017	-0.29492256
20	0x3d8968d2	0.06709446
21	0xbe0f302d	-0.13983221
22	0x3d873913	0.06602683
23	0x3ea65e61	0.3249388
24	0xbe22f7d0	-0.15914845
25	0xbb0873a0	-0.002082087
26	0x3db6de45	0.08929113
27	0x3c830483	0.015993362
28	0xbd6bcb3f	-0.057566877
29	0x3d96b1ba	0.073581174
30	0xbe8ef8bf	-0.27924153
31	0xbd7f0e3c	-0.062269434
32	0x3e8e989e	0.27850813
33	0x3cf3159a	0.029673386
34	0xbdfa1b93	-0.122122906
35	0xbbf9e28e	-0.0076258844
36	0xbebaba69	-0.36470345
37	0xbe0e7f22	-0.13915685
38	0x3e82f176	0.25574845
39	0xbdc1048e	-0.09424697
40	0xbee1084c	-0.43951643
41	0xbe2c8f1e	-0.1685147
42	0xbdd30377	-0.10303395
43	0xbe176630	-0.14785075
44	0x3c64fcab	0.013976256
45	0xbe050dbf	-0.12993525
46	0xbdb5c94f	-0.08876287
47	0xbd5321f8	-0.051546067
48	0x3d68ee1d	0.056867708
49	0x3ecbf573	0.398357
50	0xbcdc77cb	-0.02691259
51	0x3bfa718c	0.0076429304
52	0x3e6db725	0.23214395
53	0x3e4f36d4	0.20235759
54	0x3de5d085	0.112214126
55	0x3cc9d4b1	0.024637552
56	0x3e8eb2dd	0.27870837
57	0xbe58fc6a	-0.21190038
58	0x3d1d1bb0	0.038356483
59	0xbd9b5bfc	-0.07585904
60	0xbcca41ce	-0.024689581
61	0x3e4f497c	0.20242876
62	0xbe75fb58	-0.24021661
63	0x3ca92e9a	0.020652104
64	0x3e1e9cb4	0.15489465
65	0xbd8b27b7	-0.067946844
66	0xbeae846c	-0.34085405
67	0xbe719ef3	-0.2359579
68	0xbe62dec4	-0.22155291
69	0x3e2c929d	0.16852804
70	0xbb02d4c2	-0.001996324
71	0x3d5e4609	0.05426601
72	0x3e6a9b6f	0.22910856
73	0xbd729e2a	-0.05923287
74	0x3d33b9c2	0.043878324
75	0x3de38d53	0.1111094
76	0x3eb14719	0.34624556
77	0x3da02715	0.07819954
78	0xbdee040e	-0.11621867
79	0xbcc8b138	-0.024498567
80	0xbba5a29c	-0.005054785
81	0x3dcddf2f	0.100523345
82	0xbe235633	-0.15950851
83	0x3e037c85	0.12840469
84	0x3d939348	0.07205826
85	0x3d121a4e	0.035669617
86	0xbd404ea1	-0.046949986
87	0x3e0d4a53	0.13797884
88	0xbe132131	-0.1436813
89	0xbeaaf696	-0.33391255
90	0x3de13d34	0.10998002
91	0x3e29fcb0	0.16600299
92	0xbdfcba00	-0.12340164
93	0x3edfd6ae	0.43718475
94	0xbf103220	-0.56326485
95	0x3e88f97f	0.2675285
96	0xbca6a87a	-0.020344008
97	0xbd8522d1	-0.06500781
98	0xbdf58a31	-0.119892485
99	0xbd3fc7c2	-0.046821363
100	0x3e3ed78a	0.18636909
101	0x3948249e	0.00019087127
102	0x3d1843d1	0.03717405
103	0xbf2b650e	-0.6695107
104	0xbe1acd19	-0.15117301
105	0x3e33fd4c	0.17577094
106	0x3dd5de6f	0.104428165
107	0x3cd9b23e	0.02657425
108	0xbe43d331	-0.19123532
109	0xbe4633b1	-0.19355656
110	0x3d73628b	0.05942015
111	0xbe19c18f	-0.15015243
112	0xbe8cdfb9	-0.27514437
113	0x3e1f68cc	0.1556732
114	0x3c082730	0.008310124
115	0x3d9d1be9	0.07671339
116	0x3e669ee2	0.22521546
117	0x3d870f92	0.06594767
118	0xbed30ad5	-0.41219202
119	0x3d05ec09	0.032695804
120	0xbd92c3fa	-0.07166286
121	0x3e082632	0.1329582
122	0x3e7b2754	0.24526721
123	0x3d68faa8	0.05687967
124	0x3e231e07	0.15929423
125	0x3c1b3a07	0.009474284
126	0x3d2db088	0.04240468
127	0x3e87e79c	0.2654389
128	0xbe094553	-0.13405351
129	0xbe80453e	-0.25052828
130	0xbd943da5	-0.0723832
131	0xbc816e68	-0.015799716
132	0x3d1cb0bb	0.03825448
133	0xbe0327ce	-0.12808153
134	0xbc8c3ff4	-0.017120339
135	0x3e835078	0.2564733
136	0x3e165e95	0.14684518
137	0x3c050009	0.008117684
138	0xbe64d9eb	-0.22348754
139	0x3e305334	0.1721924
140	0x3e895b60	0.26827526
141	0x3c10961a	0.0088248495
142	0x3f0fce02	0.5617372
143	0x3e371ff8	0.17883289
144	0xbdd134ef	-0.102151744
145	0xbe0f646f	-0.14003156
146	0x3d8ddb7a	0.069266275
147	0x3df2c266	0.11853485
148	0xbe85835a	-0.26076776
149	0xbe7965ad	-0.24355192
150	0x3c62b175	0.013836254
151	0x3de27e97	0.11059301
152	0x3e5f40c1	0.21802045
153	0xbd4461f9	-0.047944997
154	0xbd977416	-0.073951885
155	0x3d7c99fb	0.061670285
156	0x3e913bd2	0.28365952
157	0x3e69c468	0.2282883
158	0xbcb5eac7	-0.022206677
159	0xbe6c585d	-0.23080583
160	0x3d20a44c	0.039219186
161	0xbd88e6c6	-0.066846415
162	0x3e1e882b	0.15481631
163	0xbe911814	-0.28338683
164	0xbe2a464e	-0.16628382
165	0x3e25d2fd	0.16193767
166	0x3ea35858	0.31903338
167	0xbcb5d8dd	-0.022198135
168	0xbd936ee1	-0.07198883
169	0xbdc5df25	-0.09661702
170	0xbd8f97ba	-0.070113614
171	0x3dd2cf62	0.102934614
172	0xbe1dc29f	-0.15406273
173	0x3e9da5af	0.3079047
174	0xbb8a8138	-0.00422683
175	0x3cfdc728	0.030978754
176	0xbe51e87c	-0.20498842
177	0x3db7ea9b	0.08980294
178	0xbdaa1b09	-0.08305938
179	0xbd1d5d6c	-0.038419172
180	0xbe49f94d	-0.19724007
181	0x3cd38141	0.025818469
182	0x3e9c0c13	0.30477962
183	0x3df74d6d	0.12075315
184	0x3e2c7616	0.16841921
185	0x3da72fce	0.08163415
186	0xbdf17f34	-0.1179184
187	0x3ddb729b	0.10715219
188	0x3e33d706	0.17562494
189	0xbe4a460b	-0.19753282
190	0x3e71d90f	0.23617958
191	0xbe65702f	-0.22406076
192	0x3ee11247	0.43959257
193	0x3dde8732	0.1086563
194	0xbd7420ff	-0.05960178
195	0x3e09272f	0.13393854
196	0x3d911cfc	0.070856065
197	0xbd3b4df4	-0.04572864
198	0x3d5de51e	0.05417358
199	0xbd70b63a	-0.058767535
200	0xbdbee3d1	-0.09320796
201	0xbe69376c	-0.22775048
202	0xbd064522	-0.032780774
203	0xbd529838	-0.0514147
204	0xbcd9a898	-0.02656965
205	0xbe3888ac	-0.18020886
206	0xbe05f49c	-0.13081592
207	0xbe599d26	-0.21251354
208	0xbe18362c	-0.14864415
209	0xbe664a68	-0.22489321
210	0x3d0a779c	0.033805475
211	0xbdc70be6	-0.09719066
212	0x3e022013	0.12707548
213	0x3d888f4f	0.06667959
214	0x3f03c443	0.51471347
215	0xbd3a6211	-0.04550368
216	0xbc0b61a8	-0.00850717
217	0xbe0135fd	-0.12618251
218	0x3bf06ad4	0.0073369537
219	0xbcad3bd6	-0.021146696
220	0x3d77297d	0.0603423
221	0x3def1c55	0.11675326
222	0xbd296ae2	-0.041361697
223	0xbc3b847f	-0.011445164
224	0x3e02c0b9	0.1276883
225	0xbe798661	-0.24367668
226	0xbd60b041	-0.05485559
227	0xbe530b94	-0.20609885
228	0x3e2adeb2	0.16686514
229	0xbe074b92	-0.13212422
230	0xbec626c6	-0.38701457
231	0xbe06ade7	-0.13152276
232	0xbd888871	-0.06666649
233	0xbd811f43	-0.06304791
234	0x3da68faa	0.081328705
235	0x3e46ab0e	0.1940119
236	0xbe16ff2d	-0.1474578
237	0x3ca4a8ba	0.020099986
238	0x3e941247	0.28920195
239	0x3c8558be	0.016277667
240	0x3e2a8289	0.16651358
241	0x3cb134c9	0.021631615
242	0xbecad2ca	-0.39613944
243	0xbe7d335f	-0.24726628
244	0x3dac13ce	0.08402215
245	0xbd284e86	-0.04109051
246	0xbe154366	-0.14576492
247	0xbd4cb4bc	-0.04997705
248	0xbd86d598	-0.065837085
249	0x3e0d142b	0.13777225
250	0x3e3dee68	0.18547976
251	0xbe84abe2	-0.25912386
252	0xbe225c80	-0.15855598
253	0x3e96e6b2	0.29472882
254	0xbd6dab69	-0.058024798
255	0x3e8a77da	0.27044564

net.0.bias f4 [32]
0	0xbe71b805	-0.23605354
1	0xbda275bc	-0.07932612
2	0xbe7f1a71	-0.2491243
3	0x3d3d9229	0.046281967
4	0x3dfbf72f	0.12303006
5	0x3d69e537	0.057103362
6	0x3c91af83	0.017783886
7	0xbcb66486	-0.02226473
8	0x3e0750c2	0.132144
9	0xbc176884	-0.009241227
10	0x3e1f93b2	0.15583685
11	0xbe533570	-0.20625854
12	0xbe20825b	-0.15674727
13	0xbe7c02d5	-0.24610455
14	0xbe97fbb6	-0.29684228
15	0xbe84307c	-0.2581824
16	0xbe00b89c	-0.12570423
17	0xbcb29cdd	-0.021803314
18	0xbe66a517	-0.22523914
19	0x3dab2fba	0.083587125
20	0x3de543c4	0.11194566
21	0xbeeaf528	-0.45890164
22	0xbdc264dd	-0.094918944
23	0x3cd9a4b8	0.026567802
24	0x3ed08529	0.40726593
25	0x3d293859	0.041313503
26	0xbdab8696	-0.083752796
27	0x3e23f11d	0.16009946
28	0xbeb892aa	-0.36049396
29	0x3de32be0	0.11092353
30	0xbbf9c433	-0.0076222657
31	0xbd8a79a0	-0.067614794

net.2.weight f4 [32, 32]
0	0x3de68222	0.112552896
1	0xbc82dbae	-0.015973892
2	0xbecd8411	-0.4013982
3	0x3dd35019	0.10318012
4	0xbe96880f	-0.2940068
5	0xbe44ad23	-0.19206671
6	0x3dd68fff	0.10476684
7	0xbc542238	-0.0129476115
8	0x3da7fe42	0.08202793
9	0xbe762580	-0.24037743
10	0xbe85ff3c	-0.2617129
11	0x3ccd932c	0.025094591
12	0x3ed83e7f	0.4223518
13	0x3e5f5ece	0.21813509
14	0x3e0459b2	0.12924841
15	0x3d3d5ee9	0.04623309
16	0x3eda1031	0.42590478
17	0x3e8f5ff3	0.2800289
18	0xbf176ece	-0.5915345
19	0x3e9fc48d	0.31204644
20	0xbde8f686	-0.113751456
21	0xbec654b1	-0.3873649
22	0xbec54a5d	-0.38533297
23	0x3f1afcd3	0.6054203
24	0x3e27e8db	0.16397421
25	0xbd659228	-0.05604759
26	0x3ef608fd	0.48053733
27	0x3dbc7736	0.09202425
28	0x3c59e842	0.0133000035
29	0xbdfcd6a2	-0.123456255
30	0xbc5ba0ef	-0.013405069
31	0x3e44cf70	0.19219756
32	0xbd80b4c4	-0.06284478
33	0x3d10c867	0.03534737
34	0x3e83df6a	0.2575639
35	0x3d5ee32e	0.054415874
36	0xbdb20cd4	-0.08693853
37	0x3e4f6919	0.20254935
38	0x3e74d7cd	0.23910446
39	0xbe8c65d6	-0.27421445
40	0x3d8d7dcf	0.06908762
41	0xbc36a726	-0.01114825
42	0xbddc8ba6	-0.10768823
43	0xbe0c29d0	-0.13687825
44	0xbdc20e83	-0.09475424
45	0xbe7612e3	-0.24030642
46	0x3d99584b	0.07487544
47	0x3c47f9b8	0.012205534
48	0xbeb5a105	-0.3547441
49	0xbe28d189	-0.16486181
50	0x3e419df8	0.18907917
51	0x3e8183db	0.2529591
52	0xbdf15817	-0.1178438
53	0xbcaabebf	-0.020842908
54	0xbe915412	-0.28384453
55	0x3dfb9154	0.122835785
56	0xbcf0c258	-0.029389545
57	0xbdbeb454	-0.093117386
58	0x3e5dc67f	0.21657752
59	0xbe6ac164	-0.22925335
60	0xbe516eea	-0.20452467
61	0x3c4fa404	0.012673382
62	0xbe426c8d	-0.18986721
63	0xbe117b49	-0.14207186
64	0x3dfb5c1e	0.12273429
65	0x3e8c2ba4	0.27377045
66	0xbf078a59	-0.52945477
67	0xbc76d1e7	-0.015064693
68	0x3db34f00	0.087553024
69	0xbd532319	-0.051547144
70	0xbd389f70	-0.045073926
71	0x3d9ce13e	0.07660149
72	0xbd5add7f	-0.05343389
73	0x3dcb4311	0.09924901
74	0xbe621cd7	-0.22081314
75	0x3d35e6fc	0.044409737
76	0xbe8bfbca	-0.27340537
77	0xbe2390b8	-0.15973175
78	0x3d3818c7	0.044945505
79	0xbde5e28d	-0.11224852
80	0xbe3bd159	-0.18341579
81	0x3e626ac9	0.22111048
82	0xbe010e46	-0.12603101
83	0xbcf7b362	-0.030236904
84	0xbdf591c2	-0.11990692
85	0x3e626137	0.22107397
86	0x3e701b61	0.23447944
87	0xbdbc646e	-0.09198843
88	0xbe60eb45	-0.21964748
89	0xbe419b39	-0.18906869
90	0x3c83ff11	0.016112836
91	0xbdd21edf	-0.102597944
92	0xbd4971eb	-0.049180906
93	0x3ddd62a9	0.108098336
94	0x3e827785	0.2548181
95	0xbea11246	-0.31459254
96	0xbe8a00b4	-0.2695366
97	0xbe129d0e	-0.14317724
98	0x3dedcd77	0.11611455
99	0xbd86733d	-0.06564949
100	0x3ea0857d	0.31351843
101	0x3ea73c80	0.32663345
102	0xbe6f4006	-0.23364267
103	0x3db6fd18	0.089349926
104	0x3e306474	0.1722582
105	0xbcf3900b	-0.029731771
106	0x3df73221	0.12070108
107	0x3e95ded2	0.2927156
108	0x3e48d666	0.19613037
109	0xbd266870	-0.040626943
110	0xbe4060c2	-0.1878691
111	0x3eae7ce4	0.3407966
112	0xbe06509c	-0.13116688
113	0xbdf40542	-0.11915065
114	0xbe5e7222	-0.21723226
115	0x3d1ccff2	0.03828425
116	0x3e571c10	0.21006799
117	0x3e94e778	0.29082847
118	0x3ebd5c07	0.36984274
119	0x3dff4705	0.12464718
120	0xbcfabcc4	-0.030607589
121	0x3de75a28	0.11296493
122	0x3e50b49f	0.20381401
123	0x3af6e55a	0.0018836663
124	0xbe6acc9b	-0.22929613
125	0xbdf775d4	-0.12083021
126	0xbe0c0075	-0.1367205
127	0xbe5d99e2	-0.21640733
128	0x3cead5bf	0.028666375
129	0xbe400441	-0.18751623
130	0xbd79b955	-0.060967762
131	0x3d512d69	0.051068697
132	0xbe600c59	-0.2187971
133	0x3e85f032	0.26159817
134	0xbe0a0f3b	-0.13482372
135	0xbe2ec4a2	-0.17067197
136	0x3dc6e7a8	0.09712154
137	0xbe37229f	-0.178843
138	0xbde3fe61	-0.11132503
139	0xbcdd3a5f	-0.027005373
140	0xbe8cd193	-0.27503642
141	0xbe2e4738	-0.17019355
142	0x3e7dd5c2	0.24788573
143	0x3e9bb5f4	0.30412257
144	0xbde26293	-0.11053958
145	0xbe8bc5ba	-0.2729929
146	0xbd8a941b	-0.0676653
147	0xbe46063d	-0.19338317
148	0xbe47b41b	-0.19502299
149	0xbe21582b	-0.1575629
150	0xbb994969	-0.0046779406
151	0x3e7121b2	0.2354801
152	0xbe373676	-0.17891869
153	0xbeafa433	-0.34304962
154	0xbb6d25c8	-0.003618585
155	0xbeec25e1	-0.4612265
156	0xbeac4fb3	-0.33654556
157	0x3cf778b6	0.030208927
158	0xbce021d2	-0.027359877
159	0x3d9b8b65	0.07594947
160	0xbe5a0b65	-0.21293409
161	0x3cc72a17	0.024312062
162	0xbdfef2a4	-0.12448624
163	0xbc7dc9f1	-0.015490041
164	0x3def9416	0.11698167
165	0x3ebb2d17	0.36557838
166	0x3d552917	0.05204114
167	0xbda463a4	-0.080268174
168	0xbe4812cf	-0.19538425
169	0x3d6c0a18	0.057626814
170	0xbd844c9b	-0.06459924
171	0xbe27286f	-0.16324018
172	0x3f0c2f13	0.5475933
173	0xbe597886	-0.21237382
174	0x3e0461a5	0.12927873
175	0x3d373e07	0.04473689
176	0x3c8583c8	0.01629819
177	0xbe4d8583	-0.20070462
178	0x3e44bcff	0.19212721
179	0xbe8d8c7c	-0.27646244
180	0x3ee1a66f	0.4407229
181	0xbddf22b1	-0.10895289
182	0xbe1d277c	-0.15347093
183	0x3d12874d	0.035773564
184	0xbea51f6e	-0.3225054
185	0x3c03eec6	0.0080525335
186	0xbe41e0c1	-0.18933393
187	0xbd8826c1	-0.06648017
188	0xbe46ba5f	-0.19407032
189	0x3eb8ae5e	0.36070532
190	0x3d0dde4b	0.034635823
191	0xbe3911f2	-0.18073252
192	0x3e8c64a1	0.27420524
193	0xbe99809e	-0.2998094
194	0xbdc52d6f	-0.096278064
195	0x3e22a965	0.15884931
196	0x3dfd7d7e	0.12377451
197	0xba5bd988	-0.00083866017
198	0xbf0ecb8b	-0.5577933
199	0x3dec0d41	0.115259655
200	0x3f183b9b	0.5946595
201	0xbe5a5db5	-0.21324809
202	0xbead8818	-0.33892894
203	0xbdf3d239	-0.11905331
204	0x3c8e298d	0.017353797
205	0xbd5eb0fc	-0.054368004
206	0x3e361d05	0.17784508
207	0xbc4824f3	-0.012215841
208	0xbe5ab0fa	-0.21356574
209	0x3e29ef0b	0.16595094
210	0xbe35f918	-0.17770803
211	0xbdb349cf	-0.08754312
212	0xbe24972c	-0.16073292
213	0x3ea9d9f9	0.33174112
214	0x3d9768bb	0.073930226
215	0xbecf82d2	-0.40529495
216	0x3e127f81	0.14306451
217	0x3e9bb2a2	0.30409724
218	0x3c3d9fb5	0.011573722
219	0xbbe456ed	-0.00696837
220	0x3e4f00cf	0.20215152
221	0xbe5a067c	-0.21291536
222	0xbccff5c6	-0.025385749
223	0xbe724361	-0.23658516
224	0x3e7a4c8b	0.24443261
225	0xbc9c4548	-0.019076005
226	0x3e66724a	0.22504535
227	0x3eb2b98d	0.3490719
228	0xbd801978	-0.06254858
229	0x3e98a5d2	0.2981401
230	0xbc7c4780	-0.015397906
231	0xbd303abe	-0.04302477
232	0xbe23f72a	-0.16012254
233	0xbd866e47	-0.065640025
234	0x3e39c493	0.18141393
235	0x3e1d20c2	0.15344527
236	0xbe8863f6	-0.26638764
237	0xbe3de5f6	-0.18544754
238	0xbe0266c8	-0.1273452
239	0xbe4e5049	-0.20147814
240	0x3eabb33f	0.3353519
241	0xbd825ebf	-0.06365728
242	0x3dbd363b	0.09238859
243	0x3e1ecdd8	0.1550821
244	0xbe713f33	-0.23559265
245	0xbdcb7ac5	-0.09935526
246	0x3e122bd2	0.14274529
247	0x3d014d67	0.031567957
248	0xbef637c8	-0.48089433
249	0x3ba1415c	0.0049211215
250	0xbe20a370	-0.15687346
251	0xbe24330c	-0.16035098
252	0xbe0cbaa6	-0.13743076
253	0x3d9c53dd	0.07633183
254	0xbbfd747d	-0.0077348338
255	0xbd3c3f3b	-0.04595874

net.2.bias f4 [32]
0	0xbe098b30	-0.13432002
1	0xbe15470e	-0.14577886
2	0xbac785fe	-0.0015222428
3	0xbeb7e3bf	-0.35915944
4	0x3d0ce613	0.034399103
5	0x3e6bd711	0.2303126
6	0xbce92cf9	-0.028463827
7	0x3e3e792a	0.18600908
8	0x3e11ba3a	0.14231196
9	0x3f29fa1b	0.66397256
10	0x3c508292	0.012726443
11	0x3de2f80b	0.11082467
12	0x3eeec2dc	0.4663304
13	0xbd3d20dc	-0.046173915
14	0xbcb05c63	-0.021528428
15	0x3d1c24d9	0.03812108
16	0xbe1e2062	-0.1544204
17	0xbe3b6bff	-0.18302916
18	0xbd8e72ee	-0.06955515
19	0xbd8c734b	-0.06857928
20	0xbdbcf225	-0.09225873
21	0x3e17d1e9	0.14826168
22	0x3da8a8f5	0.08235351
23	0xbe236870	-0.15957808
24	0x3d8f4852	0.06996216
25	0x3e97cd5b	0.2964886
26	0x3e2c33da	0.16816655
27	0x3e2656e8	0.1624409
28	0x3e696bc5	0.22795017
29	0xbda1ca2d	-0.0789989
30	0x3d08c994	0.033395365
31	0xbf148af4	-0.58024526

net.4.weight f4 [344, 32]
0	0xbec114c9	-0.3771117
1	0xbea59ebf	-0.32347676
2	0x3e7217a3	0.23641829
3	0x3c9b2855	0.01894013
4	0x3aee3d51	0.0018176233
5	0x3d4385d5	0.047735054
6	0x3df1cbdb	0.118064605
7	0xbeb011c5	-0.34388557
8	0x3e6ed8b5	0.23324855
9	0xbe2b6f74	-0.16741735
10	0xbb805aa7	-0.0039170566
11	0xbe126542	-0.1429644
12	0xbe4e0e12	-0.20122555
13	0xbddb172b	-0.10697778
14	0xbc8b9e9a	-0.0170434
15	0x3e6303be	0.22169396
16	0x3e9364c2	0.2878781
17	0xbea521f6	-0.32252473
18	0x3e378c63	0.17924647
19	0x3d1c31b5	0.03813334
20	0x3ef0e38b	0.47048602
21	0xbe8d7c99	-0.27634123
22	0x3a6335b4	0.0008667365
23	0x3cb9003e	0.022583123
24	0xbee15cad	-0.44016019
25	0x3f0726ad	0.5279339
26	0x3d12f539	0.035878394
27	0xbe638954	-0.22220355
28	0x3da712fa	0.08157916
29	0x3e017060	0.12640524
30	0x3d12cde4	0.035840884
31	0x3e864857	0.26227066
32	0xbdc15fc0	-0.09442091
33	0xbd26b760	-0.040702224
34	0x3cfae8fa	0.03062867
35	0xbe9ddbe2	-0.3083182
36	0x3e5c6a90	0.21525025
37	0x3d07fc86	0.03319981
38	0x3e9cec16	0.3064887
39	0x3d96fc23	0.0737231
40	0x3df476ba	0.11936708
41	0xbcccc550	-0.02499643
42	0x3e9530a6	0.29138678
43	0xbd8c4372	-0.06848802
44	0x3d25972a	0.040427364
45	0x3d193c2d	0.037410904
46	0x3ef374a2	0.4754992
47	0x3cf5d0cb	0.030006787
48	0xbda8f06d	-0.082489826
49	0xbd7f534e	-0.062335305
50	0xbd0e1f2c	-0.034697697
51	0x3a7fad1d	0.0009753274
52	0x3d81700f	0.063202016
53	0x3debe958	0.11519116
54	0x3e388f96	0.18023524
55	0xbd29051d	-0.041264642
56	0xbe22b62a	-0.15889803
57	0x3e4a3d28	0.19749892
58	0xbe383355	-0.17988332
59	0xbdad35f0	-0.084575534
60	0x3de89ab3	0.113576315
61	0x3e0fe363	0.14051585
62	0xbd4586d1	-0.048224274
63	0x3e340f1d	0.1758389
64	0x3e15faff	0.14646529
65	0x3d9082c9	0.07056195
66	0xbe3495f9	-0.17635335
67	0x3e8b656d	0.2722582
68	0x3e33b80b	0.17550676
69	0xbd9f3fd8	-0.07775849
70	0x3e9a5be1	0.30148223
71	0x3eac2e25	0.33628955
72	0xbec49eb5	-0.38402334
73	0x3c7f0963	0.015566203
74	0x3d5a7f6a	0.053344168
75	0x3e298a95	0.16556771
76	0xbc547020	-0.012966186
77	0xbe02b8c9	-0.12765802
78	0xbeb1a006	-0.346924
79	0x3e56395d	0.2092032
80	0xbcff6abb	-0.031178823
81	0x3d9f3524	0.07773808
82	0x3d141b06	0.036158584
83	0xbc7baac5	-0.015360539
84	0xbe4999e4	-0.19687611
85	0x3dc281af	0.094973914
86	0x3e125787	0.14291202
87	0x3db96aad	0.0905355
88	0xbe06f734	-0.13180238
89	0xbddaf4d0	-0.106912255
90	0x3ed1499c	0.40876472
91	0xbe135bad	-0.1439044
92	0xbe1bb05a	-0.15203992
93	0xbe284aee	-0.16434833
94	0xbf2a54af	-0.66535467
95	0xbd0bca87	-0.034128692
96	0xbd5b8293	-0.053591322
97	0xbe15e0b1	-0.14636494
98	0x3c60e0da	0.013725484
99	0xbdb4d5f2	-0.08829869
100	0xbd2a352b	-0.04155461
101	0xbe74d3f9	-0.23908986
102	0x3deacc14	0.11464706
103	0xbd88ca89	-0.066792555
104	0x3ec43bfc	0.38327014
105	0xbe522496	-0.20521769
106	0x3eab3f1f	0.33446595
107	0x3d93b314	0.07211891
108	0xbe745bba	-0.23863116
109	0x3da615f4	0.08109656
110	0xbd7433ef	-0.05961984
111	0x3ea303ed	0.31838933
112	0x3e372c10	0.17887902
113	0xbe0f1341	-0.13972189
114	0xbe4b1511	-0.19832255
115	0xbd812f6d	-0.06307874
116	0x3df3a8fe	0.11897467
117	0x3edfb21d	0.43690577
118	0x3daece8e	0.08535491
119	0x3eef6c29	0.46762207
120	0x3e04fd7b	0.1298732
121	0xbdb19d44	-0.08672574
122	0x3e075d07	0.13219081
123	0x3ea79514	0.32730925
124	0xbd000f43	-0.031264555
125	0x3eb355fe	0.35026544
126	0xbe6728ce	-0.2257416
127	0xbca939bb	-0.02065741
128	0x3ec7afbb	0.3900126
129	0x3e0b6949	0.13614382
130	0xbd407a1f	-0.046991464
131	0xbd4f03ad	-0.050540615
132	0x3f0020c4	0.50049996
133	0x3cd42bde	0.025899824
134	0xbd92b4cb	-0.0716339
135	0x3da7287d	0.081620194
136	0x3de80d17	0.11330622
137	0xbe00f829	-0.12594666
138	0x3e2f3ecb	0.17113797
139	0xbd93091e	-0.07179473
140	0x3eae451b	0.34037098
141	0x3e35a919	0.17740287
142	0x3caa46f0	0.020785779
143	0x3b874a1c	0.0041287076
144	0x3ee6f3a7	0.45107767
145	0x3e7be19c	0.24597782
146	0xbeaa74e1	-0.33292297
147	0xbed4dfc0	-0.41576958
148	0xbd81893b	-0.06325003
149	0x3d3b7602	0.045766838
150	0x3e89e0b5	0.2692925
151	0xbe3003a6	-0.17188892
152	0xbdc1be59	-0.09460134
153	0xbe1b6876	-0.15176567
154	0x3e7f83db	0.24952643
155	0xbded0a10	-0.11574185
156	0x3d64e7b9	0.05588505
157	0xbe5da1ba	-0.21643725
158	0xbe5d9128	-0.21637404
159	0x3e830bfa	0.25595075
160	0x3d7190cf	0.05897599
161	0xbe8ed02c	-0.27893198
162	0xbe1c360f	-0.15254997
163	0x3d8cfb0c	0.06883821
164	0x3e34c7ec	0.17654389
165	0x3d2dee21	0.042463426
166	0x3ea0eb17	0.3142936
167	0xbda3ceec	-0.079984516
168	0x3e7d50fa	0.24737921
169	0xbc247196	-0.010036847
170	0x3ebff0b1	0.3748832
171	0x3e24c34d	0.16090126
172	0x3e44a156	0.1920217
173	0xbd39b753	-0.045340847
174	0x3d5a1103	0.05323888
175	0xbd8c8423	-0.068611406
176	0xbe1989d4	-0.14993984
177	0x3d36bc9e	0.044613473
178	0xbdb1d7ae	-0.08683716
179	0x3e3cf542	0.18452933
180	0x3e1f3916	0.1554912
181	0x3e82aab7	0.2552087
182	0xbeb951cb	-0.36195216
183	0xbea77cec	-0.32712495
184	0xbc13330f	-0.008984341
185	0x3e160d0b	0.14653413
186	0xbe73eee8	-0.23821604
187	0xbe3d8e67	-0.18511353
188	0xbe95fb85	-0.29293457
189	0x3e83c502	0.25736243
190	0x3e718d32	0.23589018
191	0x3c1d8f9a	0.009616757
192	0x3dd7850a	0.10523422
193	0x3d1a8899	0.037727926
194	0xbe026701	-0.12734605
195	0xbe8b5247	-0.2721121
196	0xbee29320	-0.44252872
197	0x3efb4d00	0.49082184
198	0x3e816360	0.2527113
199	0xbd905578	-0.07047552
200	0xbe28f680	-0.16500282
201	0xbe555095	-0.20831521
202	0x3bde8b63	0.0067915185
203	0xbddccd88	-0.107813895
204	0xbe7b4a5e	-0.24540088
205	0xbe68d367	-0.22736894
206	0xbe6ad818	-0.22933996
207	0xbcbff217	-0.023430867
208	0xbe3b7308	-0.183056
209	0x3d299a2b	0.04140679
210	0xbb8aa314	-0.004230866
211	0xbd2a4f6c	-0.04157965
212	0xbd4126e9	-0.04715625
213	0xbf0865fc	-0.53280616
214	0x3c3bc022	0.011459382
215	0x3d5aabe4	0.053386584
216	0x3e678320	0.22608614
217	0xbe518866	-0.20462188
218	0xbe83176b	-0.25603804
219	0xbd84aa73	-0.06477823
220	0x3e695c11	0.22789027
221	0xbcb5fc5a	-0.022215057
222	0xbd341c94	-0.043972567
223	0x3e82acf9	0.25522593
224	0xbda83aaf	-0.08214318
225	0x3c413cc5	0.011794274
226	0x3e9d9b0f	0.30782363
227	0xbe56e9c1	-0.20987608
228	0x3eb083d9	0.34475592
229	0x3e088274	0.13331014
230	0xbe2f0ce4	-0.17094761
231	0x3e0bda5b	0.13657515
232	0xbd0affd9	-0.0339354
233	0xbe8dc089	-0.27685955
234	0xbeb4634c	-0.35232008
235	0xbdf557c5	-0.11979631
236	0x3db92a5e	0.09041284
237	0xbe1ae49a	-0.15126267
238	0xbe90c40d	-0.28274575
239	0x3e1a97bf	0.15096949
240	0x3e3ef452	0.18647888
241	0x3d600ae5	0.05469789
242	0xbdeb34e7	-0.114847
243	0x3ce403d5	0.027833859
244	0x3dc1c1a3	0.094607614
245	0xbd509f68	-0.05093327
246	0x3f138dd5	0.57638294
247	0x3ebda06f	0.37036464
248	0x3dcb37b0	0.09922731
249	0xbe145422	-0.14485219
250	0x3db7a287	0.089665465
251	0x3dee3c62	0.11632611
252	0x3c922695	0.017840663
253	0x3e8a5529	0.27018097
254	0xbdc990b5	-0.09842054
255	0x3e2689db	0.16263525

net.4.bias f4 [344]
0	0xbd68bfd9	-0.056823585
1	0x3e2f4116	0.17114672
2	0x3e34e9b4	0.17667276
3	0x3e047251	0.12934233
4	0xbef928d5	-0.48663965
5	0x3c8c8b57	0.017156286
6	0xbe71c9cc	-0.23612136
7	0x3db8ecfc	0.09029576
8	0xbe23e24d	-0.16004296
9	0x3e073d13	0.13206892
10	0xbe9e5d2a	-0.30930454
11	0x3e966f39	0.2938173
12	0x3d4945bd	0.049138773
13	0x3e08897d	0.13333698
14	0xbecca284	-0.3996774
15	0x3e53891c	0.20657772
16	0x3cf6f0ff	0.030144213
17	0x3e25abac	0.16178769
18	0x3e9c626a	0.30543834
19	0xbd6f1a92	-0.05837495
20	0x3e1ddfdd	0.15417428
21	0x3e2feb51	0.1717961
22	0xbd7a0670	-0.061041296
23	0xbcc504a3	-0.024050063
24	0xbe4612b0	-0.19343066
25	0xbdcf2425	-0.10114316
26	0x3d52a3f5	0.051425893
27	0xbe558eb9	-0.20855226
28	0x3e896a7e	0.2683906
29	0xbe10982f	-0.14120553
30	0x3d4477a3	0.047965657
31	0x3e3691df	0.17829083
32	0x3e627340	0.22114277
33	0x3de66f45	0.11251692
34	0xbeb0e664	-0.34550774
35	0xbe1284da	-0.14308491
36	0x3e82d9bc	0.25556743
37	0x3eb25c72	0.34836155
38	0xbde6b21d	-0.11264441
39	0x3dbe4e53	0.09292283
40	0xbe05650d	-0.13026829
41	0x3d75bf03	0.059996616
42	0x3df30b30	0.11867368
43	0xbe57816d	-0.21045466
44	0xbdd3d197	-0.103427105
45	0x3d610f5b	0.054946285
46	0x3e104dd5	0.1409219
47	0xbe9c334f	-0.30507895
48	0x3e33620c	0.1751787
49	0x3e79686b	0.24356239
50	0x3e419c7d	0.18907352
51	0xbe026c3a	-0.12736598
52	0x3e5f297f	0.21793173
53	0xbd0b438b	-0.03399996
54	0x3e3acc55	0.18242009
55	0xbe098e5e	-0.13433215
56	0xbce15b56	-0.027509373
57	0x3e7f5bfc	0.24937433
58	0xbe17de32	-0.14830855
59	0x3edcadb3	0.43101272
60	0x3e68d119	0.22736014
61	0xbead51de	-0.33851522
62	0xbe50573e	-0.2034578
63	0x3d84493e	0.06459282
64	0xbd3e151a	-0.046406843
65	0xbd9c77a2	-0.07640006
66	0x3d6888e2	0.056771167
67	0x3d8c5b99	0.06853408
68	0x3d6635d5	0.056203682
69	0x3e418b7b	0.18900864
70	0x3db06b7c	0.08614251
71	0x3dea0570	0.11426818
72	0x3e568f87	0.20953189
73	0x3e8287d6	0.2549426
74	0xbe1113b6	-0.14167675
75	0x3dcd1c06	0.10015111
76	0xbeb07447	-0.34463713
77	0x3d527a80	0.051386356
78	0xbe0d5ecb	-0.13805692
79	0x3e74d14d	0.23907967
80	0x3ca5ce16	0.020239871
81	0xbd1c004f	-0.03808623
82	0x3e885229	0.26625183
83	0x3d643a24	0.05571951
84	0x3d6ee725	0.058325905
85	0x3ec6d7b4	0.38836443
86	0x3d8ef24b	0.069798075
87	0x3ccfcefe	0.025367256
88	0xbe90f9d4	-0.28315604
89	0x3d8a7f3f	0.067625515
90	0x3b1f681c	0.0024323529
91	0xbdf010a1	-0.11721922
92	0x3e1f7473	0.15571766
93	0x3c68b5de	0.014203517
94	0x3d6e61a1	0.058198575
95	0x3c83401e	0.016021784
96	0x3da5c6fe	0.080945954
97	0x3e5fc882	0.21853831
98	0xbe836d1e	-0.25669187
99	0x3dd99f09	0.10626037
100	0xbdd10550	-0.102060914
101	0xbdd952cd	-0.10611496
102	0xbc918237	-0.017762287
103	0xbe10c39c	-0.14137119
104	0xbe380908	-0.17972195
105	0x3e401da8	0.18761313
106	0x3d88954f	0.06669103
107	0xbdb20765	-0.08692817
108	0xbe14649e	-0.14491507
109	0xbd5531b5	-0.052049357
110	0xbd019b8e	-0.03164249
111	0xbe7f56e8	-0.24935496
112	0xbc6b0016	-0.014343282
113	0x3daf57f9	0.08561701
114	0xbee0d3c9	-0.4391158
115	0x3dc8898d	0.09791861
116	0xbeb373a9	-0.3504918
117	0x3e321b9f	0.17393349
118	0x3debf366	0.11521034
119	0xbe851567	-0.2599289
120	0xbeab2ea2	-0.33434016
121	0xbddf4537	-0.109018736
122	0x3da824e8	0.08210164
123	0x3e274c5c	0.16337723
124	0xbab8811f	-0.0014076567
125	0xbe99ae03	-0.30015573
126	0xbe4506f1	-0.19240929
127	0x3e641c45	0.22276409
128	0xbf0def6f	-0.5544347
129	0x3d75348d	0.05986457
130	0xb9e65f2b	-0.00043939924
131	0xbe52ec7b	-0.20598023
132	0x3e12d752	0.1433995
133	0xbf0a2754	-0.5396626
134	0x3df0baed	0.11754403
135	0xbe1c04bd	-0.15236183
136	0xbd6cbbb7	-0.057796206
137	0x3dea0fde	0.11428808
138	0xbc6f8723	-0.014619621
139	0x3e5b8f20	0.21441317
140	0xbdab1032	-0.083526984
141	0x3e878817	0.26471016
142	0x3ead57e4	0.33856118
143	0x3e60e2b3	0.21961479
144	0xbe355149	-0.17706789
145	0xbda0e7c9	-0.078567095
146	0xbdaab4e7	-0.08335286
147	0xbd63d582	-0.05562354
148	0x3eb097be	0.3449077
149	0xbe8a2b58	-0.26986194
150	0xbe3047c8	-0.17214882
151	0xbe378017	-0.17919956
152	0xbde337e2	-0.11094643
153	0x3e7327f2	0.23745707
154	0xbe326169	-0.17419972
155	0xbeab7d30	-0.33493948
156	0xbcb505ea	-0.022097547
157	0xbdff4433	-0.1246418
158	0x3de7afe9	0.11312849
159	0xbdd68cfe	-0.10476111
160	0xbed973c2	-0.4247113
161	0x3e84af2c	0.25914896
162	0x3dd51419	0.10404224
163	0x3d37436a	0.044742025
164	0x3d748cc1	0.059704546
165	0xbc7994b6	-0.015233209
166	0xbdd221b2	-0.10260333
167	0xbd8f4de4	-0.06997278
168	0xbec25d16	-0.37961644
169	0x3e1b51bd	0.151679
170	0x3e801e01	0.2502289
171	0x3d92924c	0.0715681
172	0x3dd4d20f	0.10391628
173	0xbd14dbaf	-0.03634232
174	0x3eaa92c3	0.33315095
175	0xbea86977	-0.32892963
176	0x3c806616	0.015673678
177	0x3e3c2e30	0.18376994
178	0xbe7331ca	-0.23749462
179	0x3d71939c	0.058978662
180	0x3e06ceef	0.13164876
181	0xbeb1ba46	-0.34712428
182	0x3c1e9ced	0.009680969
183	0x3e311a84	0.17295271
184	0x3e8ea12c	0.2785734
185	0x3d367d1a	0.0445529
186	0xbd34ad20	-0.044110417
187	0xbe1eadeb	-0.15496032
188	0x3d07dc1c	0.033168897
189	0x3cb34ff7	0.021888716
190	0xbdbfef69	-0.09371836
191	0xbbd07c1d	-0.0063624517
192	0x3e899450	0.26870966
193	0x3e116849	0.14199938
194	0x3ddc44ea	0.10755332
195	0x3e80673b	0.2507876
196	0xbd40d87e	-0.047081463
197	0xbece7a57	-0.40327713
198	0x3d8ae026	0.06781034
199	0xbe7e0085	-0.24804886
200	0xbc61022b	-0.013733427
201	0xbf098ef4	-0.53733754
202	0xbdc759bd	-0.09733913
203	0x3d84262f	0.064525954
204	0x3e260ea9	0.1621653
205	0xbdaba1a5	-0.083804406
206	0xbea1300d	-0.31481972
207	0x3bb9ebbc	0.0056738537
208	0x3e9a30b8	0.30115294
209	0x3eabd76e	0.33562797
210	0xbd144cbe	-0.036206
211	0x3e845c57	0.258517
212	0xbdfbf870	-0.12303245
213	0x3ccbed65	0.024893472
214	0xbdb2839e	-0.0871651
215	0xbdb57236	-0.08859675
216	0x3cd3f968	0.025875762
217	0xbcb69ff4	-0.022293068
218	0xbdf702dc	-0.12061092
219	0x3ebe83f0	0.37210035
220	0xbeb2280a	-0.34796172
221	0x3dfe3027	0.12411528
222	0xbe5e22bb	-0.21692936
223	0xbcbdc2a8	-0.023164108
224	0xbe8460a6	-0.25854987
225	0xbe264b4e	-0.16239664
226	0xbe1dcd22	-0.15410283
227	0xbd76b4c6	-0.060230993
228	0x3ccfad7f	0.025351284
229	0xbe15b7aa	-0.14620844
230	0x3e39aa55	0.18131383
231	0xbeab67ed	-0.33477727
232	0xbc867834	-0.01641474
233	0xbec2561a	-0.37956315
234	0xbe93d75a	-0.28875238
235	0x3d4d2cc6	0.050091527
236	0xbed6f049	-0.41980198
237	0x3e9487d7	0.29009888
238	0x3e1d3ecc	0.15355986
239	0x3dcde7e8	0.10053998
240	0xbe35577f	-0.17709158
241	0xbc5754f6	-0.013142815
242	0xbd96c870	-0.07362449
243	0x3e60fe6a	0.21972051
244	0x3e905125	0.28186908
245	0x3e533b66	0.20628127
246	0x3df8dffd	0.121520974
247	0xbe85155d	-0.2599286
248	0xbe008359	-0.12550105
249	0x3b284a16	0.0025678924
250	0xbc8763e4	-0.016527124
251	0x3d6da969	0.05802289
252	0x3ce99968	0.028515533
253	0xbd9c1c77	-0.07622617
254	0x3dc8e74c	0.098097414
255	0x3e584c9c	0.21122974
