dual/pg_same/es_supervised/model.pth.tar (torch, 163543 bytes, 6 tensors)

net.0.weight f4 [32, 874]
000000 d9 d9 d9 c0 11 ff bf 3f 1a d7 60 be cc 4b 36 c0
       -6.8078427 1.4999715 -0.21957055 -2.8483763
000010 c7 3e 16 3f df 62 55 c0 b7 13 c0 bf f2 08 c4 bf
       0.5868954 -3.3341596 -1.5006016 -1.531523
000020 8d 3f 83 be 71 09 2d 40 55 08 ba c0 e2 85 42 be
       -0.25634423 2.7037013 -5.813517 -0.18996385
000030 7b d5 6d bf db 15 1b 40 53 86 6a 3f d5 36 ef bf
       -0.9290387 2.423209 0.9161121 -1.8688608
000040 f8 04 77 c0 c1 3e b1 3f 1e 01 2e c0 b8 8b 8b c0
       -3.8596783 1.3847276 -2.7188182 -4.3608055
000050 1a ea e1 bf 7a 31 97 bf 02 5b 0e bf 52 71 4f c0
       -1.7649567 -1.1811974 -0.55607617 -3.2412915
000060 46 e9 09 c0 63 08 ce 3f cf 93 5e bf c7 64 2f c0
       -2.1548629 1.609631 -0.8694429 -2.740526
000070 09 e1 aa 40 05 04 a2 bf 74 fb bf 3f 12 83 ac bf
       5.33997 -1.2657477 1.4998612 -1.34775
000080 ed a2 af bd 02 e9 d7 3f 83 7d 4b bf 23 f2 c1 be
       -0.085759975 1.6867983 -0.7948839 -0.37880048
000090 59 58 46 c0 cd fc 81 be 10 b8 a0 40 ea e5 e9 3e
       -3.0991423 -0.25388184 5.0224686 0.45683223
0000a0 f9 ab aa bf 41 cf ff bd 9c 34 1f bf 8d df 24 c0
       -1.3333732 -0.124907024 -0.6218965 -2.5761445
0000b0 1f ad 4f 40 69 25 b3 c0 18 c0 4b 40 cf bd 5d 40
       3.2449415 -5.5983167 3.1835995 3.46471
0000c0 fd 3d 9e c0 ee 6e ea c0 17 9f 30 c0 3a ad 14 40
       -4.945067 -7.326041 -2.75971 2.323073
0000d0 8f 99 98 bf f7 13 41 c0 83 45 e3 bf 5e bf de c0
       -1.1921862 -3.0168436 -1.7755588 -6.9608603
0000e0 06 03 a2 be d8 85 44 c0 92 f0 e8 3f 4d e3 c2 c0
       -0.31642932 -3.0706692 1.8198416 -6.0902467
0000f0 e6 12 8a 40 a9 88 71 c0 bc 6c 3d c0 fa 61 1c bd
       4.314807 -3.773966 -2.9597616 -0.038179375
000100 c5 cb b5 c0 1f e9 62 40 e0 e2 45 bf 80 9f e3 3f
       -5.681124 3.5454786 -0.7729931 1.778305
000110 90 f4 9f 40 a2 b6 05 3f 01 ba be bc 73 64 0f bf
       4.998604 0.522318 -0.023282053 -0.5601265
000120 96 b1 98 c0 19 c6 71 c0 a2 90 5e 40 cc 11 12 3f
       -4.771678 -3.777716 3.4775777 0.57058406
000130 6d 2a 6c bf 77 aa fc be f0 6e 82 40 9e 12 b3 40
       -0.92252237 -0.49348804 4.076042 5.5960226
000140 85 df f7 3d 13 95 ac bf cf 37 57 3f cd 35 cb be
       0.1210318 -1.3482994 0.8406953 -0.39689484
000150 51 b9 c3 bf 75 e9 de 3f 98 dc 67 40 68 d8 15 40
       -1.5290929 1.7414995 3.622839 2.3413334
000160 c8 8c 40 3f 5b 0a 57 be c4 13 8a c0 a3 8b 8f 3e
       0.75214815 -0.21000044 -4.314913 0.28036222
000170 27 ed 0a 3f d6 5a a7 3f f8 a4 30 40 ec 1e cb 3f
       0.54268116 1.3074596 2.760069 1.5868812
000180 99 ac df bf 34 64 95 bf e0 12 25 40 c1 dc 99 3f
       -1.7474548 -1.1671205 2.579277 1.2020494
000190 2e d8 75 c0 fb f5 c2 bf 00 0c b9 40 3a f7 37 bf
       -3.8413196 -1.5231317 5.782715 -0.7186161
0001a0 20 cb b2 40 d9 4f 1a 3f 1c cc 7f 40 b6 f0 a0 bf
       5.5872955 0.6027809 3.9968328 -1.2573459
0001b0 86 0c 0e 40 e1 0b 2a 40 2d f7 18 c0 53 91 a7 3d
       2.2195144 2.656975 -2.3900864 0.08182015
0001c0 97 ed 16 c0 fa 97 0f 40 da c3 28 c0 1f 05 8f bf
       -2.3582513 2.243651 -2.6369538 -1.1173438
0001d0 4b a8 91 40 7d 74 1a 40 8e a6 66 3f 0f f6 64 3f
       4.5517936 2.4133599 0.9009789 0.89437956
0001e0 42 85 57 40 6a 99 32 3f ca f7 61 bf d0 a3 74 40
       3.3675084 0.6976534 -0.8826872 3.8224983
0001f0 1a 26 e9 3f 8a 00 01 40 54 ac 20 c0 03 ae c1 40
       1.8214753 2.015658 -2.510518 6.0524917
000200 04 72 68 40 a3 58 93 bf 4f a5 aa bf 3c 49 cc c0
       3.631959 -1.1511425 -1.3331698 -6.3839397
000210 f4 9a 99 bf 89 92 56 c0 51 f1 8b 40 9d c9 45 c0
       -1.2000413 -3.3526938 4.3732076 -3.0904305
000220 2f 00 da 3f 8a a4 56 3b 07 8f f5 bd 74 2e 99 c0
       1.7031306 0.0032751882 -0.11990171 -4.7869205
000230 28 32 18 40 1a 14 8d c0 66 73 18 bf 29 55 21 40
       2.3780613 -4.408704 -0.59551084 2.5208228
000240 1e 63 02 3f 6d 5c dc 3e 49 1b 36 40 21 fc 0b 3f
       0.5093249 0.43039265 2.8454154 0.54681593
000250 02 91 29 40 79 65 d9 3f 54 eb 06 c0 30 e3 7c c0
       2.6494756 1.6984092 -2.1081133 -3.9513664
000260 aa 17 34 40 3b 21 22 3f 67 ed f8 3f 8e 4f d7 be
       2.8139443 0.63331956 1.944745 -0.42052883
000270 71 bc c0 3f d6 f0 69 c0 83 1a 15 c0 50 55 f6 3f
       1.5057508 -3.6553245 -2.3297431 1.9244785
000280 e8 7d 92 3f 28 83 1f c0 b7 5f 2e bf 7a 1a eb bf
       1.1444674 -2.4923801 -0.681148 -1.8367455
000290 28 9c 29 c0 29 d1 9c c0 dc 82 ba 3e 3c a0 ec bf
       -2.650156 -4.9005322 0.36427963 -1.84864
0002a0 d5 8f b0 3f b0 70 ba 3f 58 79 b3 bf f9 6f 80 bf
       1.3793894 1.456564 -1.4021406 -1.0034171
0002b0 98 eb 6c 40 b8 07 c3 3f c4 3e 33 40 52 37 a1 40
       3.7018795 1.523673 2.800706 5.038003
0002c0 39 f3 22 c0 b0 bb f6 be 1a 50 d8 be 53 71 02 40
       -2.5460951 -0.4819007 -0.42248613 2.0381668
0002d0 27 84 9b bf 34 1e a0 bf ba bd 1f 3e 4b 33 68 40
       -1.2149705 -1.2509217 0.15599719 3.6281307
0002e0 85 2f af 40 71 d3 85 c0 d2 35 ea bf 87 b8 04 40
       5.4745507 -4.1820607 -1.8297675 2.0737627
0002f0 06 cd dd bd ed cd 6f c0 de 01 42 c0 91 4f f1 bf
       -0.10830121 -3.7469437 -3.031364 -1.8852407
000300 2a 7e 78 c0 cd 98 04 40 5a e4 18 40 4b d9 a5 c0
       -3.8827004 2.0718262 2.3889375 -5.182775
000310 7c 1b 03 bf 83 95 12 3f ec 4f d8 bf 02 43 07 bf
       -0.5121381 0.57259387 -1.689939 -0.5283662
000320 14 96 8f bf 92 ae 6f 40 0b bb 80 40 ea ba 5e c0
       -1.1217675 3.74503 4.0228324 -3.4801583
000330 1c ea a8 40 9b 46 a3 be e5 11 d2 3f 7d 41 6b c0
       5.278578 -0.31889805 1.6411711 -3.675872
000340 7b ab 59 40 5b c7 96 3f fc d7 b6 bf 82 e0 93 c0
       3.4010913 1.1779588 -1.4284663 -4.6211557
000350 fa f1 2f 40 bf ef 54 3f 7b e8 47 40 91 ef 1e c0
       2.749144 0.83178324 3.1235645 -2.483372
000360 73 8d 86 40 15 56 6e c0 e3 15 1a 40 f1 80 60 40
       4.2047668 -3.724004 2.4075859 3.50787
000370 ff 39 2a c0 e7 96 79 3e 91 6f 4d 3f 21 6a 01 c0
       -2.6597898 0.24373971 0.8024836 -2.0221026
000380 3d ab 1d bf 8e d7 ba c0 12 cf e6 3f 8b 84 3e 3d
       -0.61589414 -5.838813 1.8031943 0.04651312
000390 10 d7 a5 bf 8d 8b 8d c0 8e 71 a1 c0 97 cb d2 3f
       -1.2956257 -4.423285 -5.0451117 1.6468381
0003a0 fe ec fd 3e 6c 90 58 3f 2a 2f 6f 40 c6 16 f0 bf
       0.49594873 0.8459537 3.7372537 -1.875695
0003b0 b5 65 73 40 e7 48 38 3f ef 63 11 c0 f1 18 5d c0
       3.8030827 0.7198624 -2.2717245 -3.4546473
0003c0 e4 95 1a be f2 c4 23 40 07 12 56 c0 bf e9 7f 40
       -0.15096241 2.5588956 -3.3448503 3.9986417
0003d0 20 f5 3b be c1 a0 25 c0 bd 57 d2 be 76 a2 3d 40
       -0.18355227 -2.5879366 -0.41082564 2.9630408
0003e0 44 cd 59 c0 c3 b7 a3 40 a9 58 28 40 a4 79 2e c0
       -3.4031534 5.116182 2.6304114 -2.7261744
0003f0 ce 1e 7a 40 38 50 9b 40 28 b6 88 40 76 1e f4 3d
       3.9081302 4.8535423 4.272236 0.119198725

net.0.bias f4 [32]
000000 75 b9 42 bf d7 73 72 3d 4e 75 64 40 75 ae a8 bf
       -0.76064235 0.059192505 3.5696597 -1.317824
000010 d5 c2 68 be e9 b3 73 3e 91 11 fc be e6 91 d6 bf
       -0.22730573 0.23799099 -0.49232152 -1.6763275
000020 41 01 c0 3f be 3a cc bf f3 36 8f 40 f0 64 54 40
       1.5000383 -1.5955427 4.4754577 3.3186607
000030 61 96 90 3f 1f c6 91 3f 4f 37 16 3e 45 87 89 3f
       1.1295892 1.1388587 0.14669536 1.0744406
000040 08 78 92 bf 56 e5 99 3f 13 f0 d1 bf 0e eb 9b 40
       -1.1442881 1.2023113 -1.640139 4.872443
000050 2d ff 21 3f 82 33 80 bf 9f 9e 97 bf 03 2f ca be
       0.6327999 -1.0015719 -1.1845282 -0.39488992
000060 45 06 9e 3f 85 d0 37 c0 07 06 da 3f 62 2f 87 bf
       1.2345663 -2.872102 1.7033089 -1.0561335
000070 b9 49 0b 3f 3e 1e f8 be 77 60 2d 3f 39 e5 2b 40
       0.54409367 -0.48460573 0.6772532 2.6858656

net.2.weight f4 [32, 32]
000000 74 51 d5 3f e1 69 4a c0 97 3f 09 40 90 94 0d c0
       1.6665483 -3.1627123 2.1445062 -2.2121925
000010 74 fc 17 3f 1d 3a d6 bf 30 a8 ea bf e9 d2 40 c0
       0.5936959 -1.6736485 -1.8332577 -3.012873
000020 4e 02 2f 40 02 53 b8 bf 27 3d 82 c0 95 1f 1c 40
       2.7345157 -1.4400332 -4.069965 2.4394276
000030 b7 9f 80 3f 7b 24 22 40 64 71 1a 40 d0 c7 ae c0
       1.0048741 2.5334766 2.4131708 -5.461891
000040 df 58 f3 3f 38 14 e1 3f 05 f8 4a 40 2e f9 53 3e
       1.9011496 1.7584295 3.171388 0.20700523
000050 ef cd 5b bf e1 de a0 c0 3e eb e0 3f b4 cc d2 3e
       -0.85861105 -5.027207 1.757179 0.411718
000060 67 a5 6c 40 06 f9 37 c0 31 e9 b1 40 10 23 12 40
       3.6975954 -2.8745742 5.5597157 2.28339
000070 81 11 d8 3f 1c d2 be bf 38 97 82 c0 95 a0 5a 3f
       1.6880342 -1.490787 -4.0809593 0.8540128
000080 c7 e2 0f bf 65 1f f1 3f 1b 81 66 40 aa 09 eb be
       -0.5620541 1.8837706 3.60163 -0.4590581
000090 5c 74 71 c0 a4 d2 23 c0 32 f8 02 c0 bf 2f 2f 40
       -3.772727 -2.5597315 -2.0463986 2.7372892
0000a0 b3 9d f1 bf a2 dd 83 c0 d1 ad 81 3f 91 19 f7 c0
       -1.8876251 -4.120805 1.013117 -7.721871
0000b0 78 dd 94 c0 78 51 01 c0 cf 53 bf 3f 3f 3e bf 40
       -4.6520348 -2.0205975 1.4947451 5.9763484
0000c0 8b 2a 52 40 c1 eb 73 3e 87 b5 5e 40 b4 9b 9a 40
       3.2838466 0.23820402 3.4798295 4.8315067
0000d0 b4 e8 c6 3f 05 a1 0d 40 19 f2 6d c0 c1 48 26 bf
       1.5539765 2.2129529 -3.7179015 -0.64954764
0000e0 2f 15 c3 40 b7 e4 f4 3e 52 35 92 40 a2 fc 80 bf
       6.096336 0.47830746 4.569009 -1.0077097
0000f0 55 b4 96 c0 c8 3c 33 40 25 c1 1e 3f 77 50 05 c0
       -4.709513 2.8005848 0.62013465 -2.0830362
000100 da 64 95 c0 4e 52 9d c0 4a 5a d4 bf 01 e8 b9 40
       -4.668561 -4.916297 -1.6590054 5.809571
000110 cd 2d c2 c0 1b 7c 5a c0 9e 75 d0 be c6 6a 6d 40
       -6.068091 -3.4138248 -0.40714735 3.709642
000120 1d 3d 3b 3f 18 75 0a bf 6f a1 d2 bf 6d 3c 67 bf
       0.73140126 -0.5408492 -1.6455516 -0.9032658
000130 47 62 6a 40 65 78 22 be 16 23 29 3f 56 07 c0 be
       3.6622484 -0.1586624 0.6606916 -0.37505597
000140 36 36 53 40 bb 2b ba bf 5f c7 2f bf b8 4a 12 c0
       3.3001838 -1.4544595 -0.6866359 -2.2858105
000150 96 8d e0 3f 71 93 22 40 85 fa c4 bf 05 25 63 bf
       1.7543209 2.540249 -1.5388952 -0.8872836
000160 4d 8e b6 bf fd 17 66 3f 6b 8c 75 bf f6 b3 48 c0
       -1.4262177 0.89880353 -0.95917386 -3.135984
000170 02 3a 7a 40 1d 11 d3 3e 8f ef 1b 40 d0 f3 3e 40
       3.9097905 0.41223994 2.4364965 2.9836311
000180 6e dc f3 bf a6 4e 80 40 fe 6e 95 bf 0b eb 09 bf
       -1.9051645 4.0096006 -1.1674497 -0.5387427
000190 91 50 7e 3f 74 87 05 40 86 af cf 3f 95 df 8b 40
       0.99341685 2.0863924 1.622544 4.3710427
0001a0 19 ff 94 3e 2e 60 73 c0 a1 ac 17 bf c4 41 8a 3f
       0.29100874 -3.8027453 -0.59247786 1.080132
0001b0 95 99 8e 40 c4 2c 5d c0 73 7c b2 be 51 f9 e7 3f
       4.456248 -3.4558573 -0.34860572 1.812296
0001c0 ff 40 28 c0 d6 ab 11 40 50 c6 99 c0 e0 22 a5 bf
       -2.628967 2.276113 -4.805458 -1.2901268
0001d0 6c 43 20 3f 48 04 5e 40 e5 33 8a 3f 38 f3 18 bf
       0.6260288 3.4690113 1.0797087 -0.5974612
0001e0 f7 6f fd 3c e4 de 5e c0 cd 5b 7e 3f 49 17 83 40
       0.030937178 -3.4823542 0.99358827 4.0965924
0001f0 3a 15 7f be 4b 39 d5 c0 df 06 fa be bc 93 cb bf
       -0.24910441 -6.663244 -0.48833367 -1.590446
000200 ac 3f 8a 3f c4 8f 02 c0 ab 44 08 3f d0 71 90 40
       1.0800681 -2.0400248 0.5322978 4.513893
000210 7c 16 88 c0 25 15 a1 40 4d ac 93 bf 9b 98 b4 bf
       -4.2527447 5.033831 -1.1536957 -1.4109071
000220 4a 79 a5 3e f3 b5 78 c0 c3 94 68 c0 ba e6 00 40
       0.323191 -3.8861053 -3.6340797 2.0140824
000230 d2 b8 28 40 49 34 41 bf 2b c7 1e c0 30 cb e9 3f
       2.6362805 -0.75470406 -2.4809062 1.8265133
000240 52 cd 00 40 7e 21 e6 3f 42 44 94 bf 20 05 00 c0
       2.0125318 1.7978971 -1.1583331 -2.0003128
000250 8c 5c 26 c0 1a ec 82 bf 36 9f d9 3f 4c 73 40 40
       -2.5993986 -1.0228302 1.7001712 3.0070372
000260 25 e0 32 3e 10 c6 95 3f 8c f6 b4 bf eb 6c 1c c0
       0.17468317 1.1701069 -1.413774 -2.4441478
000270 0c d3 00 41 2e af 6f 3f 70 d9 88 bf c5 8f ec 3f
       8.051525 0.9362668 -1.0691357 1.8481375
000280 0b 5a 3d bf 88 5e e0 40 a2 42 8a bf 62 6f 92 c0
       -0.7396552 7.0115395 -1.0801585 -4.5760965
000290 e1 b0 82 3f be 86 b1 3f 96 59 2b 40 94 82 82 40
       1.0210229 1.3869245 2.677343 4.0784397
0002a0 17 3a 8a 3f 95 ff fb c0 ba 50 bb be bc 02 76 bd
       1.0798978 -7.874949 -0.36585027 -0.0600612
0002b0 09 fe 74 c0 c3 83 74 c0 ac 6e 0c c0 8e ad b7 3d
       -3.828005 -3.820542 -2.1942549 0.0896865
0002c0 bd 24 0f 3f 55 8c 83 c0 09 33 cd 3f 90 d4 84 c0
       0.55915433 -4.1108804 1.60312 -4.1509476
0002d0 ba 1f 30 40 a8 e4 e0 bf 7b 76 f8 3e d8 99 03 41
       2.7519364 -1.756978 0.48527893 8.2250595
0002e0 61 36 f3 bf 19 08 84 c0 92 38 8b 3e 6a 72 52 3f
       -1.900097 -4.1259885 0.27191597 0.8220583
0002f0 d9 83 1a 3e 6f 5b 05 c0 a6 a0 90 c0 f0 d9 33 3f
       0.15089358 -2.0837057 -4.5196104 0.7025442
000300 28 0f 17 bf eb 8b ef 3e a3 58 ab bf 23 0d 24 40
       -0.590075 0.46786436 -1.3386425 2.5633018
000310 85 fc 6f c0 41 47 83 c0 aa a3 1b 40 81 89 ac c0
       -3.7497876 -4.102448 2.4318643 -5.391785
000320 72 3b 03 3f b3 61 54 3f a7 0c 5f 3f 3b 93 f7 3f
       0.5126258 0.8296158 0.8712868 1.9341806
000330 32 3b 60 40 29 ea 10 c0 6f b4 79 c0 df 64 9d 3f
       3.503613 -2.264292 -3.9016378 1.2296408
000340 39 b9 42 3f ea df de 3f da 7b 52 3f b7 cd e0 be
       0.7606388 1.7412083 0.8222023 -0.43906948
000350 6f cb 63 c0 7e 66 68 be 87 72 29 3f 51 ab 10 bf
       -3.5592916 -0.22695348 0.6619038 -0.5651141
000360 5a 09 1e 40 b8 d0 68 bf a1 84 56 3e 07 e8 7c 3e
       2.4693208 -0.9094348 0.20949031 0.24697886
000370 e1 ae b0 40 c2 a1 c6 c0 2f 5e ca be 82 50 03 40
       5.5213475 -6.207246 -0.3952498 2.0517888
000380 07 5d 20 be b8 b6 21 c0 4d 37 8f be 09 fb a7 bf
       -0.15660487 -2.5267773 -0.2797188 -1.3123485
000390 8a ce 5c 3f 6b 5e 36 40 b0 52 d6 be 4a 5a 3f c0
       0.86252654 2.8495128 -0.4185996 -2.9898858
0003a0 d3 1d 81 be 68 32 1b c0 c3 9f 2c c0 b1 64 aa 40
       -0.25218067 -2.4249516 -2.697251 5.3247914
0003b0 2a b4 80 3f 0d 5b 05 40 e8 04 6c 40 f7 14 af c0
       1.0054982 2.0836823 3.6877995 -5.471309
0003c0 d6 b0 80 40 d8 1a bf be 5b 83 90 c0 ae e6 ab 3d
       4.0215864 -0.37325168 -4.5160346 0.08393608
0003d0 b1 fd d2 3e 01 96 c7 c0 1f 64 00 c0 f5 0b 06 c0
       0.41209176 -6.237061 -2.006111 -2.0944798
0003e0 de 93 c8 c0 59 36 72 3f 0f 55 9e c0 3d cd 92 40
       -6.26805 0.9461418 -4.947883 4.5875535
0003f0 f0 12 7d 40 e5 2a 6e bd 87 fb cc 3f 86 dd 88 40
       3.9542809 -0.058146376 1.601426 4.2770414

net.2.bias f4 [32]
000000 a6 08 f4 bf c7 2a fb 3f e7 db 85 c0 ab 0c 8d 3f
       -1.9065139 1.962243 -4.1830935 1.1019491
000010 fe fd 40 c0 10 32 93 bf 05 22 0c 40 85 71 b4 3f
       -3.0155025 -1.1499653 2.1895764 1.4097143
000020 45 72 94 c0 bd 92 77 3f ed d0 7e 3e 4f 2f 0c c1
       -4.638949 0.9670828 0.24884386 -8.76155
000030 4e 35 d3 c0 6d 68 63 bf 15 45 c7 3d ce 2d af bf
       -6.600257 -0.88831216 0.09729973 -1.3685853
000040 17 9e 29 40 6a 86 d9 bf 97 1d 92 bf d7 62 23 bf
       2.650274 -1.6994145 -1.141528 -0.6382269
000050 19 26 a8 bf e2 fc bc be fc 43 8d 3f 08 e9 fa 3e
       -1.3136626 -0.36911684 1.1036372 0.49005914
000060 8c 9b 4a c0 d9 ae 0b c1 78 c9 82 40 12 94 2a c0
       -3.1657438 -8.730187 4.0870934 -2.6652875
000070 c1 d0 34 40 d6 c6 c5 bf 99 1b 95 bf 8b d7 cf 3f
       2.8252413 -1.5451305 -1.1649047 1.6237653

net.4.weight f4 [344, 32]
000000 8c ef d4 be 17 d4 88 bf 13 05 a6 be 91 8a 6b 3d
       -0.4158901 -1.0689725 -0.32425746 0.057505194
000010 ff 38 83 40 ee 79 b2 c0 12 f8 fc 3e af a8 b0 3f
       4.1007075 -5.577384 0.49408013 1.3801478
000020 59 67 b7 3e b3 ad 83 3f b6 ac ef bf 1c 02 11 c0
       0.35821036 1.0287384 -1.8724582 -2.2657537
000030 d5 b4 0d c0 c5 5e 41 c0 54 de 90 be 20 23 0c 40
       -2.214162 -3.0214093 -0.28294623 2.1896439
000040 62 97 6b c0 e1 a6 48 be 6e 22 39 40 91 de 45 3f
       -3.6811147 -0.19594909 2.8927264 0.77292734
000050 11 80 45 40 03 31 e6 3e 0a 4f 48 bf 15 f2 34 be
       3.0859416 0.44959268 -0.78245604 -0.17670472
000060 88 01 2e c0 f0 53 40 3e ef b5 ff 3f 31 11 41 c0
       -2.7188435 0.1878202 1.9977397 -3.0166743
000070 55 bf 0e 40 76 e4 35 40 70 8b 2b c0 32 bf 56 3f
       2.230428 2.8420691 -2.6803856 0.8388549
000080 bc 20 c9 3f cf e9 c7 bf 73 a4 78 bb 8e e9 b9 3f
       1.5713115 -1.5618228 -0.0037939816 1.45244
000090 9b 0c 0e 40 98 ee bb bf 44 d1 55 bf 01 07 47 bf
       2.2195194 -1.4682188 -0.8352244 -0.7774506
0000a0 b5 92 40 40 2b 6a 13 40 ff e0 21 40 8f ce 63 40
       3.0089543 2.303355 2.5293577 3.5594823
0000b0 62 f2 9d c0 98 2a a0 3e 7e b4 0c 40 2e 92 47 40
       -4.9358377 0.31282496 2.1985164 3.118297
0000c0 df be ff c0 8d bf b3 bf 4c b7 c1 bf 5a b4 2e 40
       -7.9920497 -1.4042832 -1.5134063 2.7297578
0000d0 48 95 58 40 3f 8f a1 bf 45 f4 e9 bf 80 a9 79 40
       3.3841114 -1.262184 -1.827767 3.9009705
0000e0 18 9e 3c bf 9a c4 e1 bf 28 2a ff 3f 01 d3 9f 40
       -0.7367873 -1.7638123 1.993474 4.9945073
0000f0 e4 d5 9b bf 12 f1 0f c0 ba 47 f9 3e 12 eb c5 3f
       -1.2174649 -2.2490888 0.48687536 1.5462363
000100 f9 dc 60 c0 b7 51 89 c0 02 22 65 3f c2 f1 4b 3f
       -3.513487 -4.291225 0.89505017 0.7966577
000110 18 b0 47 c0 81 c9 c8 bf 31 ad a9 40 08 04 4c 3f
       -3.120123 -1.5686494 5.3023915 0.7969365
000120 05 67 81 40 87 e5 f2 bf c5 b6 1e 40 2a f6 53 40
       4.0438256 -1.8976296 2.4799054 3.3118997
000130 3d bf 96 3f f0 7f 09 c0 d5 78 94 bf 7e d9 39 40
       1.1777111 -2.1484337 -1.1599375 2.9038997
000140 25 ea d2 3f f9 f5 ba 3e 4d f3 2d 40 85 5c 93 be
       1.6477705 0.36515787 2.717975 -0.28781524
000150 23 72 e5 bf 93 1c 0b 40 c4 90 11 40 6f e4 42 40
       -1.7925457 2.173619 2.2744608 3.0451925
000160 76 ca f4 bd 4d 6a 3a 40 7f 5a ae c0 01 2d 5e 3f
       -0.11952679 2.912738 -5.448547 0.8678742
000170 40 3b 54 c0 61 e9 b7 3f f8 e1 cc bf 2f 18 3c 40
       -3.3161163 1.4368097 -1.600646 2.938976
000180 dd 84 07 40 aa be 90 bf 09 8a 09 3f d8 e9 e9 c0
       2.1174843 -1.1308186 0.5372625 -7.3097954
000190 50 bf 6d bf 19 e1 7e 40 1e 64 af bf 25 84 9d 3f
       -0.92870045 3.9824889 -1.3702428 1.2305952
0001a0 c6 de ac 3f a6 a5 2d bf 35 fb 17 40 56 52 2d 40
       1.3505485 -0.67830884 2.3747075 2.7081504
0001b0 a4 be b0 bf c1 12 c9 3f f5 d0 cc 40 e7 b7 a3 c0
       -1.3808179 1.5708848 6.4005075 -5.116199
0001c0 4f a1 f0 3f 03 06 8d c0 09 82 6a bf 7f e1 19 3f
       1.8799227 -4.406984 -0.9160467 0.60109705
0001d0 7a 53 61 40 18 25 49 c0 d2 4f 85 be 9e d0 2a bf
       3.52072 -3.142889 -0.2603746 -0.66724575
0001e0 1a 49 1d 3e 0a 62 3f bf 6a c3 36 c0 e3 1a 52 40
       0.15359917 -0.7475897 -2.8556771 3.282891
0001f0 a5 a0 85 40 be be 27 c0 bf df 78 bf 25 bf 7c c0
       4.17586 -2.621017 -0.9721641 -3.9491665
000200 3e 94 44 3f 03 cc 90 bf 1a 70 a7 40 7b fe 7b 3f
       0.767887 -1.131226 5.2324343 0.9843518
000210 ba ae 0a 41 14 63 a3 3f 3f 84 7c c0 8a ca 50 c0
       8.667658 1.2764611 -3.9455717 -3.262362
000220 7a d4 73 40 57 69 0d 40 ab 06 cf 3e 55 cb 0f 40
       3.8098435 2.2095544 0.40434775 2.2467854
000230 9a 05 45 bf df 14 89 40 29 f1 93 c0 22 89 80 bf
       -0.7696167 4.2837977 -4.6231885 -1.004185
000240 84 9c 94 3f ee f3 96 40 9e 2f b2 c0 33 65 7f c0
       1.1610265 4.7172766 -5.5683126 -3.9905517
000250 b8 31 a9 bc 8d 29 e7 40 80 43 72 3e 29 68 78 3f
       -0.02065359 7.223822 0.23658562 0.97033936
000260 60 88 fd bf be 52 26 c0 ea de dc bc e6 0d f6 3f
       -1.9807243 -2.5988002 -0.026961762 1.9222991
000270 73 b9 07 c0 78 ff 3e 40 33 4d 00 40 11 cd 22 bf
       -2.120694 2.9843426 2.0047119 -0.63594157
000280 75 e8 f6 3f 14 ea 85 3f c8 15 4b c0 8e 8b a6 3f
       1.928969 1.046206 -3.1732044 1.3011339
000290 85 a7 19 c0 e4 e9 d9 bf 83 1d d6 3e 41 9b e5 bd
       -2.4008496 -1.7024503 0.4181939 -0.11211253
0002a0 10 f7 98 40 58 e1 ab 3f 27 df 67 c0 de 08 da 3f
       4.780159 1.3428144 -3.6229951 1.7033956
0002b0 ab 47 8f bf 9d be c6 c0 1d 15 91 c0 78 90 75 bf
       -1.1193746 -6.210768 -4.5338273 -0.95923567
0002c0 76 90 46 40 88 40 d4 3f 8f 8c 65 40 b4 e6 75 40
       3.1025672 1.6582193 3.586704 3.842206
0002d0 e6 aa 96 3f 4f e9 dd 40 63 02 6a bf 53 0c 78 c0
       1.1770904 6.93473 -0.9140989 -3.8757522
0002e0 44 f9 f8 bf b6 4a 37 40 76 a0 99 bf 30 10 f8 bf
       -1.945107 2.863935 -1.2002094 -1.937994
0002f0 14 7d 28 c0 b9 be 96 bf 0b a2 2c 40 e6 6d aa c0
       -2.6326342 -1.1776954 2.6973903 -5.3259153
000300 42 6d 0c 3f 31 43 4e 3e b0 0d ea be 81 81 0e 41
       0.54854214 0.20142819 -0.45713568 8.906617
000310 01 be 85 40 e4 3b a9 be a9 2a 94 3f 44 77 1c c0
       4.179444 -0.33053505 1.1575519 -2.4447794
000320 eb d4 26 40 03 d7 45 c0 2c 17 bb 3d 22 3c 90 3f
       2.6067455 -3.0912483 0.09135279 1.1268351
000330 08 35 15 bf 47 77 94 3f 45 ac 89 40 41 d3 9f 40
       -0.58284044 1.15989 4.302279 4.994538
000340 83 a0 a2 c0 0c 4a 16 40 db d7 bb 3f 8e e7 8e c0
       -5.0820937 2.3482695 1.4675249 -4.465766
000350 cd 87 83 3f 85 8d 5d 3e 29 5d 41 40 4e 12 17 bf
       1.0275818 0.21636017 3.021311 -0.59012306
000360 7c 77 e8 bf 72 8e c9 bf 8f 3b 68 c0 6f cb b4 bf
       -1.8161464 -1.5746596 -3.6286352 -1.4124583
000370 14 06 3e c0 01 0d 45 40 7a ee c5 bf 08 3c a1 bf
       -2.969121 3.0789187 -1.5463402 -1.2596445
000380 9e 6f a7 3f a3 3d 8e 40 86 f2 8f c0 e7 9c 5e bf
       1.3080938 4.445024 -4.498355 -0.86958164
000390 b4 ab 88 c0 29 8a 9e c0 9b 9b 0c c0 39 20 58 3f
       -4.27096 -4.9543653 -2.1969974 0.8442417
0003a0 ce f8 12 be 36 7d 9f 40 50 62 ce c0 3e d9 1d c0
       -0.14352724 4.9840345 -6.449501 -2.4663844
0003b0 16 0d 0d 40 03 a7 d9 3f 9a a0 54 40 89 0b f6 be
       2.2039237 1.7004093 3.3223023 -0.48055676
0003c0 2a de c7 be 5a c7 11 40 51 ab 14 41 e5 d5 72 bf
       -0.39036685 2.2777925 9.291825 -0.9485763
0003d0 a4 7a 8e c0 9b a8 c3 40 0f 99 7e bf ce 6a 0c 41
       -4.452471 6.1143317 -0.994523 8.776075
0003e0 89 77 2c c0 94 67 41 c0 dd 57 04 c1 bf 54 1e c0
       -2.6947958 -3.021947 -8.271451 -2.4739225
0003f0 83 2d 89 3f 4e dc 38 3f af a6 38 c0 29 a6 a5 3f
       1.0717014 0.7221116 -2.8851736 1.2941333

net.4.bias f4 [344]
000000 2c d9 ad 3f a1 f9 94 c0 74 e9 18 c0 f8 ef a5 bf
       1.3581901 -4.6554723 -2.3892488 -1.2963858
000010 da 6a bd 3e 35 25 8e 3f fe 28 7f be 5a 0d 8d bf
       0.36995584 1.1105105 -0.24917981 -1.10197
000020 57 1d ed bf ae db bf 3f 11 48 64 bf 14 dd b0 3f
       -1.8524579 1.4988916 -0.89172465 1.3817468
000030 48 0d cc 3f 30 83 20 3e d4 20 76 c0 d9 ba b3 3f
       1.5941553 0.15675044 -3.8457537 1.4041396
000040 33 21 87 bf 7a 58 3a 40 72 82 42 bf 13 f9 c3 bf
       -1.0557007 2.9116502 -0.75980294 -1.5310386
000050 c8 30 ab bf 82 47 39 40 8b f6 1f 3f 2d 97 00 40
       -1.3374262 2.8949895 0.6248557 2.009227
000060 e4 17 97 c0 e3 13 91 40 89 6b 87 40 6b cb 3e be
       -4.7216663 4.5336776 4.231877 -0.18632285
000070 27 2c 98 3f 74 8d 35 c0 43 fb ac bd 7d b4 9a bf
       1.1888474 -2.8367586 -0.08446362 -1.2086331
000080 cc 23 2f 40 54 80 b1 40 e1 54 01 40 47 cd 0e c0
       2.7365599 5.546915 2.0208056 -2.2312791
000090 d5 78 26 c0 ac f4 12 c1 32 2d 97 bf 5b 11 b2 3e
       -2.601125 -9.184734 -1.1810668 0.34778866
0000a0 42 61 11 bf 8e 93 0b c0 c0 a5 66 bf ec 5f 50 bf
       -0.5678903 -2.180881 -0.90096664 -0.81396365
0000b0 54 fe 6a c0 8a 19 a2 40 73 ec 40 40 27 8c c7 bf
       -3.671773 5.0656176 3.0144317 -1.5589646
0000c0 22 19 ce 3f f5 14 a9 bf 21 4e 6c bf 84 a6 4a 40
       1.610142 -1.320952 -0.92306715 3.1664133
0000d0 39 b2 d3 bf 1c e3 74 40 74 e8 ef 3f 05 8e 18 40
       -1.6538764 3.8263617 1.8742814 2.3836682
0000e0 fc 40 97 c0 6c a3 9a be a2 b1 cd bf 4b 6c 64 3f
       -4.7266827 -0.30202806 -1.6069834 0.8922774
0000f0 1f 90 11 c0 e2 3b 42 40 69 78 bb bf cb b6 ba 40
       -2.2744215 3.034905 -1.4646121 5.8348136
000100 f9 61 2d 40 c5 24 19 bf c5 c4 62 40 86 6e 45 40
       2.7091048 -0.5982173 3.5432599 3.0848708
000110 65 4d 5d 40 3b 78 55 40 92 39 9f bf 5e a7 44 3f
       3.4578488 3.3354633 -1.2439444 0.7681788
000120 bd c9 87 c0 1b fe 38 c0 d5 35 77 40 58 3c b4 c0
       -4.2433763 -2.8905094 3.8626606 -5.632366
000130 9e 3f 17 c0 bb 0e 44 3f 69 22 10 40 3b f4 8e 40
       -2.363258 0.76584977 2.2521002 4.4673133
000140 83 17 6b c0 4a 5c 69 40 48 f8 0a 3f 6a c2 3d bf
       -3.67331 3.6462579 0.542851 -0.7412478
000150 3e f4 81 c0 c1 a4 c0 40 92 0e 96 40 d1 4d 1e c0
       -4.0610647 6.0201116 4.6892786 -2.4734995
000160 24 3b 1d 40 14 a3 17 c0 5a 87 94 bf 5b bb 08 bf
       2.4567347 -2.3693285 -1.1603806 -0.5341088
000170 f9 98 89 c0 37 c3 9c bf ee a3 59 40 1b ce 1a c0
       -4.2999234 -1.2247075 3.4006305 -2.4188297
000180 25 b3 0b 40 79 77 70 bf 48 e7 2c 3f b7 eb d0 bf
       2.182809 -0.939323 0.6754041 -1.6321934
000190 45 46 e1 bf e9 be 5d 3f d6 16 e7 40 28 48 eb 3f
       -1.759957 0.8661943 7.2215376 1.8381395
0001a0 ea 16 66 3f 27 d3 98 bf e4 8a e8 3e f7 ab 0e bf
       0.89878714 -1.1939439 0.45418465 -0.5573115
0001b0 6f 3a c2 bf c2 20 84 c0 a9 43 cf 3f a4 d2 2a c0
       -1.5174083 -4.1289988 1.6192523 -2.6691065
0001c0 f1 b3 18 40 be 71 5c 40 8f 2d 85 be b9 cd e5 3f
       2.3859828 3.4444423 -0.2601132 1.7953407
0001d0 7f 8a 8c 40 6f 56 a0 c0 43 81 f6 3f 56 d1 cb bf
       4.3919063 -5.010551 1.9258198 -1.5923259
0001e0 65 f7 0e 40 05 e0 29 c0 8f 41 89 3f d5 d4 41 c0
       2.2338498 -2.654298 1.0723132 -3.0286152
0001f0 be 0d 51 c0 f2 37 cd be 19 7d f9 be cd df 23 bf
       -3.2664638 -0.40081745 -0.48728254 -0.6401337
000200 5a 75 3e 40 62 3f f3 be e0 2c d5 3f eb 5f 98 3f
       2.9759126 -0.47509295 1.665432 1.1904272
000210 ea 04 a6 40 8a f0 4d c0 1d 09 55 c0 5c 80 34 c0
       5.1881 -3.2178063 -3.3286812 -2.8203344
000220 2e d8 45 c0 26 51 26 c0 ac 5a e4 3f 7f 4d b5 3e
       -3.0913196 -2.598703 1.7840171 0.35410687
000230 69 71 5e bf 41 78 17 c0 26 66 1e 40 17 94 01 3f
       -0.868918 -2.3667147 2.4749846 0.5061659
000240 d2 b4 ee be 4d 7b 9c c0 5c 35 33 3f 4c 4d e8 3f
       -0.4662233 -4.8900514 0.70003295 1.8148589
000250 54 4b 58 c0 37 3b 05 c0 86 c9 a5 bf 53 89 0d bf
       -3.3795977 -2.0817392 -1.2952125 -0.55287665
000260 35 48 5b 40 0f 46 ec 3f db 8f 09 c0 72 95 27 bf
       3.4262822 1.845888 -2.1494052 -0.6546241
000270 0f 7a 33 c0 3c 76 09 40 5e 21 90 40 eb b2 9b 40
       -2.8043249 2.1478415 4.504073 4.8655906
000280 ac ce ec 3f 67 ac ee 3e e9 d7 fe be a3 e5 88 bf
       1.8500571 0.46615908 -0.497741 -1.069508
000290 e3 c7 47 bd 5c 27 c3 3f e6 ac 35 c0 87 ff 77 c0
       -0.04877461 1.5246387 -2.838678 -3.8749712
0002a0 e9 74 2a be 2a 3f 87 40 4c 17 ef 40 0f 97 d7 3f
       -0.1664616 4.2264605 7.471594 1.6842974
0002b0 08 8d f5 c0 3f 66 28 bf f4 a0 8b 40 93 8d b5 bf
       -7.6734657 -0.65781015 4.3633976 -1.418383
0002c0 24 72 64 40 46 2b 84 be 85 36 f4 3f ef 35 1d bf
       3.5694666 -0.25814265 1.9079138 -0.6141042
0002d0 fb a0 cd c0 c6 8a 9c 3f ee 50 2c c0 ce 00 d1 bf
       -6.425901 1.222985 -2.6924396 -1.632837
0002e0 2c 29 1a be 27 8c 34 c0 07 b0 49 40 11 53 b8 40
       -0.15054768 -2.8210542 3.1513689 5.76014
0002f0 1c 8a a1 3d 10 c8 76 c0 43 e0 1c c0 fa 1e c9 3f
       0.078876704 -3.8559608 -2.4511878 1.5712578
000300 b1 d5 99 c0 33 4c 9e be 58 54 46 c0 b1 54 76 bf
       -4.8073354 -0.3091751 -3.098898 -0.9622298
000310 6c f5 ce bf 2d 31 d9 3f e7 fb 9e 3f 1a d1 81 bf
       -1.6168647 1.6968132 1.2420624 -1.0141938
000320 2d c8 5a c0 ce 95 be be 50 7b f1 3f b7 8f cd bf
       -3.4184678 -0.37223667 1.8865757 -1.6059483
000330 2f ea 55 40 15 75 a0 3f 04 ab a6 3f 6d 15 1f 40
       3.3424184 1.2535731 1.302094 2.4856827
000340 6c 99 b7 3f ff 5b 08 c0 ba 13 12 c0 3a 1a 4f 40
       1.4343696 -2.130615 -2.282454 3.2359757
000350 c0 67 38 be e3 71 16 3f db 46 11 bf 44 40 c1 c0
       -0.18008327 0.5876753 -0.5674874 -6.039095
000360 b5 bb 03 c0 7a eb 84 c0 f3 ab 38 40 6f ea 35 c0
       -2.0583317 -4.1537447 2.885495 -2.8424337
000370 c1 16 b8 3f b9 c5 a5 3f db 4a 05 3e 1e 8b e0 bf
       1.4381944 1.2950965 0.13016836 -1.7542455
000380 a6 4b c7 c0 92 3e 05 c0 30 8f ec 3f 1c 78 39 c0
       -6.2279844 -2.081944 1.8481197 -2.897956
000390 42 58 92 c0 2b 22 89 bf ae 82 6d 3f 22 a9 90 c0
       -4.5732737 -1.0713552 0.92777526 -4.520646
0003a0 30 44 ee 3f e6 d9 98 3f cc f1 c0 bf 47 f0 a4 3f
       1.8614559 1.1941497 -1.507379 1.2885827
0003b0 aa fb 1c c0 7e 59 ac 3f 0f 12 52 c0 39 45 25 c0
       -2.4528604 1.3464811 -3.2823522 -2.58235
0003c0 59 8a a9 3f e8 7c 05 3f 5f 8c c0 c0 b5 b4 b4 bf
       1.3245345 0.52143717 -6.017135 -1.4117647
0003d0 54 d3 b4 c0 60 f1 c3 3f 7d ce 54 bf 24 e0 1e c0
       -5.650797 1.5308037 -0.83127576 -2.4824305
0003e0 ab e1 f8 3f 4f 0e 9a bf 40 2a 77 40 ca 12 bd 3f
       1.9443868 -1.2035617 3.8619537 1.4771359
0003f0 98 75 51 c0 cb b6 0b 3f 81 1b 2c c0 a2 84 a4 c0
       -3.2728024 0.54575795 -2.6891787 -5.1411905
