dual/cnn/cardnet.pth.tar (torch, 471371 bytes, 8 tensors)

conv1.weight f4 [32, 146, 5, 5]
000000 34 58 3f bb e8 a8 bc ba 08 37 43 3b 71 b1 51 bc
       -0.002919686 -0.00143936 0.002978744 -0.012798653
000010 d0 58 55 3b 7c 5c 03 3c 08 de 68 3b fa b7 7d bc
       0.0032554157 0.008017655 0.0035532732 -0.015485758
000020 3e 1d d8 bb fc ee 4a bc d8 91 e0 3b 0c 81 9f bb
       -0.006595283 -0.01238608 0.0068533234 -0.0048676785
000030 fc 28 17 bc ec 90 70 bc d8 09 5e 3c 28 98 f9 3b
       -0.00922608 -0.01468299 0.013552152 0.0076170154
000040 60 32 3a bc 6e e6 12 3c 90 75 40 3c 29 d5 71 bc
       -0.011364549 0.0089660715 0.011746779 -0.014760294
000050 1a 03 3a 3c 4c 35 e4 3b aa fd 42 bc f0 46 21 3c
       0.0113532785 0.0069643613 -0.011901299 0.009843573
000060 b0 4b ad 3b c0 c9 17 3b 30 39 c7 3b ee 21 58 bf
       0.0052885637 0.0023161024 0.0060798153 -0.8442677
000070 74 2b d3 3b d1 95 31 bd 6c 0c d1 3b 1c 25 ba 3b
       0.006444389 -0.043355767 0.0063796546 0.0056806933
000080 14 44 2d 3c 0c 2b 4b 3c 1f 40 23 bc 24 89 34 bc
       0.010575313 0.0124004 -0.009964018 -0.011019025
000090 b0 8e 99 3b 18 d3 c4 3f c4 eb f8 3b 8f 58 ae bf
       0.004686199 1.5376921 0.007596465 -1.3620776
0000a0 9e e7 33 3c 96 f5 5b 3c 26 9d 65 bc 36 55 48 bc
       0.010980515 0.0134252515 -0.014014518 -0.012227347
0000b0 c4 c7 28 3c 49 df 72 bc 78 04 10 3c 1e 30 af bb
       0.010301534 -0.014823743 0.008790128 -0.005346312
0000c0 48 7f 0c 3c f0 4c 2c 3c b8 11 c8 3b 14 2f af bf
       0.008575268 0.01051639 0.006105628 -1.3686242
0000d0 4b 16 48 bc fe 66 37 3c 42 b8 42 3c 2a 32 73 3c
       -0.012212346 0.011193989 0.011884751 0.014843503
0000e0 de 17 37 3c 22 1e e6 bb 88 a6 da bb 50 da 9a 3a
       0.011175124 -0.007022635 -0.006672684 0.001181433
0000f0 2e 70 cf bb a8 fa 36 3b dc 9c e2 3b 66 1c 4e 3c
       -0.0063305115 0.00279204 0.0069156718 0.012580013
000100 f0 c6 09 3b 7c 9f a0 3b 76 ce 19 bc bc ed d1 bb
       0.0021023117 0.0049018245 -0.009387603 -0.006406514
000110 f0 cc 9c 3a 0a 27 04 3c 82 d5 53 3c 10 d5 f7 3a
       0.0011962932 0.008065948 0.012929322 0.0018908102
000120 98 26 9d ba 40 0d d7 b9 00 b2 0f 3a 46 d0 42 3c
       -0.0011989651 -0.00041017868 0.0005481541 0.011890477
000130 aa 57 36 3c da 27 5a bf 92 6e ff bb ec 21 a8 bc
       0.011129299 -0.8521706 -0.0077951634 -0.020523988
000140 d8 bc 48 bc a4 8d c4 3b 80 b8 ec 3b ed 83 80 3c
       -0.012252055 0.00599833 0.0072241426 0.015687907
000150 90 44 65 3c f2 06 3d 3c d1 d1 24 bc 3c 50 c6 3f
       0.013993397 0.0115373 -0.01005979 1.5493236
000160 3c 20 e3 bb 52 15 af bf f9 24 1d bc d8 3d 82 bb
       -0.006931333 -1.3678381 -0.0095913345 -0.0039746575
000170 e0 2a 93 3b c0 d3 c0 39 bd 4a 77 bc 18 ad 5a 3c
       0.004491195 0.0003677886 -0.015093503 0.013346933
000180 d2 0c 62 3c e6 fe 61 3c 5c 28 01 3c 08 8f 8c bb
       0.013797002 0.013793683 0.007883158 -0.0042895116
000190 3f 72 87 3c 0c 84 0f 3c c8 d8 59 bc 2c a5 75 bb
       0.016533969 0.00875951 -0.013296314 -0.0037482483
0001a0 14 8a 85 bc e0 7d a5 3a 7a 26 ce bb 10 39 d3 ba
       -0.016301192 0.0012626015 -0.006291208 -0.0016115028
0001b0 aa 4d 5d bf d4 98 da bb e0 c2 f6 3a 4e 5f 61 bc
       -0.8644663 -0.0066710506 0.0018826388 -0.013755633
0001c0 2c 94 98 3b 50 95 09 3c cb 99 81 3c fc bc c7 3b
       0.0046563353 0.008397415 0.015820405 0.0060955267
0001d0 f8 05 30 3b 26 e4 3f 3c 3a 6d c6 3f d8 0c 4a bc
       0.0026859026 0.01171211 1.5502083 -0.012332164
0001e0 28 b4 3d 3b 60 ab 4f 3b ac d7 d6 3b 20 a2 c0 3b
       0.0028946493 0.003168784 0.006556472 0.005878702
0001f0 d0 8b 7d 3b 18 f9 43 3c 68 c4 00 3c e4 1f 0e bc
       0.003868807 0.011961244 0.007859327 -0.0086745955
000200 e8 e9 6e bb a6 0f e6 bb 72 72 87 bc 00 26 c5 b9
       -0.0036455337 -0.0070209084 -0.016534064 -0.0003760308
000210 94 dc 63 bc 74 1f 15 3c de c3 7e 3c e0 b9 02 bc
       -0.01390757 0.009101737 0.015549628 -0.007978886
000220 c0 dc 4a bc ed 8a 86 3c f6 a5 fd bb f2 67 39 3c
       -0.012381732 0.016423667 -0.0077407314 0.011316286
000230 76 c1 fc bb d4 6c 61 3c 30 00 25 3b ba 48 e8 bb
       -0.007713492 0.013758857 0.0025177114 -0.007088748
000240 f4 85 60 3c ec 3d b1 bb bc 7d 1d 3c aa 85 21 bc
       0.013703812 -0.005408993 0.009612497 -0.009858528
000250 a6 c1 ae bb 12 1e 14 3c a8 2c 11 3b 4c ca 00 3c
       -0.0053331433 0.009040372 0.0022151861 0.007860731
000260 7c 3e 86 bc 18 1b 53 3b e3 a4 2e bc ac cb e4 3b
       -0.016387217 0.0032212194 -0.010659429 0.0069822874
000270 30 17 02 3b 24 30 ef 3b ee 3c 5b bf 40 ba 16 3a
       0.0019850247 0.00729944 -0.85639846 0.00057497993
000280 a0 b7 01 3c 08 61 7f 3b 40 51 b9 39 b3 7d 82 3c
       0.007917315 0.0038967747 0.00035346486 0.015929079
000290 30 61 b0 3b 07 b7 71 bc f0 89 83 3a 05 9a 83 3c
       0.0053826794 -0.01475311 0.0010035615 0.016064653
0002a0 50 e9 c6 3f 46 4a 7c 3c f0 c7 a4 3b 83 7a 82 bc
       1.5539951 0.015398568 0.005028717 -0.015927559
0002b0 f2 bf 41 3c 38 6d 32 3c 50 b8 ee 3b c8 ae 27 3b
       0.0118255485 0.010890298 0.0072851554 0.0025586355
0002c0 c0 20 ae 39 8d ac 80 3c 3a bf 3e bc d1 46 87 3c
       0.00033212267 0.015707279 -0.011642272 0.01651326
0002d0 a3 8f 77 bc 9c e8 be bb 40 30 49 bc d4 56 39 3c
       -0.015109929 -0.005826069 -0.01227957 0.011312205
0002e0 56 83 47 3c 10 12 6b 3b 22 61 c9 bb 18 a1 12 bc
       0.012177309 0.003586892 -0.0061456123 -0.008949541
0002f0 78 ab 00 bc 03 ae 81 3c b8 01 0f 3c 74 39 a8 bb
       -0.007853381 0.015830046 0.008728437 -0.005133802
000300 36 61 64 bc 31 e2 72 bc 01 3e 85 3c b2 ae f4 bb
       -0.0139391925 -0.014824436 0.016264917 -0.0074671144
000310 74 cc 3c bb 4c d0 83 3b 64 b1 d5 3b a2 0b 2f bc
       -0.0028808387 0.0040226337 0.0065213908 -0.010683926
000320 78 3b 48 bc 00 c6 53 bc 82 c5 1e bc 40 4d 22 3c
       -0.01222121 -0.012925625 -0.009690644 0.009906113
000330 90 25 67 3c 33 13 66 bc 48 0f 8c 3b 24 e3 c3 3f
       0.014108077 -0.014042663 0.0042742826 1.5303693
000340 39 dd 81 bc ab 46 ac bf 6c 09 49 3c 69 8d 80 3c
       -0.015852557 -1.3459066 0.012270313 0.01569243
000350 36 39 52 3c 71 b8 85 bc 38 0e 46 3b f0 87 4c bc
       0.012831023 -0.0163233 0.0030220877 -0.012483582
000360 da 66 46 3c 43 59 0e bc 08 56 e9 3b de bc 26 bc
       0.012109483 -0.008688274 0.0071208514 -0.010176865
000370 bc 96 24 bb 10 53 d0 3a 40 46 bf 3b 98 61 36 3c
       -0.0025114259 0.0015893895 0.005837232 0.011131667
000380 a0 3d 29 3c c0 28 f6 3b 40 b3 b2 b9 f5 57 80 3c
       0.010329634 0.007512182 -0.00034084357 0.015666941
000390 3c 32 c1 3b 0b d4 85 3c 30 d8 11 bb 4e 58 78 bc
       0.005895881 0.016336462 -0.0022254102 -0.015157772
0003a0 dc 10 c8 3f df c5 23 bc 4e 07 ae bf 2b 2f 01 bc
       1.5630145 -0.009995907 -1.3595979 -0.007884781
0003b0 c5 1b 82 bc 5c ab 82 bc 7c 63 97 3b 6c 43 a3 bb
       -0.015882382 -0.015950851 0.0046200138 -0.0049824025
0003c0 80 df 2f 3a 54 3f 50 3c c1 a4 47 bc d9 4a 83 3c
       0.00067090243 0.012710411 -0.0121852765 0.016026901
0003d0 d4 4e c4 bb a2 46 59 3c d4 5e 0e bc c8 e6 4d bb
       -0.0059908424 0.013261469 -0.008689601 -0.0031418074
0003e0 b4 29 0d 3c a8 68 47 3c 20 a5 87 3a d8 5c e7 bb
       0.0086159 0.012170948 0.0010348894 -0.0070606284
0003f0 8a 05 ce bb 50 6f 18 3c b6 60 59 3c 94 37 59 3c
       -0.0062872814 0.009303883 0.013267687 0.01325788

conv1.bias f4 [32]
000000 a2 e3 0a bd 99 e5 87 bb d5 a6 4a 3c 41 46 a7 bb
       -0.033908494 -0.004147243 0.012368877 -0.0051048105
000010 68 80 50 3c 4b 77 b0 bc db ae 44 3c aa a3 d0 3a
       0.012725927 -0.021541258 0.012004579 0.0015917916
000020 9a 24 b1 bc 7f 69 57 3d 7e ce b9 bd 88 1a 83 bc
       -0.021623898 0.052590843 -0.090725884 -0.016003862
000030 bf 9e 30 3a 9e 4a 86 bc 32 67 74 bc 76 aa 75 3c
       0.0006737522 -0.016393002 -0.014917182 0.014994254
000040 25 76 30 bc 91 df ea 3b cf d6 af 3c 38 d7 83 bb
       -0.010770355 0.0071677645 0.021464733 -0.004023459
000050 5b ef b4 3c 23 5c 8d 3c 18 09 b1 3c 94 70 a3 bc
       0.02208679 0.017255848 0.021610782 -0.019951142
000060 6f 06 11 3d 12 1e d7 bc 8e be ab 3c c1 91 af 3b
       0.035406526 -0.026259456 0.020964887 0.0053579514
000070 70 77 32 bc 31 64 f6 bc 41 24 d5 3c 38 c6 08 bc
       -0.010892734 -0.030077072 0.026018264 -0.00834804

bn1.weight f4 [32]
000000 f4 62 61 3f 08 4f 1f 3e cc 85 05 3f 47 4e c6 3e
       0.88041615 0.15557492 0.5215728 0.38731596
000010 d6 52 61 3f f8 54 5b 3f d5 01 20 3f 44 a6 50 3f
       0.8801702 0.8567653 0.62502795 0.815037
000020 1b 77 16 3f fa 4b 39 3f 3b 63 3d 3f 70 42 30 3e
       0.5877549 0.72381556 0.7397954 0.17212844
000030 de 81 a3 3f b1 80 5c 3f f3 3e 38 3f 90 fa a6 3e
       1.2774007 0.8613387 0.7197105 0.3261304
000040 55 69 51 3e af 0f 5d 3f aa d2 24 3f 62 26 2a 3e
       0.20450337 0.86352056 0.6438395 0.16616204
000050 e3 fe 42 3f 51 b4 d6 3e b5 5e 7f 3f 6d f9 00 3f
       0.76170176 0.41934446 0.99753886 0.50380594
000060 21 03 5a 3f 7d 91 49 3f fa b2 22 3f 37 66 6c 3f
       0.85161024 0.7873762 0.63554347 0.9234347
000070 8c 3a 4f 3e 11 9b 79 3f eb 20 4d 3f c6 08 3a 3e
       0.20237178 0.9750224 0.80128354 0.1816741

bn1.bias f4 [32]
000000 93 47 ea 3e d5 1f 3a bf d1 ad 2d be a4 11 16 bf
       0.45757732 -0.7270482 -0.16960837 -0.5862067
000010 8a d6 c4 3e da b5 bc 3e 3e 22 25 bf b7 2d 2d bf
       0.3844493 0.36857492 -0.64505374 -0.6764788
000020 d7 93 0f bf da 72 13 3e dd 88 30 3f 9e 40 27 bf
       -0.5608496 0.14399281 0.68958837 -0.65332973
000030 2c 2d c2 be 92 f2 00 3f b8 f0 ef 3d c3 8d b3 be
       -0.37925088 0.5037013 0.11715835 -0.35069093
000040 5f e9 33 bf 96 3e 34 3f c5 02 c7 be f6 ea 1c bf
       -0.7027797 0.70408 -0.388693 -0.6129602
000050 42 d0 9e 3e 7f 25 c2 be 7f 95 1b 3f 23 4b e6 be
       0.31018263 -0.37919232 0.6077499 -0.449792
000060 4e e0 95 3e a0 11 07 3f 8b e9 e5 be 8a 7e 59 3f
       0.29272693 0.5276127 -0.44904742 0.8495871
000070 17 86 0b bf 9e f1 01 bf a8 b4 e5 be 2c 05 29 bf
       -0.5450148 -0.50759304 -0.44864392 -0.66023517

bn1.running_mean f4 [32]
000000 ed 5c 9b bf 66 3b 33 41 46 d9 d2 40 d2 28 8d 42
       -1.2137734 11.202002 6.5890226 70.57973
000010 63 e3 14 43 ef 08 f4 c1 b5 5c fa c1 4b 70 4e c2
       148.88823 -30.504362 -31.295267 -51.60966
000020 72 e5 0e c2 66 39 b6 42 f8 88 39 c1 11 35 d2 41
       -35.724068 91.11211 -11.59594 26.275911
000030 92 8d 56 c2 ae f7 bb c1 d5 ca 11 c2 06 54 05 42
       -53.638252 -23.495937 -36.44808 33.332054
000040 c8 12 23 41 a9 86 e2 c1 87 e8 d9 c1 4c 60 f3 41
       10.192085 -28.315752 -27.238539 30.42202
000050 4e 13 e7 c1 72 cf 1a 42 41 b3 65 c0 bc 6f 9d c1
       -28.884426 38.702583 -3.5890658 -19.679558
000060 7e 8a ab c0 d1 68 b6 c1 34 24 d3 c1 ca c8 25 c2
       -5.360656 -22.80118 -26.392677 -41.446083
000070 02 bf 33 42 88 df 63 c2 19 3d f1 c1 8d 52 97 41
       44.93653 -56.968292 -30.154833 18.915308

bn1.running_var f4 [32]
000000 e5 d1 ee 43 a3 d3 ab 42 26 cd bd 43 cb 81 37 44
       477.6398 85.91335 379.60272 734.028
000010 49 57 a1 44 ce aa e7 43 b7 c6 68 43 e9 88 2b 45
       1290.7277 463.3344 232.77623 2744.557
000020 e4 b6 f0 43 67 67 8d 44 aa be 2c 44 79 f2 a1 42
       481.42883 1131.2313 690.9791 80.97358
000030 f4 8c a1 43 a4 07 cf 43 f0 7e cd 43 9c 11 03 44
       323.1012 414.0597 410.9917 524.27515
000040 c9 e9 5a 42 a6 39 9c 44 5e 88 bf 43 18 4c 01 43
       54.728306 1249.8015 383.06537 129.29724
000050 bd da f5 43 03 d9 2a 44 60 54 a5 43 4f 91 64 43
       491.7089 683.3908 330.65918 228.56761
000060 14 85 70 44 a2 a9 2d 44 47 e1 95 43 c4 8b c3 44
       962.07935 694.6505 299.75998 1564.3677
000070 3e 92 05 44 6b 29 9f 43 dd 15 57 43 7d 0a d9 42
       534.28503 318.32358 215.0854 108.520485

head.weight f4 [2, 128]
000000 6a 02 ef 3e 87 55 03 3f 4c a7 05 3e 46 98 18 bc
       0.4668153 0.5130238 0.130521 -0.009313649
000010 91 f1 05 3d 61 09 8a 3d 78 d1 f2 3a a4 52 93 bd
       0.03270108 0.0674007 0.0018525561 -0.07193497
000020 31 9d 3a be 0f 37 da bc d8 76 54 be a3 6f a4 3d
       -0.18224026 -0.026637582 -0.2074846 0.080291055
000030 ed 3c 98 be 82 f2 81 be de 8d 26 be 33 33 5b be
       -0.29733983 -0.2538033 -0.16265056 -0.2140625
000040 d4 65 f5 3e 08 f2 57 3d c4 18 b7 3e 40 69 ce 3e
       0.4792925 0.052721053 0.35761082 0.40314674
000050 87 a9 9d 3e e2 19 40 3e 44 70 c9 3e fa 07 e0 3e
       0.30793402 0.18759874 0.39343464 0.43756086
000060 e9 12 cf bd 1a ba f5 bd 6d e2 30 3f 26 6b 45 3f
       -0.10111029 -0.11998387 0.690955 0.7711662
000070 be a2 6f bf a6 ff 78 bf 26 a5 0c bf be ef 0b bf
       -0.936077 -0.9726509 -0.54939497 -0.5466269
000080 a0 42 bb 3e aa bc 06 3f c6 9e d2 3e c7 93 36 3e
       0.36574268 0.5263163 0.4113676 0.1782981
000090 ec 55 8f 3e ee 90 10 3e 3b eb 90 3e b6 b1 b2 3e
       0.2799524 0.14117786 0.28304467 0.34901208
0000a0 c8 04 12 3e a7 59 55 bd ac 2e da 3e 85 6a f4 3e
       0.14259636 -0.052087452 0.42613733 0.47737518
0000b0 55 05 11 3d 39 8d ac bb b8 89 83 bc e8 fb b8 3c
       0.035405476 -0.0052658585 -0.01605688 0.022581056
0000c0 3b 9a da 3e 1f 83 bd bd 07 4c 82 3f c8 4b af 3f
       0.42695794 -0.09253525 1.0179452 1.3695002
0000d0 ab 4f e0 3e 76 e7 16 3f c0 1e da bb c3 eb 80 bd
       0.43810782 0.5894693 -0.0066564977 -0.06294968
0000e0 2d 5a 84 3e b0 f0 0e 3f 96 58 21 3e a4 6e ee 3d
       0.2585005 0.5583601 0.15756449 0.11642197
0000f0 39 e2 0f 3c a7 6b e4 bb 9d d3 8e bd 80 d1 cb 3d
       0.008781963 -0.006970841 -0.06973956 0.09952068
000100 c0 1e 8d bd a5 db a7 3b 6b fd 26 3d 3e 3a 3c 3d
       -0.06890631 0.005122619 0.040769022 0.04595398
000110 5d 1f 5c 3e e5 8a 60 3e 1a c7 0a 3f 0a 1d 12 3f
       0.21496339 0.21927984 0.54210055 0.5707556
000120 d4 c9 d9 3e 85 b2 b3 3e 96 a8 e0 3e d8 ea 02 3f
       0.42536795 0.35097137 0.4387862 0.51139593
000130 b8 23 51 bc de 29 05 bd 89 2a d7 3d 70 e0 67 bd
       -0.012764864 -0.03251063 0.1050616 -0.056610525
000140 9c b1 b3 3e 4f 17 59 3f 7e c9 8d 3e da 50 94 3e
       0.35096443 0.8480119 0.2769279 0.28967935
000150 81 6b 83 bd fe d6 83 3b 1e 70 d6 3c de d1 5c 3d
       -0.06416989 0.004023432 0.026176509 0.053911082
000160 f1 a7 f3 3e 77 46 fd 3e d1 a6 96 bd a4 13 1a 3d
       0.47589067 0.49467823 -0.073560365 0.037616387
000170 70 a0 25 3a ba 16 67 be 8b c0 97 3e 09 e0 83 3e
       0.00063181575 -0.22567263 0.29639086 0.25756863
000180 5a 19 06 be ed be bb be 19 60 81 3e 2a 26 e2 3e
       -0.13095608 -0.36669102 0.2526863 0.44169742
000190 f4 fc cd 3e 1c 30 85 bd be e3 87 3e a8 9f 8c bd
       0.4023205 -0.06503317 0.2654094 -0.068663895
0001a0 d7 b5 08 3f d8 8e 0c 3f db eb 77 bb 8e 4a e7 bc
       0.53402466 0.5490546 -0.003782979 -0.028233793
0001b0 03 ea dd 3e cd cd e0 3e ff 41 08 3f 96 fd f8 3e
       0.433426 0.43907014 0.532257 0.4863097
0001c0 c0 96 0d 3e 15 2b 4d 3e bb 82 3a bc c3 12 68 bd
       0.13827038 0.20035966 -0.011383708 -0.056658518
0001d0 c1 56 ad be 21 e2 ac 3e d6 b0 3f 3f a6 3c 6b 3f
       -0.3385525 0.33766273 0.74879205 0.9188942
0001e0 53 d0 64 3f 36 e7 34 3f 63 74 d2 bd b6 93 fc bd
       0.8938038 0.706653 -0.10276105 -0.12332861
0001f0 d7 09 1a bd 2d ae b6 bd e9 24 b6 3d 7b 6d 2f 3d
       -0.03760704 -0.0891994 0.08893759 0.042829018
000200 8c 4e ad 3e e6 15 df 3e 56 80 00 3e 18 5c 4c 3b
       0.3384899 0.43571395 0.12548956 0.0031182822
000210 c7 a0 89 bc 54 b7 86 3d f2 d7 68 bd 7a b1 68 3c
       -0.016800297 0.06577936 -0.056846566 0.01420247
000220 af b1 96 bd f5 ed 81 3e c9 0b 84 bd ea df 52 3e
       -0.07358109 0.2537686 -0.0644756 0.20593229
000230 7f f3 57 3d 68 48 a0 3d 2e a8 0f be e6 11 71 bd
       0.05272245 0.078263104 -0.14028999 -0.05885496
000240 59 3f eb 3e 05 83 21 bd 43 af b3 3e c9 ee 9b 3e
       0.45946768 -0.03943159 0.35094652 0.30455616
000250 e0 4d a7 3e f1 bd 68 3e ab 82 ca 3e e1 51 e2 3e
       0.326766 0.22728707 0.39552817 0.44203094
000260 44 7f dd bb cf 69 b4 bd bd b4 ae 3e e1 7f d6 3e
       -0.006759556 -0.08809244 0.34122267 0.4189444
000270 9a 00 86 be 27 d6 31 bf e6 43 d9 be 34 01 aa be
       -0.26172334 -0.69467396 -0.42434615 -0.33204043
000280 9d fa 83 3d 76 4b 47 3e 75 70 e7 3d 49 14 82 3e
       0.06444285 0.1946238 0.11300746 0.254061
000290 72 08 e5 3d 03 cc 22 3d fc 3b a5 3e 9f a6 b1 3e
       0.111832514 0.039745342 0.32272327 0.34697434
0002a0 fc d4 04 3e ca dd 9a 3c b3 77 e7 3e 2b b6 11 3f
       0.12971872 0.018904585 0.4520851 0.5691859
0002b0 b6 64 0c bd 8b 41 5a bd 7f da 7e 3d be ce 02 3d
       -0.034275733 -0.053285163 0.062220093 0.031935446
0002c0 0e c7 24 3e 37 15 f5 bd 4c 58 06 3f 61 d6 1a 3f
       0.16091558 -0.11966937 0.5247848 0.60483366
0002d0 62 e3 00 3f c2 3e f6 3e 57 a8 82 3d b9 1f e3 3c
       0.5034696 0.48094755 0.063797645 0.027725087
0002e0 63 d7 51 3e c6 64 d9 3d 92 61 0c 3e e2 7f 72 bd
       0.2049232 0.10614924 0.13709095 -0.05920399
0002f0 31 60 dc 3d 0a 7e c6 3d c7 da 52 bd b2 b6 54 3d
       0.107605346 0.09692009 -0.051478174 0.051932044
000300 33 17 10 3c ac de 9f bd a2 0e 09 3e 1d 09 fa 3c
       0.008794594 -0.07806143 0.13384488 0.030521924
000310 0e 57 a4 3e e1 3a bd 3e de 19 fc 3e 4a 45 10 3f
       0.32097667 0.36958984 0.49238485 0.56355727
000320 3f c1 de 3d 89 e5 fa 3d d2 ad a7 3c d1 03 a1 bd
       0.108767025 0.122508116 0.020468626 -0.07862056
000330 41 5a 1e 3c 5d 9d 38 3c 0f ca 88 3d 37 7c 98 bd
       0.009665073 0.011267987 0.066791646 -0.07445567
000340 2e c2 b5 3e 3f 5a a6 3e 00 2a 01 38 e3 11 86 3e
       0.3549971 0.32490727 3.0795112e-05 0.2618552
000350 9c e8 a0 3d c1 f9 33 bd 54 8e 10 3e a6 de 4b 3e
       0.07856867 -0.043939356 0.14116794 0.19909152
000360 03 55 04 3f 36 53 f8 3e 59 f6 2a bd a0 21 41 3c
       0.5169222 0.48500985 -0.04173884 0.011787802
000370 10 65 bb 3d d4 4d 94 be 6b 27 48 3d 5d 72 64 3e
       0.091501355 -0.28965628 0.048865717 0.22309251
000380 a7 1a dd bd 41 aa 91 be 3e 43 38 3e 87 0d 10 3f
       -0.10796099 -0.28450206 0.17994401 0.5627064
000390 70 1e 00 3f d2 6d 2a be 71 85 96 3e e0 06 93 bc
       0.50046444 -0.16643456 0.29398683 -0.017947614
0003a0 12 1b 63 3e f9 4a 74 3e 1b 53 b1 be 1d 34 35 be
       0.22178295 0.23856725 -0.34633717 -0.17695661
0003b0 6f 8a e7 3e b6 9d 0b 3f 83 13 05 3f 63 37 d7 3e
       0.45222804 0.5453752 0.519829 0.42034444
0003c0 60 ca 14 3d df 26 13 bd 9a 9d 07 be ba 12 19 be
       0.036325812 -0.035925742 -0.13243714 -0.1494855
0003d0 c8 c6 3f bb ac e1 35 3f 50 4b e7 3e a9 cf fd 3e
       -0.002926277 0.7104747 0.45174646 0.49572495
0003e0 b6 69 87 3e 89 fd 80 3e bf ed de bd d7 df 08 be
       0.2644784 0.25193432 -0.1088519 -0.13366638
0003f0 c0 84 80 3d a9 e4 a9 bd 49 85 86 bb e6 c4 20 bc
       0.0627532 -0.082955666 -0.0041052443 -0.009812569

head.bias f4 [2]
000000 05 cf 8c 3f af fe 70 3f
       1.1000677 0.94138616
