dual/cnn/single_net.pth.tar (torch, 647883 bytes, 8 tensors)

conv1.weight f4 [32, 146, 5, 5]
-0.014594651 -0.001822276 -0.015355887 -0.01584832 -0.010274587 0.0066944677 -0.005390428 0.010823594
-0.011963939 0.0038015898 0.0008101016 0.005264189 0.013073649 0.008165333 0.008160569 0.010632975
0.0011227205 0.010150166 0.01545007 0.012353525 0.010402603 -0.008664574 0.014982538 0.0030382313
-0.014859704 0.012204394 -0.012086483 -0.633403 -0.008901529 -0.31581476 -0.0055492325 0.014769191
0.006151844 -0.0140603 -0.0034552114 -0.007011179 -0.014564671 0.64469707 0.014202166 0.4193761
-0.00406505 -0.009153112 0.009222357 0.005133979 0.014637604 0.0059563722 0.007448405 0.008890962
0.0137022305 -0.012476415 -0.004146384 0.40685222 0.0028823186 0.015784668 0.002617875 -0.0068023726
-0.0052308897 -0.008350748 -0.012716658 0.013379199 -0.0029611345 -0.015359789 -0.015058298 -0.0006026458
0.011828672 0.0156205315 0.006552564 0.015703475 -2.3141503e-05 0.0031494591 -0.00835729 0.0132862665
0.0032238234 0.012483884 0.014808377 0.01587678 0.012034673 -0.6519019 0.010909069 -0.33563533
0.010523826 0.0050986093 0.011952689 -0.00020070374 0.010761103 -0.010390206 0.011108328 0.64618576
0.0015234444 0.4087182 0.0132451095 -0.0043246616 -0.0016599316 -0.012131259 0.00022595748 -0.0055256328
-0.0042398646 0.0040794257 0.00029333122 -0.007201244 -0.006375135 -0.0034637433 0.015477033 -0.0043977117
0.0057451576 0.000765888 -0.015792027 -0.015471273 -0.63651425 0.0059481375 -0.0029719044 0.0006900653
0.014203494 0.011805162 -0.01404042 0.016394021 0.015987711 -0.0075723985 0.6370728 -0.011559473
0.00027566962 0.008659275 -0.012919409 -0.006192457 -0.0025086366 -0.0070002237 -0.0034106933 0.0056708027
0.0142057445 -0.008022034 0.010362258 0.006148653 0.010876143 -0.006975401 -0.014693702 -0.010662825
-0.009822732 0.0025402643 -0.014630201 0.0057772007 0.004282253 0.010413753 0.012976836 -0.013450522
0.006804507 0.014330534 0.011700867 0.007728329 -0.015020324 0.008291509 -0.015564334 0.01588319
2.2251159e-05 -0.008252069 -0.007995958 -0.0024584867 -0.0070779864 -0.0034937179 -0.6449328 -0.0030873064
0.012055889 0.008775391 0.015088705 -0.0127966525 0.0043860506 0.012307655 0.009439422 0.0072626863
0.6254889 -0.016489672 -0.015322344 0.006230995 0.016466303 0.00026918016 -0.008623688 -0.008498768
-0.0123046925 -0.00021429732 0.011957936 -0.0018848414 -0.015794126 0.012265686 -0.0014325026 -0.013808005
0.0006020572 -0.0014176155 0.004192611 0.008819191 0.009384749 -0.0037504658 -0.009922963 0.003595002
0.0067279525 -0.011272892 -0.007625662 -0.014443699 0.0046935286 0.012097342 0.01063353 -0.0046768477
0.000628978 -0.013925276 -0.011204335 0.004929252 -0.003205643 0.012737548 -0.0033632917 0.6247494
0.0023044813 0.41461536 -0.010113381 -0.012897499 -0.0034763794 -0.013508424 0.012656258 -0.012026696
-0.0008795373 -0.016135667 0.010884343 -0.008691971 0.002101196 -0.006962777 -0.00022610836 0.0039013028
-0.0151339155 0.0024987757 0.0076667145 0.0140867885 -0.009381622 -0.012688201 0.00019126572 -0.002237671
0.62291396 -0.012533687 0.39651653 0.0016643219 0.008417489 0.012224257 -0.013197849 -0.016056051
-0.016193096 -0.0024836008 -0.0069673844 0.0012069009 0.0027421191 0.006952746 0.011291809 -0.015931295
0.012591291 -0.0042208517 0.015924359 -0.009707335 0.01071907 -0.0079678325 -0.015483669 0.0071414113
00000000: 671e 6fbc 70d9 eeba 4297 7bbc 56d4 81bc
00000010: be56 28bc 445d db3b 30a2 b0bb 7255 313c
00000020: 6604 44bc 1824 793b 005d 543a 387f ac3b
00000030: dc32 563c e4c7 053c e8b3 053c ee35 2e3c
00000040: 4028 933a e24c 263c 4a22 7d3c 7066 4a3c
00000050: ae6f 2a3c dbf5 0dbc 5279 753c 101d 473b
00000060: 1e76 73bc f0f4 473c 6206 46bc b326 22bf
00000070: b8d7 11bc 79b2 a1be 56d6 b5bb 7afa 713c
00000080: 6895 c93b 2c5d 66bc d470 62bb 08be e5bb
00000090: a8a0 6ebc de0a 253f 34b0 683c 77b8 d63e
000000a0: 1c34 85bb eff6 15bc 5e19 173c f03a a83b
000000b0: 90d2 6f3c ac2d c33b c011 f43b 66ab 113c
000000c0: 527f 603c e169 4cbc 64de 87bb ef4e d03e
000000d0: 48e5 3c3b d94e 813c a890 2b3b 70e6 debb
000000e0: e267 abbb 93d1 08bc 8859 50bc 6e34 5b3c
000000f0: 980f 42bb a0a7 7bbc 14b7 76bc e0fa 1dba
00000100: 0ccd 413c 42ed 7f3c e4b6 d63b 93a4 803c
00000110: 0020 c2b7 2867 4e3b 04ed 08bc a4ae 593c
00000120: c846 533b 3489 4c3c d69e 723c 0510 823c
00000130: 142d 453c 0be3 26bf f4bb 323c 65d8 abbe
00000140: 206c 2c3c 3c12 a73b 36d5 433c 0074 52b9
00000150: 564f 303c af3b 2abc b4ff 353c 6e6c 253f
00000160: 50ae c73a 8343 d13e 0402 593c e4b5 8dbb
00000170: 1092 d9ba 30c2 46bc 00ef 6c39 5e10 b5bb
00000180: 90ee 8abb b4ac 853b 40ca 9939 6af8 ebbb
00000190: 82e6 d0bb f8ff 62bb 6293 7d3c ae1a 90bb
000001a0: e041 bc3b e0c5 483a 485e 81bc 397b 7dbc
000001b0: 99f2 22bf 98e8 c23b 48c4 42bb 80e5 343a
000001c0: c6b5 683c 706a 413c ca09 66bc c14c 863c
000001d0: a9f8 823c e221 f8bb 3417 233f f263 3dbc
000001e0: c087 9039 a2df 0d3c eeab 53bc 18ea cabb
000001f0: f067 24bb 2262 e5bb f085 5fbb 24d2 b93b
00000200: 36bf 683c d96e 03bc 76c6 293c a47a c93b
00000210: da31 323c e891 e4bb dabd 70bc 21b3 2ebc
00000220: 86ef 20bc 907a 263b 83b3 6fbc ac4e bd3b
00000230: 2452 8c3b 729e 2a3c cc9c 543c 945f 5cbc
00000240: 58f8 de3b 9eca 6a3c feb4 3f3c ec3d fd3b
00000250: ce17 76bc 1cd9 073c 8c01 7fbc 771d 823c
00000260: 00a8 ba37 b033 07bc 7b01 03bc 901e 21bb
00000270: 74ee e7bb dcf6 64bb 511a 25bf 6854 4abb
00000280: 1086 453c a8c6 0f3c 9e36 773c 0da9 51bc
00000290: dcb8 8f3b 0ca6 493c cea7 1a3c d4fb ed3b
000002a0: 0a20 203f 5915 87bc 920a 7bbc 602d cc3b
000002b0: 57e4 863c c020 8d39 5e4a 0dbc 6b3e 0bbc
000002c0: 9f99 49bc 00b5 60b9 38eb 433c c80c f7ba
000002d0: af62 81bc 04f6 483c d0c2 bbba f83a 62bc
000002e0: 60d3 1d3a 48cf b9ba 2c62 893b 5e7e 103c
000002f0: 7ec2 193c 60ca 75bb ec93 22bc 209a 6b3b
00000300: 2876 dc3b f0b1 38bc b0e0 f9bb 44a5 6cbc
00000310: 2ccc 993b ee33 463c 4238 2e3c 3e40 99bb
00000320: 00e2 243a d726 64bc 6392 37bc 9085 a13b
00000330: c415 52bb 26b1 503c ac6a 5cbb 94ef 1f3f
00000340: c806 173b 7748 d43e 98b2 25bc 0850 53bc
00000350: f8d3 63bb 7052 5dbc 325c 4f3c 9e0b 45bc
00000360: c090 66ba f22e 84bc 3e54 323c c568 0ebc
00000370: 38b4 093b 0228 e4bb 8017 6db9 00ad 7f3b
00000380: 3ef4 77bc 80c2 233b 1039 fb3b 46cc 663c
00000390: 60b5 19bc 2ce2 4fbc 808e 4839 e4a5 12bb
000003a0: 4a77 1f3f 185a 4dbc 3704 cb3e 6025 da3a
000003b0: 82e9 093c 4048 483c ca3b 58bc fb87 83bc
000003c0: 62a7 84bc e8c3 22bb a84e e4bb e030 9e3a
000003d0: 20b5 333b dcd3 e33b 4801 393c 5982 82bc
000003e0: b44b 4e3c 124f 8abb cd73 823c 840b 1fbc
000003f0: 0a9f 2f3c 838b 02bc 37af 7dbc 8002 ea3b

conv1.bias f4 [32]
-0.015176049 -0.0056246454 0.016154831 -0.0010529889 0.003402332 -0.0032706358 0.004965713 -0.013912934
-0.009769078 0.0081978515 -0.00010692475 0.011330027 -0.014499909 0.012260772 -0.014014658 -0.0052006445
-0.010371652 -0.00039585633 0.007673492 0.011539869 -0.015505509 -0.009550496 0.016819624 -0.008899005
0.013905555 0.0156473 -0.0022510479 0.009505206 -0.009002817 -0.013113712 -0.010020404 -0.0039294297
00000000: f7a4 78bc f24e b8bb 2357 843c 7204 8aba
00000010: a9f9 5e3b 2a58 56bb 6bb7 a23b 13f3 63bc
00000020: 7c0e 20bc 4850 063c ca3c e0b8 94a1 393c
00000030: 0791 6dbc 68e1 483c bc9d 65bc 2b6a aabb
00000040: dded 29bc f08a cfb9 eb71 fb3b b811 3d3c
00000050: d20a 7ebc af79 1cbc 4fc9 893c 22cd 11bc
00000060: 20d4 633c c42e 803c 5186 13bb b9bb 1b3c
00000070: 8d80 13bc e5da 56bc 9f2c 24bc 72c2 80bb

bn1.weight f4 [32]
0.37936145 0.5048175 0.11898217 0.22176494 0.27498287 0.47050947 0.06083417 0.33397597
0.29987812 0.5129008 0.50210303 0.42156592 0.19609188 0.6262195 0.22453651 0.3996985
0.19127604 0.3210507 0.18171272 0.2040818 0.27354985 0.16458309 0.4280991 0.3311928
0.23183927 0.24127962 0.24630715 0.43852398 0.24374944 0.34745768 0.54259855 0.287126
00000000: aa3b c23e b83b 013f edac f33d 5916 633e
00000010: 8eca 8c3e 9ee6 f03e 402d 793d e6fe aa3e
00000020: a089 993e 784d 033f d389 003f 7dd7 d73e
00000030: 4fcc 483e ec4f 203f e6ec 653e 48a5 cc3e
00000040: dedd 433e c260 a43e e612 3a3e d2fa 503e
00000050: ba0e 8c3e 7888 283e ce2f db3e 1a92 a93e
00000060: 4667 6d3e 0112 773e f137 7c3e 3786 e03e
00000070: 7499 793e f9e5 b13e bde7 0a3f 2e02 933e

bn1.bias f4 [32]
-0.1653856 -0.33472338 -0.7536536 -0.8158655 -0.6924203 -0.47143626 -0.45791572 -0.7450275
-0.114674926 -0.42984077 -0.35183105 -0.4723629 -0.699293 0.00414042 -0.8238898 -0.5686863
-0.7661919 -0.6837847 -0.6779337 -0.8812137 -0.64828616 -0.6567144 -0.40892056 -0.47681636
-0.5826703 0.24304166 -0.84787625 -0.7189011 -0.56113136 -0.052970923 -0.4224587 -0.78069216
00000000: d85a 29be dd60 abbe 71ef 40bf 90dc 50bf
00000010: 7542 31bf 1860 f1be ee73 eabe 1fba 3ebf
00000020: b0da eabd 1714 dcbe 3323 b4be 8dd9 f1be
00000030: de04 33bf 5cac 873b 71ea 52bf 6d95 11bf
00000040: 2725 44bf 840c 2fbf 108d 2dbf 3997 61bf
00000050: 15f6 25bf 6f1e 28bf 095e d1be 4621 f4be
00000060: e129 15bf eadf 783e 6b0e 59bf e709 38bf
00000070: 4ea6 0fbf 0af8 58bd 824c d8be 71db 47bf

bn1.running_mean f4 [32]
26.829742 -57.93019 -5.6331606 31.451132 -30.285534 -72.84123 -59.976334 -17.351688
72.39717 -4.602688 -78.30496 -44.779816 14.776418 -45.215347 41.1373 -67.785324
33.474 -7.8972673 -51.425007 -22.473972 -18.588865 21.456535 7.802982 42.738407
23.126402 68.84045 -46.63619 40.432938 -38.977097 9.699728 -54.700047 -31.674917
00000000: 50a3 d641 84b8 67c2 da42 b4c0 eb9b fb41
00000010: c648 f2c1 b6ae 91c2 c4e7 6fc2 42d0 8ac1
00000020: 5acb 9042 3849 93c0 249c 9cc2 881e 33c2
00000030: 356c 6c41 84dc 34c2 988c 2442 1692 87c2
00000040: 60e5 0542 6ab6 fcc0 35b3 4dc2 b2ca b3c1
00000050: ffb5 94c1 fca6 ab41 07b2 f940 21f4 2a42
00000060: df02 b941 4fae 8942 758b 3ac2 54bb 2142
00000070: 8ce8 1bc2 1632 1b41 d9cc 5ac2 3b66 fdc1

bn1.running_var f4 [32]
764.71484 497.30432 348.617 638.73706 357.57614 820.832 1176.9991 318.8423
511.1397 507.78683 489.41138 343.58353 317.64343 1006.09894 145.04723 744.1144
244.44455 326.21915 460.8434 614.8904 620.4435 216.901 277.86774 337.46695
280.11703 1742.0475 562.95636 797.75366 333.89395 545.4063 373.2893 981.79865
00000000: c02d 3f44 f4a6 f843 fa4e ae43 2caf 1f44
00000010: bfc9 b243 3f35 4d44 f91f 9344 d06b 9f43
00000020: e291 ff43 b7e4 fd43 a8b4 f443 b1ca ab43
00000030: 5cd2 9e43 5586 7b44 170c 1143 5207 3a44
00000040: ce71 7443 0d1c a343 f56b e643 fcb8 1944
00000050: 621c 1b44 a8e6 5843 12ef 8a43 c5bb a843
00000060: fb0e 8c43 85c1 d944 35bd 0c44 3c70 4744
00000070: 6df2 a643 015a 0844 08a5 ba43 1d73 7544

head.weight f4 [344, 128]
0.22650333 0.18468207 -0.1886774 -0.04557913 0.40863633 0.29033056 0.2588259 0.12776223
0.12750748 0.1842278 0.1409136 0.1423308 -0.04144604 -0.19378923 -0.20223941 -0.32950258
0.28100127 0.17127982 0.014073278 0.09740173 0.14737953 0.12422767 0.24031028 0.21298847
0.19281733 0.21094902 0.23071481 0.19731365 0.24183768 0.14139827 0.33154652 0.3125341
0.19721171 0.23991561 0.07983788 0.19742097 0.25860325 0.35319683 0.47563747 0.5430535
0.4003526 0.43992266 0.27902547 0.30883992 0.016326869 0.03344235 0.18748066 0.17883578
0.4679635 0.40982226 -0.017348079 0.02261564 0.26942703 0.436644 0.12059017 0.14886376
0.14454529 0.12082566 0.143271 0.0858738 0.4017742 0.37499967 0.13546158 0.13524769
0.23306271 0.21326435 0.0003733033 0.049062226 0.07458982 0.107941255 0.06525009 -0.04460898
0.16076465 0.21440029 0.116780825 0.119039774 -0.059527688 -0.17298925 -0.082762435 -0.28887144
0.41947642 0.3410261 0.14416386 0.27305067 0.15521248 0.30728126 0.061744526 0.19567592
0.114213176 0.17042913 0.36145994 0.6557369 0.3976003 0.06167356 0.28595248 0.30001506
0.25266662 0.2509997 0.1844168 0.099396214 0.16751215 0.12515105 -0.037794746 -0.016435813
0.11719849 0.14634655 0.16481754 0.058360916 0.15517437 0.18310508 -0.0807705 0.04490381
0.18863264 0.19202949 0.095737875 0.09958023 0.25181425 0.28413478 0.20056543 0.3194918
0.017344717 0.24652663 0.20736052 0.081571944 0.04832797 0.028452396 0.3426399 0.30276123
-1.3400117 -1.7403982 -1.8297975 -1.6728545 -0.65153307 -1.0733311 -0.80537385 -0.9005657
0.04798599 -0.027568022 0.020472068 -0.0690821 -0.6458086 -0.055788554 -0.33958712 -0.36609346
-0.21563816 -0.35237324 -0.23690489 -0.17036743 -0.36330023 -0.48837668 -0.33653817 -0.35469937
-0.25065538 -0.40134224 -0.5566594 -0.6667849 -0.21973763 -0.22570515 -0.3188657 -0.34269065
-0.9215796 -1.9204297 -1.602501 -1.3618174 -0.8590647 -0.8105837 -0.5604487 -0.3827719
-0.32772785 -0.73054767 -0.5613731 -0.62757987 -0.81723577 -0.7008462 -0.9626763 -1.2093295
-0.15603887 -0.09308678 -0.31837615 -0.19390352 -1.5816292 -1.338137 -2.036134 -2.1778376
-0.24712573 -0.25603592 -0.04484803 -0.1220987 -0.32764035 -0.3590147 -0.43151215 -0.4787015
-0.16949753 -0.19151312 -0.07252449 -0.12275351 -0.2625081 -0.26941818 -0.14977299 -0.21013972
-0.19730803 -0.28028858 -0.3021646 -0.27468738 -0.22130236 -0.30836514 -0.32208297 -0.22433583
-0.51403195 -0.5193907 -0.4918121 -0.31958464 -0.3097796 -0.16832177 -0.18539199 -0.09115984
-0.5172223 -0.32860598 -0.66139543 -0.96858877 -0.88385344 -0.6170343 -0.63983047 -0.74558574
-0.59497017 -0.77641696 -0.63938737 -0.50023097 -2.4450305 -2.4865577 -2.0100436 -1.9108069
-0.2739309 -0.1653571 -0.1302796 -0.23080263 -0.19318238 -0.22151598 -0.5072718 -0.54327035
-0.37687832 -0.48052168 -0.6116499 -0.6859785 -1.6283202 -1.6116188 -1.8241236 -1.7454153
-0.7491814 -0.59020746 -0.67607874 -1.1502343 -0.18273456 -0.101189956 -0.24958201 -0.24875489
00000000: 7df0 673e 4c1d 3d3e a634 41be 2fb1 3abd
00000010: c838 d13e 35a6 943e d484 843e 1ad4 023e
00000020: 5291 023e 36a6 3c3e a84b 103e 2abf 113e
00000030: 53c3 29bd af70 46be d917 4fbe 90b4 a8be
00000040: 66df 8f3e fa63 2f3e 9b93 663c 8f7a c73d
00000050: a9ea 163e 146b fe3d e613 763e a619 5a3e
00000060: e871 453e 0503 583e 8140 6c3e 970c 4a3e
00000070: 4ca4 773e b5ca 103e 77c0 a93e 7804 a03e
00000080: def1 493e 70ac 753e 0b82 a33d b928 4a3e
00000090: a567 843e 37d6 b43e c186 f33e 8e05 0b3f
000000a0: 04fb cc3e 8b3d e13e 6ddc 8e3e 4420 9e3e
000000b0: edbf 853c d8fa 083d eefa 3f3e ba20 373e
000000c0: e998 ef3e 39d4 d13e 8f1d 8ebc 6f44 b93c
000000d0: 57f2 893e cd8f df3e fbf7 f63d be6f 183e
000000e0: ae03 143e 7273 f73d a2b5 123e 9ade af3d
000000f0: 59b5 cd3e f5ff bf3e 71b6 0a3e 5f7e 0a3e
00000100: fea7 6e3e f861 5a3e ecb7 c339 79f5 483d
00000110: 8cc2 983d 4e10 dd3d d7a1 853d e8b7 36bd
00000120: 7d9f 243e c08b 5b3e c92a ef3d 20cb f33d
00000130: 4ed3 73bd 1824 31be 5a7f a9bd f5e6 93be
00000140: 9dc5 d63e f99a ae3e b19f 133e 4ccd 8b3e
00000150: 05f0 1e3e f853 9d3e d4e7 7c3d 455f 483e
00000160: 99e8 e93d f984 2e3e 4711 b93e 60de 273f
00000170: 4492 cb3e 6a9d 7c3d 5d68 923e 939b 993e
00000180: 855d 813e 0883 803e c2d7 3c3e 3e90 cb3d
00000190: 4e88 2b3e 9927 003e aace 1abd 66a4 86bc
000001a0: c305 f03d dfdb 153e eec5 283e db0b 6f3d
000001b0: 08e6 1e3e e67f 3b3e 016b a5bd 0fed 373d
000001c0: ea28 413e 61a3 443e 3812 c43d b8f0 cb3d
000001d0: cced 803e 1d7a 913e 0661 4d3e 6e94 a33e
000001e0: 8216 8e3c 7a71 7c3e 5156 543e 310f a73d
000001f0: 8df3 453d 0015 e93c 7f6e af3e 8503 9b3e
00000200: 8185 abbf 5ec5 debf ce36 eabf 1920 d6bf
00000210: dfca 26bf ea62 89bf fb2c 4ebf 798b 66bf
00000220: f58c 443d 55d6 e1bc 0ab5 a73c eb7a 8dbd
00000230: b653 25bf 8a82 64bd 5dde adbe 9a70 bbbe
00000240: 40d0 5cbe 446a b4be 3297 72be cd74 2ebe
00000250: 7d02 babe 820c fabe bb4e acbe 289b b5be
00000260: e755 80be bb7c cdbe 3b81 0ebf 6ab2 2abf
00000270: e702 61be 401f 67be 5d42 a3be 2675 afbe
00000280: a4ec 6bbf a4d0 f5bf c11e cdbf 0850 aebf
00000290: aaeb 5bbf 6a82 4fbf 9179 0fbf aefa c3be
000002a0: f2cb a7be 2c05 3bbf 26b6 0fbf 13a9 20bf
000002b0: 5d36 51bf a86a 33bf f471 76bf 4fcb 9abf
000002c0: a7c8 1fbe 48a4 bebd 3302 a3be a58e 46be
000002d0: d372 cabf 1348 abbf 0550 02c0 b161 0bc0
000002e0: 870e 7dbe 2417 83be 91b2 37bd e20e fabd
000002f0: 7ac0 a7be c6d0 b7be 29ef dcbe 5d18 f5be
00000300: c390 2dbe 041c 44be b887 94bd 3166 fbbd
00000310: 7667 86be 2ef1 89be 175e 19be de2e 57be
00000320: 1e0b 4abe fc81 8fbe 52b5 9abe d3a3 8cbe
00000330: 169d 62be 09e2 9dbe 0fe8 a4be 4bb8 65be
00000340: 9997 03bf caf6 04bf ccce fbbe 99a0 a3be
00000350: 6f9b 9ebe 8b5c 2cbe 66d7 3dbe 03b2 babd
00000360: ae68 04bf 0b3f a8be 3651 29bf 6ff5 77bf
00000370: 3844 62bf f6f5 1dbf eecb 23bf b5de 3ebf
00000380: f74f 18bf 43c3 46bf e4ae 23bf 230f 00bf
00000390: 617b 1cc0 c323 1fc0 8ea4 00c0 5295 f4bf
000003a0: ac40 8cbe 5f53 29be 0468 05be 8657 6cbe
000003b0: 9ad1 45be 16d5 62be 91dc 01bf c413 0bbf
000003c0: 32f6 c0be f006 f6be 1695 1cbf 499c 2fbf
000003d0: cc6c d0bf 8649 cebf e27c e9bf c569 dfbf
000003e0: 5aca 3fbf d617 17bf 7f13 2dbf e13a 93bf
000003f0: c51e 3bbe ae3c cfbd 6d92 7fbe 9ab9 7ebe

head.bias f4 [344]
0.5788302 -3.2675226 -2.934212 -3.2354622 -2.9968777 -3.1224997 -2.9767742 -3.0250463
-3.197333 -2.9798868 -0.12178499 -3.0489872 -3.032308 -3.0605698 -3.0645208 -3.1428633
-3.0668397 -3.198251 -3.1909485 -3.0201843 -3.160112 -3.1842937 -3.2890658 -3.0790946
-1.6877404 -2.8633723 -3.2688801 -0.621827 -3.0482032 -3.0901542 -3.2129102 -3.153993
-3.3930116 -3.115345 -2.9716365 -0.06305706 -2.8450675 -3.1481082 -3.1352305 -3.048098
-2.9176025 -3.0396125 -3.2133598 -3.1763399 -3.1743731 -3.252571 -3.222779 -2.9869363
-3.1874316 -3.2117794 -3.1874468 -3.0950882 -3.2966237 -3.1216896 -3.1226983 -3.1564605
-3.0590835 -3.196003 -2.8833911 -3.01419 -2.889462 -3.2285411 -3.1526358 -3.1111119
-2.889174 -3.081386 -2.9708033 -3.0112104 -2.9831815 -3.0038729 -0.2713536 -3.1776311
-3.2466462 -2.982258 -2.9949837 -3.2177289 -3.047949 -3.0910196 -2.9808297 -0.14463396
-0.30014968 -3.1140296 -3.023675 -3.3339117 -3.3005376 -3.262407 -3.058423 -3.1806421
-3.0931356 -2.9365044 -3.1212204 -3.2604325 -3.2605627 -3.2568038 -3.145367 -2.7986486
-3.0390818 -3.091726 -3.0016735 -3.0107648 -3.3096414 -3.2320542 -2.9859462 -3.1386087
-3.201217 -3.0666595 -3.1092248 -3.0983844 -3.0544486 -2.932528 -3.0738633 -3.1299741
-2.9496164 -3.3741138 -2.7064965 -2.9726617 -3.2248578 -3.0328312 -3.2432673 -2.9818158
-3.2257235 -2.9938745 -3.0267334 -3.0155811 -3.334927 -3.1163883 -3.2335966 -3.2358634
-0.1685333 -3.1526508 0.19420382 -3.157365 -3.0359135 -2.8936276 -3.2652614 -3.128826
-3.1768641 -3.11803 -3.174504 -3.2509372 -3.0671556 -3.144809 -2.864371 -2.839638
-3.2679355 -3.0346706 -3.2013876 0.3070932 -3.1923735 -3.128315 -3.032006 -3.3058662
-3.199755 -3.0340703 -2.8654811 -3.1632144 -3.10168 -3.0901945 -3.1410666 -3.2098427
-3.2182052 -2.9574869 -3.0990767 -3.247389 -3.1178854 -3.1466298 -2.834056 -3.1008558
-3.0885324 -3.0725687 -2.9734733 -3.239177 -2.8949602 -3.1961389 -3.0897822 -3.110574
-3.1014974 -3.0800703 -3.2268918 -3.0413973 0.057848245 -3.1305547 -3.2151473 -3.035693
-3.2276096 -3.0671864 -3.2070715 0.35927063 -3.2011523 -0.5413821 -3.2732081 -3.3365273
-3.3308644 -3.2158103 -3.0537803 -3.2008326 -2.8110218 -3.069 -3.1612544 -2.9486134
-3.0431964 -3.0236633 -3.2229688 -3.1994958 -3.1941 -3.1307023 -3.1720822 -3.1715496
-3.0174432 -3.165221 -3.1526167 -3.0955267 -3.0502362 -3.1715584 -2.9143841 -3.1573918
-3.347685 -3.2881331 -3.0197186 -3.1302834 -2.9156215 -3.1420608 -3.143817 -3.0398057
-2.8969667 -3.0139737 -3.059309 -3.2714922 -2.887524 -3.1569867 -3.222857 -2.7839644
-3.1069405 -3.088349 -3.1094449 -0.2788647 -2.9988089 -3.307342 -2.4237268 -3.1221974
-2.9941475 -2.8992748 -3.0922067 -3.034304 -3.2691593 -1.8314974 -3.262726 -3.2603767
-3.2212117 -3.1956618 -3.0126886 -3.236223 -3.163861 -3.0665731 -2.8924026 -2.9308813
00000000: 372e 143f 171f 51c0 21ca 3bc0 d011 4fc0
00000010: d8cc 3fc0 09d7 47c0 7883 3ec0 5c9a 41c0
00000020: 1ba1 4cc0 77b6 3ec0 696a f9bd 9b22 43c0
00000030: 5611 42c0 60e0 43c0 1c21 44c0 ac24 49c0
00000040: 1a47 44c0 25b0 4cc0 8038 4cc0 b34a 41c0
00000050: 463f 4ac0 78cb 4bc0 0e80 52c0 e30f 45c0
00000060: e107 d8bf 7e41 37c0 5535 51c0 0e30 1fbf
00000070: c315 43c0 16c5 45c0 52a0 4dc0 05db 49c0
00000080: 1a27 59c0 d061 47c0 4b2f 3ec0 0f24 81bd
00000090: 9615 36c0 9b7a 49c0 9ea7 48c0 0a14 43c0
000000a0: 00ba 3ac0 0389 42c0 b0a7 4dc0 2749 4bc0
000000b0: ee28 4bc0 202a 50c0 0342 4ec0 f729 3fc0
000000c0: e1fe 4bc0 cb8d 4dc0 21ff 4bc0 ed15 46c0
000000d0: e2fb 52c0 c3c9 47c0 4ada 47c0 7303 4ac0
000000e0: 06c8 43c0 508b 4cc0 7b89 38c0 7de8 40c0
000000f0: f2ec 38c0 6ba0 4ec0 c9c4 49c0 751c 47c0
00000100: 3ae8 38c0 6e35 45c0 a421 3ec0 acb7 40c0
00000110: 72ec 3ec0 743f 40c0 dcee 8abe 4f5e 4bc0
00000120: 0dc9 4fc0 51dd 3ec0 d0ad 3fc0 45ef 4dc0
00000130: 9911 43c0 44d3 45c0 eac5 3ec0 ed1a 14be
00000140: 38ad 99be 434c 47c0 e483 41c0 cf5e 55c0
00000150: 023c 53c0 47cb 50c0 34bd 43c0 a48f 4bc0
00000160: eff5 45c0 b0ef 3bc0 13c2 47c0 edaa 50c0
00000170: 0fad 50c0 796f 50c0 b14d 49c0 0f1d 33c0
00000180: 5180 42c0 d7de 45c0 6b1b 40c0 5fb0 40c0
00000190: 2ad1 53c0 fad9 4ec0 be19 3fc0 f7de 48c0
000001a0: bde0 4cc0 2644 44c0 8afd 46c0 ee4b 46c0
000001b0: 167c 43c0 8aae 3bc0 2dba 44c0 7f51 48c0
000001c0: 84c6 3cc0 7bf1 57c0 3d37 2dc0 1740 3ec0
000001d0: 1264 4ec0 e819 42c0 b191 4fc0 12d6 3ec0
000001e0: 4172 4ec0 a49b 3fc0 00b6 41c0 48ff 40c0
000001f0: 726f 55c0 e872 47c0 3ff3 4ec0 6318 4fc0
00000200: fe93 2cbe 08c5 49c0 5edd 463e 4512 4ac0
00000210: 684c 42c0 3231 39c0 0bfa 50c0 af3e 48c0
00000220: be51 4bc0 ce8d 47c0 132b 4bc0 5b0f 50c0
00000230: 474c 44c0 8d44 49c0 db51 37c0 a1bc 35c0
00000240: db25 51c0 0b38 42c0 89e3 4cc0 523b 9d3e
00000250: d94f 4cc0 5036 48c0 630c 42c0 5093 53c0
00000260: c9c8 4cc0 352e 42c0 0b64 37c0 1b72 4ac0
00000270: ed81 46c0 bfc5 45c0 3c07 49c0 106e 4dc0
00000280: 13f7 4dc0 7747 3dc0 4657 46c0 39d5 4fc0
00000290: 6f8b 47c0 6262 49c0 2c61 35c0 6c74 46c0
000002a0: 84aa 45c0 f7a4 44c0 634d 3ec0 ad4e 4fc0
000002b0: 0747 39c0 8a8d 4cc0 febe 45c0 a513 47c0
000002c0: ef7e 46c0 df1f 45c0 6585 4ec0 41a6 42c0
000002d0: 48f2 6c3d 025b 48c0 f9c4 4dc0 cb48 42c0
000002e0: 2891 4ec0 c84c 44c0 a940 4dc0 52f2 b73e
000002f0: aedf 4cc0 0498 0abf 3e7c 51c0 aa89 55c0
00000300: e22c 55c0 d6cf 4dc0 2371 43c0 71da 4cc0
00000310: c8e7 33c0 7f6a 44c0 fe51 4ac0 15b6 3cc0
00000320: bbc3 42c0 b383 41c0 1f45 4ec0 8ac4 4cc0
00000330: 226c 4cc0 6d5d 48c0 6503 4bc0 abfa 4ac0
00000340: ca1d 41c0 fb92 4ac0 79c4 49c0 1c1d 46c0
00000350: 1237 43c0 d0fa 4ac0 4585 3ac0 b512 4ac0
00000360: 7940 56c0 c670 52c0 1243 41c0 9056 48c0
00000370: 8b99 3ac0 8617 49c0 4c34 49c0 2d8c 42c0
00000380: e767 39c0 f2e4 40c0 b8cb 43c0 2160 51c0
00000390: 31cd 38c0 120c 4ac0 4a43 4ec0 792c 32c0
000003a0: 1dd8 46c0 83a7 45c0 2501 47c0 5bc7 8ebe
000003b0: 7cec 3fc0 7eab 53c0 571e 1bc0 15d2 47c0
000003c0: 1da0 3fc0 b88d 39c0 b7e6 45c0 0932 42c0
000003d0: e839 51c0 826e eabf 81d0 50c0 03aa 50c0
000003e0: 5528 4ec0 b985 4cc0 e4cf 40c0 471e 4fc0
000003f0: b37c 4ac0 bc42 44c0 201d 39c0 8f93 3bc0
