dual/pg_same/pg_supervised/model.pth.tar (torch, 163543 bytes, 6 tensors)

net.0.weight f4 [32, 874]
00000000: 584b 0d3c 2077 6e3b 8d36 e8bc 501b 993c
00000010: 42a1 13bc 32af c93c 1a72 d93c 803a 21ba
00000020: 2f4d 033d 2a56 373c 3e36 14bc bc26 e8bc
00000030: 9220 a4bc 96e9 8e3c 5847 02bd 43a5 dbbc
00000040: e0a0 abba 5819 d13b 092e edbc 589e 3d3c
00000050: ae7e c8bc 3c98 d4bc e0c0 6f3b 1e09 c33c
00000060: 6e99 adbc ee67 e93c 7c5b aabb a247 ee3c
00000070: 54c5 e03c 589d a8bb 9847 4abb c011 7d3b
00000080: 105a 01bb e433 763c 8505 32bd 460e cebc
00000090: 760b 2abc 1089 95bc 2800 5cbb f09a 6abb
000000a0: 406e 423a f27c c1bc 80ab 69ba 3004 21bb
000000b0: 605b b93a ead2 983c 90fc da3b 903a 2d3b
000000c0: d6c1 b23c 9e61 b13c 96cb ecbc 6085 1cbb
000000d0: 9a91 ed3c b710 edbc 48a4 0dbc 5d5c c4bc
000000e0: 9017 43bc 50f8 cbbc 24ce 213c eefe c63c
000000f0: 397d dcbc 083e e43b 5c8b 433c 7e6d fe3c
00000100: 12fc 3bbc 3c21 26bc fb34 06bd a6cd b23c
00000110: 68c2 833c 7111 90b8 861f f33c d0ed bb3b
00000120: 0043 003b ee33 b43c 2030 86ba 0064 783c
00000130: 2683 72bc b49c 0fbc 2f6f 1fbd 1683 5dbd
00000140: d86a 7b3c 0011 7439 a056 e43b 8885 e33b
00000150: 1b74 dabc f86b d5bb 504b 5d3b 66c2 a13c
00000160: 4a58 bf3c 8af0 9bbc de80 62bc 1485 c1bb
00000170: 0c6d 52bc 1775 87bc 9f6f f9bc 185e 1f3c
00000180: e0ce 9a3b d223 63bc ce1b f43c c51a 023d
00000190: b045 603c 5816 003c 4052 d43b 0070 763c
000001a0: 5d0b e2bc f035 863c f150 b1bc f2fa 05bd
000001b0: d4e5 c8bb f2ac a83c b8bd 2cbb aae3 873c
000001c0: 7e91 ef3c 0451 b13c 4065 213b 00d9 523c
000001d0: 025f 0abd 08d0 11bc 3880 893b e46a 863c
000001e0: 0ee4 04bd 8462 cdbc c0b7 63ba ba7d f53c
000001f0: b27c 36bc 32f1 bfbc 069b bcbc 2018 903c
00000200: 21a8 debc cc74 e3bb 10d0 d5bc 80d3 c3b9
00000210: bb1c 073d 5b1b 9cbc 2f70 8bbc 3aa0 d1bc
00000220: a0ff 9ebc 28df b33c dc37 2abc 56ca 58bc
00000230: 8914 b5bc dc67 49bc b09d e13c a026 7f3c
00000240: e0a9 55bb 7a5a d2bc 9a42 d2bc 9a3e 4cbc
00000250: 3989 8ebc 5c41 74bc 5878 c8bc 7a5f b7bc
00000260: 92c9 f53c 9074 6dbb 9851 d63c 62a5 f43c
00000270: 2855 9fbb b034 ca3b d680 f03c e0de b43b
00000280: 6c33 29bc fce2 02bc 1616 aabc 6628 84bc
00000290: b27a d23c c07a 6abb 287b 10bc 0cbc 293c
000002a0: 487a bb3b 60b6 3d3b 9432 be3c 1cb5 823c
000002b0: 88b2 6e3c 354c 033d c24d 01bc 3ac1 853c
000002c0: 92dd 03bc 80e6 dd39 2b74 80bc 55e6 4dbc
000002d0: 97ab 05bd 98c3 a93b 00b7 933a 0cd8 0abc
000002e0: 2040 463c ba71 f73c 7bc8 f53b b0f5 b93b
000002f0: 613a 003d cac0 f53c 645e 6dbc 68e3 99bc
00000300: d41d 84bc d496 e5bc 82cf 19bc 4019 a6bc
00000310: d0c5 05bb 5437 2b3c 10c7 91bc 0e04 e8bc
00000320: 089d 34bc feab dc3c 383b 7cbc 9a32 14bc
00000330: 88a7 213c e6a8 b33c a8fc e23b a805 40bc
00000340: e08e 9abc 0c85 243c c8ee acbc a48a a0bc
00000350: 2895 b43c f439 853c 06c6 7fbc 2716 09bd
00000360: f09c 19bb 2d50 023d 20d5 96bc ddb7 f2bc
00000370: 7e01 edbc 0014 af3a 28ce 933c d6d4 903c
00000380: 134a aabc 2091 f83a f24c 953c c2d9 acbc
00000390: 566e eb3c fa65 7dbc aee6 9abc a7af 063d
000003a0: 601d b2bc fc76 a3bb b2ab 153c e8da 7abc
000003b0: 284a b2bc f0ed 42bd 8483 d2bc 6681 06bc
000003c0: f808 f4bb 66ad 44bc a2ca f33c 58d1 983c
000003d0: 38d6 47bb b060 913b 41e5 c3bc c069 da3a
000003e0: a82f cabb 620c e13c 84d2 c03c 040c 98bc
000003f0: b060 8d3c 2e7c fe3c 26a8 c53c 7ae2 4fbc
0.00862392 0.0036386922 -0.028346324 0.018689781 -0.009010615 0.024619672 0.026543666 -0.000615038
0.03205603 0.011189977 -0.0090461355 -0.028338782 -0.020035062 0.017445367 -0.03180632 -0.026812201
-0.0013094209 0.006381195 -0.028952615 0.011573397 -0.024474468 -0.025951497 0.0036583468 0.023808058
-0.021191325 0.02849194 -0.005198894 0.029086892 0.027437843 -0.00514571 -0.0030865427 0.0038615316
-0.001973752 0.01502702 -0.043462295 -0.02515329 -0.010378709 -0.018253833 -0.003356943 -0.0035797916
0.0007416941 -0.023619149 -0.00089138 -0.0024569146 0.0014141612 0.01865526 0.00668294 0.002643261
0.021820944 0.021652993 -0.028905671 -0.0023883209 0.029000092 -0.028938634 -0.008645125 -0.023969823
-0.011907473 -0.024898678 0.009875808 0.024291482 -0.02691518 0.0069654025 0.011935081 0.03105807
-0.011473672 -0.01013976 -0.03276537 0.021826576 0.016083911 -6.869704e-05 0.029678117 0.0057351366
0.0019571185 0.021997418 -0.0010237731 0.015160561 -0.014801776 -0.008765388 -0.038924392 -0.05408009
0.015345298 0.00023275986 0.0069683343 0.0069434084 -0.026666692 -0.006513115 0.0033766814 0.019746017
0.02335753 -0.019035596 -0.01382467 -0.0059057567 -0.012843382 -0.016535325 -0.030448733 0.009727024
0.0047243685 -0.013863521 0.029798415 0.03176381 0.01368849 0.007817827 0.0064795315 0.015041351
-0.027593309 0.016383141 -0.021645041 -0.032710023 -0.0061309133 0.02059028 -0.0026358198 0.01658805
0.02924418 0.021645077 0.0024627 0.01286912 -0.033782013 -0.008899696 0.004196193 0.016408391
-0.032444052 -0.02507139 -0.00086867437 0.029967178 -0.011138128 -0.02343044 -0.02302314 0.017589629
-0.02717978 -0.0069414135 -0.026100188 -0.00037350878 0.032986384 -0.019056013 -0.017021267 -0.025589097
-0.019409 0.021956995 -0.0103892945 -0.013231834 -0.022104518 -0.012292828 0.027541012 0.015573174
-0.0032602474 -0.025677908 -0.025666524 -0.012466097 -0.017399417 -0.014908161 -0.024471447 -0.022384394
0.030003343 -0.0036232807 0.026161954 0.029864017 -0.0048624463 0.0061708316 0.029358309 0.005519733
-0.010327201 -0.007988688 -0.020762485 -0.016132545 0.025693271 -0.003577873 -0.008818425 0.010359775
0.005721364 0.0028947815 0.023217477 0.0159555 0.014568932 0.0320551 -0.007892074 0.01632749
-0.008048432 0.0004232414 -0.015680393 -0.0125671225 -0.032634344 0.0051807873 0.0011269748 -0.008474361
0.0121002495 0.030205596 0.007500706 0.00567504 0.031305674 0.029999156 -0.0144878365 -0.018785194
-0.016127504 -0.028026022 -0.009387853 -0.020275712 -0.0020412095 0.010450203 -0.017795116 -0.028322246
-0.011023767 0.026937481 -0.015394978 -0.0090452675 0.009866603 0.021931123 0.0069270916 -0.011720099
-0.018866956 0.0100414865 -0.021109954 -0.019597359 0.02204378 0.016262986 -0.015611177 -0.03346839
-0.002343949 0.031814743 -0.018412173 -0.029628688 -0.028931376 0.0013357401 0.018042639 0.017679613
-0.020787274 0.0018964149 0.018225167 -0.021099929 0.028739136 -0.015466208 -0.018908825 0.03288236
-0.021742523 -0.0049885493 0.009135174 -0.01531098 -0.021763876 -0.047590196 -0.025697477 -0.008209562
-0.007447358 -0.012004232 0.029759709 0.01865451 -0.0030492675 0.004436575 -0.023913028 0.0016663596
-0.006170232 0.027471725 0.023537882 -0.018560417 0.017258018 0.031065073 0.024128031 -0.012688274

net.0.bias f4 [32]
00000000: 0676 b2bb 588d 033e 9325 e13d b37d 3d3d
00000010: af87 de3c 576c 933d bc0b 503d dfb6 fa3c
00000020: 476c 0c3e ce4c 85bc 07d8 47bd 1b8a 923d
00000030: cada 52bc ae12 82bc b20f 133e 4851 023e
00000040: abd9 073b 5932 393d e66b 9a3d aa5e d23d
00000050: d357 d43d 9fcc 4a3d c23d e83d 894a 773d
00000060: 124b 483c 257b 173d e393 f13d daa8 b73d
00000070: 9c96 7c3d 82ea bc3b 16da 353d 8efc 0e3e
-0.0054461984 0.12846887 0.10993495 0.046262454 0.027164308 0.071983986 0.05079244 0.030604778
0.1371318 -0.016271975 -0.048790004 0.07155248 -0.012869546 -0.015878048 0.14361456 0.12726319
0.0020729105 0.04521403 0.07540111 0.10271962 0.10368314 0.049511548 0.11339904 0.060373817
0.012224929 0.036982674 0.11795785 0.08967753 0.06166707 0.00576526 0.044397436 0.1396353

net.2.weight f4 [32, 32]
00000000: e0cb b8bd f042 523d 0ad2 423e 4e72 9c3d
00000010: b340 773d dcdf 483c e274 503e b77d 10be
00000020: 181c 5c3e decf 2c3e f1b5 44bd 37a9 b3bd
00000030: 795f 96bd 5ada d1bd 9b1b f93d f27d 98bc
00000040: 5de1 813d 2e02 293d f089 4d3e 7974 033e
00000050: bd22 3e3e 3cbb 473c fa59 f63d 16b4 78bc
00000060: d92c cebc 3480 8d3d bf2c a63d e6ff adbd
00000070: 46d7 a1bd 4b4a 283e d57a 18bd 5b91 4d3e
00000080: 9c90 f03d 29c4 a23d 782c a63d 64ee 413d
00000090: 7074 bd3d 47a3 053e 24fe 00bd e4f4 bf3d
000000a0: 4282 943e b579 0dbe f148 10be f88c d13d
000000b0: feda 2dbd 224f debd 373f d43d 3784 523e
000000c0: 8b66 9a3c eadc b23d a937 3b3d 32f9 863e
000000d0: 3720 213d b3e6 923d 1cb3 633e 415e 2a3e
000000e0: 8a44 30be 1e08 99bd 357b 893e 0cfb c53d
000000f0: 0e66 793e 56e3 9cbd b468 7cbd bc73 723e
00000100: b8bd 65bd 2850 47bd 90a8 2b3d 337b 2d3e
00000110: 39ed 2e3e 7307 86bd 8bbb 1c3e 3cf1 5bbd
00000120: 8015 e53a f2e0 973d 9bc0 03be 2670 11be
00000130: c800 89bd 3fc5 1e3e 2cd8 3b3d 6010 863d
00000140: 33e0 263e 5688 c73d 0acd 34be 45fd 013e
00000150: 28e7 81bc e648 c33d c8d5 c3bc e8f5 7b3d
00000160: d0de ce3c d0bc 14be b73b 14be 18be 26bd
00000170: 8027 45bb 6f75 08be b62c a13d 348d 07be
00000180: 3123 f8bb 6cf6 a13d 8660 fbbd 23e6 25be
00000190: 286a 46bd 34d8 03be 8faf c4bd 5470 803d
000001a0: 7b4b 263e a148 c0bd 5aa5 72bd d65b 633e
000001b0: 317f f1bd ddf4 c83d 2996 cabc 9af0 9c3d
000001c0: 681b 99bd bc86 febd 7ed3 1c3d 92bb 213e
000001d0: ea9b 45bd 28e3 b1bd 324a a43b c6e0 2b3e
000001e0: b371 443e 69ca 373e 15ce f8bc 321a 053e
000001f0: b03a 493e 6152 03be 1736 9d3d 4747 c93c
00000200: 6bb9 33bd 091c f23d 0e97 6a3d 0766 ba3d
00000210: ab22 eb3c b2ee a2bc 46ca 98bd 44fe e8bd
00000220: e5e0 bcbd 43d0 41bd 699f acbd 1163 033d
00000230: 0411 0b3e 00b2 96bd 0a5f d53d d5e0 4a3e
00000240: 1de1 19be 77c2 b2bd fddb 013e 1e3c 4b3e
00000250: 27e9 103d f3d5 193e e40c e03d 66bb 36bc
00000260: 3ac7 8fbd 0577 ccbd 51fa 4a3d a294 07be
00000270: 24bb 903c b59c 203e 0e7c e23d 8a71 523e
00000280: ed2f d7bd 2a5d 843d 15f0 acbc 88ae 183e
00000290: cc18 5dbc 7665 dfbd f694 a4bd dc5e 8a3d
000002a0: 8904 f53d 4f15 24be d927 74bc 371b c83b
000002b0: 655d 113e 2653 00be b1e9 df3d b652 1bbe
000002c0: a1eb 253e 6ccb 18be 2322 f23d 9410 3c3d
000002d0: c319 403e 645d bc3d 4663 2c3e 9a9f 393e
000002e0: 337e 7b3e 7260 5a3e 1cea 6c3d a5c7 6a3c
000002f0: 2ef1 273e 7982 993d b739 68bc 60db 213e
00000300: c162 123e 89d4 073e 1004 783d 6431 e93d
00000310: 95e2 e73c 78b5 ff3d 69b4 35be ca8c b03d
00000320: 6db4 73bd 18c3 eebd 26bb 17be a70f 173e
00000330: 83a2 203e 8813 cdbd 58cb e63d c9c2 87bd
00000340: a1bd 193e 8619 9bbc f1e4 b4bd 33e8 0f3e
00000350: 2259 36be bf81 bf3d e1d1 46be 7a02 113e
00000360: 81fa debd a70a ea3d 0529 a8bd 6d26 d93d
00000370: 21d7 fcbd 2e9e 2cbd 39ef 62bc 4d56 18be
00000380: 3f05 4e3d 60c7 19be 414b 013e 7da6 bd3d
00000390: 1ce6 bfbd 9ebb 39be 8d9e 3dbd bacf 1f3e
000003a0: 8868 dbbd c087 3bbc 8e6f d3bd 8bab b33d
000003b0: 31da f03d 7713 09bc 07ec 4dbb 0d82 95bd
000003c0: 4c6b 353e a399 28be 729f e6bd e480 e83d
000003d0: 5f88 7a3d f660 d83d 24ec 0dbd 7743 eebd
000003e0: a522 043e 1f65 1cbe c92e 0dbd 5a94 b5bc
000003f0: d10f c4bb a76c 893b 6643 063e 3acf fc3d
-0.09023261 0.051333368 0.19025436 0.076389894 0.060364436 0.0122604035 0.20357087 -0.14110456
0.21495092 0.1687617 -0.048025075 -0.087725095 -0.07342429 -0.102467254 0.121634685 -0.018614743
0.06341813 0.041261844 0.2007215 0.128374 0.18567939 0.012190636 0.120288804 -0.015179655
-0.02516787 0.069092184 0.081140034 -0.084960744 -0.07902388 0.1643459 -0.037226517 0.2007498
0.11746332 0.07947571 0.081139505 0.047346488 0.09250724 0.13050567 -0.031492367 0.09372881
0.2900563 -0.13815959 -0.14090325 0.10231966 -0.042445175 -0.10854937 0.1036362 0.20558248
0.018847724 0.08733542 0.04570738 0.26361996 0.039337363 0.07172909 0.22236294 0.16637518
-0.17213646 -0.07472251 0.26851812 0.09667024 0.24355337 -0.076605484 -0.06162329 0.23676962
-0.056089133 -0.048660427 0.0419088 0.16941528 0.17082681 -0.065443896 0.15305917 -0.053696856
0.0017477721 0.07415952 -0.12866442 -0.14202937 -0.06689602 0.15504931 0.045860454 0.06546092
0.16296463 0.09742801 -0.17656341 0.12694271 -0.015857294 0.09535389 -0.02390565 0.06151381
0.02525273 -0.14525151 -0.14475904 -0.04070863 -0.0030083358 -0.13326047 0.07869856 -0.13237458
-0.0075725545 0.07908329 -0.1227427 -0.16201071 -0.048441082 -0.12875444 -0.09603798 0.06271425
0.16239731 -0.09388853 -0.059239723 0.22203001 -0.11791838 0.09812329 -0.024729805 0.076630786
-0.074759305 -0.12428042 0.038287632 0.15794209 -0.048244394 -0.08685905 0.0050137276 0.16784963
0.19183998 0.17948307 -0.030371705 0.12998274 0.19651294 -0.12824394 0.076763324 0.02457012
-0.043878 0.118217535 0.057272963 0.091014914 0.028703054 -0.01988921 -0.074604556 -0.11376622
-0.09222583 -0.047317754 -0.084288426 0.0320769 0.1358071 -0.073581696 0.10418518 0.19812329
-0.1502728 -0.087284975 0.12681575 0.19847152 0.0353786 0.15023021 0.10939959 -0.011153078
-0.07020421 -0.09983639 0.049555127 -0.13240293 0.01766736 0.15684779 0.11058818 0.20551124
-0.10507188 0.06463082 -0.021110574 0.14910328 -0.013494682 -0.10908024 -0.080362245 0.06756374
0.11963756 -0.16023754 -0.014902079 0.00610676 0.14195783 -0.12531719 0.10933245 -0.1516827
0.16203167 -0.1492135 0.11822917 0.045914248 0.18759827 0.091975 0.16834745 0.1812729
0.2455986 0.21325853 0.05784045 0.0143298255 0.16400596 0.07495589 -0.014173917 0.15806341
0.14295484 0.1326467 0.06055075 0.11386374 0.028306285 0.12485784 -0.17744602 0.086206034
-0.05949824 -0.11658305 -0.14817485 0.14752065 0.15686993 -0.10013491 0.112692535 -0.06628949
0.15013744 -0.018933069 -0.088327296 0.1405342 -0.17807439 0.09350919 -0.19416 0.14161101
-0.108876236 0.11427813 -0.08210949 0.10603032 -0.1234572 -0.04214304 -0.01385098 -0.14876671
0.05029797 -0.15017462 0.12626363 0.09260271 -0.09370062 -0.18137977 -0.046293784 0.15606585
-0.10713297 -0.01144594 -0.10324012 0.087729536 0.11760367 -0.008366457 -0.00314212 -0.07300196
0.17716712 -0.16464858 -0.112608805 0.11352709 0.06116521 0.10565369 -0.03464903 -0.11633962
0.12903841 -0.1527295 -0.034468446 -0.022165466 -0.005983331 0.0041938606 0.13111648 0.12344213

net.2.bias f4 [32]
00000000: 2bc1 2d3e 0bb6 023e 2bc3 23be 470c b63d
00000010: 57ec 8abd a677 2f3d 1c1f 423b 8b35 02be
00000020: 230e 0aba 43a0 4d3d dc9d 143e 37d4 313e
00000030: 908a 76bd 5c86 b0bd a576 fbbd b89f afbd
00000040: ccb4 dd3d 14a4 35bd de89 893d ed04 273d
00000050: a9f5 83bd 516e a43d 5b63 b93c eba0 3e3e
00000060: e119 023e 21e8 99bd a8a8 223e d4fe c63d
00000070: a413 25be 1b32 1c3d e057 cfbb b85b ccbd
0.16968219 0.12764756 -0.1599242 0.088890605 -0.067833595 0.042838715 0.0029620593 -0.12715738
-0.0005266389 0.050201666 0.14513344 0.1736611 -0.060190737 -0.08619377 -0.12278489 -0.08575386
0.108255 -0.04434593 0.06715749 0.040776182 -0.0644334 0.08028854 0.022630384 0.18616073
0.12705185 -0.07514978 0.1588465 0.09716573 -0.16120774 0.03813372 -0.006327614 -0.099784315

net.4.weight f4 [344, 32]
00000000: fa75 4cbd 8a8a d03c 207a 583d a614 74be
00000010: 93b8 f2bc 914c 0fbe ef73 523d 46fd 2abe
00000020: f14e 43bd e622 78bd 51b9 cfbd 9c32 8dbd
00000030: f50e 0b3e d888 263e 5004 5ebe d586 fbbd
00000040: 1fa3 d7bd 69ef f83d f7ec 1f3e 56bb 40be
00000050: 7b7e 2c3e fd05 c93d cab2 063e 9457 933c
00000060: f557 3abd 1122 26bd 42d5 193e 57a3 303d
00000070: f448 83bd 7516 e43c ecd9 ba3d 2e7e 193d
00000080: 0c01 7dbd 3bfb d1bd 34d1 1dbd 9199 edbd
00000090: 6c2a d9bd 86e9 153e 327b 413d 9320 1cbd
000000a0: f2aa bc3d 0d5c 8abd bb44 8ebc 3b3a 21be
000000b0: 5a3d 13be f646 5abc cfda 06be 5bf7 073e
000000c0: 1a66 22be 544c 1abc a994 f33d 24b8 bf3d
000000d0: d8d6 5d3d 8f36 a8bb 75d8 50bc 0dd0 81bd
000000e0: 4348 1f3e d4c5 293e 7510 d1bd a712 9b3d
000000f0: 4b60 a53c 6650 8f3d 8ce2 a93c 2078 413d
00000100: a44a 31be 8265 2abd 5c03 63bd ce9b 0f3c
00000110: 8397 1ebe bc86 14be ce3a 163e 1a29 563d
00000120: 9315 62bb 62b1 fbbd 0ca9 73bd cd65 0bbe
00000130: cac0 a93d 4bf9 8d3d 1ca4 213d 006d 1c3d
00000140: 3af4 50bc 5def ffbd 80ab 103e 9941 273e
00000150: 55c9 13be e3db 45bd f800 93bd 2999 92bd
00000160: 5380 a73c da6f 0ebd c7e3 43bd d901 2d3e
00000170: 1ca3 ff3d d47e 86bd ccde fc3d 5b73 cb3d
00000180: 5451 c0bd 8f3b e03d 7c52 12be f63c ae3d
00000190: 9391 23bd 7215 cdbd b92b 413d b7c5 293e
000001a0: db20 13be f61d 173e 7aeb 063e 0362 1f3e
000001b0: 80e8 ad3c 3e38 31bd bf22 f8bd 09fa 353d
000001c0: 515d e7bd 84ff 27be 035e 6b3d 4323 303e
000001d0: 0822 c8bc c85d d73d d461 e03d 8f08 03be
000001e0: b0f1 fa3d c703 d63d 5d4f 2abe c639 fb3d
000001f0: 74eb 83bd 1838 cb3d ca91 d93d 08ae 123e
00000200: 25f3 0b3e c0a8 543c 99fd 073e c6f8 a4bd
00000210: 472d 993d a206 053e 5b02 1bbe 1402 1a3e
00000220: 0989 d63d ed3e bf3c d25c 403d 7adb 953d
00000230: 8256 28be b977 9eba 6d39 183d 1409 f6bd
00000240: 5e78 ebbd 0801 c2bd 0479 15be 0839 c83d
00000250: 404b 6b3d 0e7a e2bb 7428 f3bd 0b64 7ebd
00000260: b89b e4bd fc8c f3bd 212e cebc e7a8 83bd
00000270: 7faf 1fbe 79d5 e9bc 469e 833d 968f 0a3e
00000280: 70c4 22bd 6253 52bb 34c4 8d3d 6202 113e
00000290: aea5 bbbd f000 213e f013 803d 3b59 02be
000002a0: db51 203e 9268 9f3d 6724 fcbc 17c7 b13d
000002b0: f5e6 233e 9922 1abd 8732 9e3c 44a4 9d3d
000002c0: 8c95 4c3b 8e70 7d3d 29e1 7c3d 0336 04be
000002d0: d699 21be 0156 013d a9d5 8a3d e770 90bd
000002e0: 7ea2 02be c165 fe3c 9f51 2d3d 8911 d3bc
000002f0: b40c 163e 5662 5ebd 7f52 213e dee0 31bd
00000300: 8371 243e ac58 40bd b8b5 1dbd e9b6 71bd
00000310: 4f8e babd bca0 1fbc 43ee 6a3d 2994 a7bd
00000320: d218 11be 3c4e 23be 84e0 853d f97e 59bd
00000330: f0df 6a3c d264 df3c f3c4 0ebe 0950 29bd
00000340: e054 013d db9e 1ebe 3585 10be 053b 27be
00000350: 997d 133e 7ee0 b3b9 803b 9f3d 6314 2d3e
00000360: e7d4 f43c 90af 603c 6070 063d 3509 3cbd
00000370: 9d18 87bd afd4 133e 5939 bbbd 4217 a5bd
00000380: 03ee 33bd 5fda 91bd ef72 0b3e e268 bbbd
00000390: ca1d 823d 60f2 84bd 0ece 92bc 67fe 0f3e
000003a0: a91c 643a 9d78 2a3e f45c bdbc 1233 31bd
000003b0: c216 ddbd 1c06 043e 64a9 f9bd d343 0a3e
000003c0: b73c fabd 6eac 99bb 2b66 ae3c 427d 953d
000003d0: b7d6 243e f53e 333e 9b01 71bd 6218 813d
000003e0: d584 efbd 038f 753c 34eb 30be cb3d db3d
000003f0: 3bde 323e 583f 2cbd 5a75 16be bffb da3d
-0.0499172 0.025456686 0.052850842 -0.23836002 -0.029629027 -0.13994052 0.051380094 -0.16698179
-0.047682706 -0.060580157 -0.10142768 -0.068944186 0.13579924 0.16263139 -0.21681333 -0.122815765
-0.1052916 0.12155039 0.15617739 -0.18821463 0.16845123 0.09815595 0.1315414 0.017986096
-0.04549404 -0.040559832 0.15022758 0.043124523 -0.06410399 0.02784274 0.091235965 0.03747385
-0.061768577 -0.102529965 -0.03852959 -0.11601556 -0.106037945 0.14639863 0.04723663 -0.038117003
0.09212293 -0.067558385 -0.017366758 -0.1574487 -0.14378873 -0.0133225825 -0.13169406 0.13277952
-0.15859261 -0.009417612 0.11893589 0.09361294 0.05415997 -0.005133457 -0.01274692 -0.06338511
0.1555491 0.16579372 -0.10208217 0.07571917 0.020187518 0.06997757 0.020737909 0.0472337
-0.1731363 -0.04160071 -0.055423126 0.008765174 -0.15487485 -0.14504522 0.1467087 0.05228529
-0.0034497723 -0.122896925 -0.059487388 -0.13613053 0.08288725 0.069323145 0.039463148 0.038189888
-0.012753541 -0.12496827 0.14127922 0.16333617 -0.14432271 -0.048305403 -0.07177919 -0.07158119
0.020446932 -0.03477464 -0.047824647 0.16895236 0.124822825 -0.06567159 0.12347183 0.09934112
-0.09390512 0.1094886 -0.14289278 0.08507721 -0.039933752 -0.10013856 0.047160838 0.16579328
-0.14368002 0.14757523 0.13175765 0.15564732 0.021229029 -0.043266527 -0.12116002 0.044427905
-0.112970956 -0.16406065 0.057462703 0.17200951 -0.02443029 0.10515934 0.10956159 -0.12796234
0.122531295 0.10449939 -0.16631837 0.12266879 -0.064413935 0.099228084 0.1062351 0.143242
0.13666971 0.012979686 0.13280334 -0.08055262 0.07479339 0.12990811 -0.15137617 0.15039855
0.10475356 0.023345435 0.04696352 0.073172525 -0.1643925 -0.0012090123 0.03716414 -0.1201345
-0.114975676 -0.09472853 -0.14596945 0.09776503 0.05744481 -0.0069115227 -0.1187295 -0.062107127
-0.111625135 -0.11892125 -0.02516848 -0.064287 -0.1559429 -0.028544175 0.06426673 0.13531336
-0.03973812 -0.0032093157 0.069221884 0.14161065 -0.0916246 0.15723014 0.06253803 -0.12729351
0.15656225 0.07783617 -0.030779077 0.086805515 0.16006072 -0.03763065 0.019311203 0.07697347
0.0031217067 0.06187492 0.061738167 -0.12911229 -0.1578134 0.03157616 0.06779034 -0.070527844
-0.12757298 0.03105438 0.042314168 -0.025765197 0.14653283 -0.054293 0.15754126 -0.04342734
0.16058926 -0.046959564 -0.03850338 -0.059012327 -0.091091745 -0.009742912 0.05735613 -0.08182556
-0.14169624 -0.15947813 0.065369636 -0.053099606 0.014335617 0.027269755 -0.13942318 -0.041336093
0.031575084 -0.15490286 -0.14113314 -0.16331108 0.1440338 -0.000343088 0.077750206 0.16902308
0.029886676 0.013713732 0.032822013 -0.045907218 -0.065964915 0.14436601 -0.091417976 -0.08061077
-0.043928158 -0.07121729 0.13618062 -0.09150864 0.06353338 -0.06491542 -0.01792052 0.1406189
0.00087017805 0.16647573 -0.023115613 -0.043261595 -0.10795356 0.12892956 -0.12190512 0.13502435
-0.12218612 -0.0046897447 0.021288952 0.07299282 0.16097532 0.17504485 -0.05883942 0.06303479
-0.116952576 0.01498771 -0.17277223 0.107051454 0.17467587 -0.042052597 -0.14693204 0.10692548

net.4.bias f4 [344]
00000000: 97e5 c5bc afcb b0bd c3fd e4bd aa80 1f3e
00000010: 44b2 703c 6714 d13d bc61 b43b 293e 86bd
00000020: 0f6e 0b3e 8d3c b0bd f285 cbbd 14c6 243d
00000030: 7bcb 33be a125 d9bd ad5b 443d d1b7 2cbe
00000040: 8ee0 8d3b 4acf 883d dfd7 15bd 587a 06bc
00000050: 9afc c23d 2ce9 353c ba32 6abc 7ee8 893d
00000060: da78 bf3d 74f5 9f3d fb11 c4bd 5201 fe3d
00000070: 208b 603d aa31 853d 2d7d 1ebe 83d1 fe3d
00000080: 3102 dabd 57b6 91bd 2506 8fbd a25a 65be
00000090: ea2d 05be fb03 8b3d c3c3 ff3d 786c af3d
000000a0: a927 173e 2d78 7d3d 34bd 22bd 07b7 5ebd
000000b0: eb25 a8bd 07c4 f9bd 9d5b 9bbd 4265 48bd
000000c0: 97bc a83d 22c2 253e 4989 8a3d d8cb b1bd
000000d0: e2e9 2f3e ddfe f33d a5fa 1dbe d574 af3d
000000e0: d75b e6bc c734 fe3d 75a0 b23d 89fb 2cbe
000000f0: b2b6 073e 9e64 c3bd 2c1d 663c 3aaa 813d
00000100: d1ca 2c3c cb76 f93d e9a1 0cbe 0ce2 93bc
00000110: 8897 acbd 6bf6 a0bc 9372 af3c 9a23 523d
00000120: a590 d2bd 3040 5a3d 20dc 38bd 4622 223e
00000130: c0c1 193e 7ead b5bc 6c05 803d ae58 8f3d
00000140: a041 143e ca39 28be 78b1 813d 42f1 83bd
00000150: b83e 0a3e cd75 2c3e e4ba 28be 642e 403d
00000160: 03c1 df3d 43a8 92bd b3d1 18be 622f 07be
00000170: 4469 ab3d 2d49 3bbc 2b19 2a3e 637a 00be
00000180: 6b9a 1b3e 2cf3 0cbe 429f 263e 3ae5 8f3d
00000190: 4289 e63d 9b2a 13bd 3f14 6f3a a4f0 893a
000001a0: e52b 5fbd 28a0 8d3c cda1 b93d 0254 09be
000001b0: 66e7 27be d26c 5dbd 1991 afbb 22b7 bd3d
000001c0: f9fa b93d 8cb8 803d 85c8 293e 8081 9dbd
000001d0: aade 933d bca2 df3d 679c 57bd 5dd0 253d
000001e0: aed1 6a3d 1159 0e3e 8c36 cc3d 6b14 0b3e
000001f0: ed9a 053c bcc9 97bd 26fc d93c 2a3a 18bd
00000200: d3ae 30be 1d7f 2e3c e366 8cbd e92b d23d
00000210: c550 b5bd b439 fb3d b47a 043d 9ef6 ef3b
00000220: 4dc0 923d 22e3 15be bb82 153e fce0 0cbe
00000230: 8650 313d 02a3 9dbd 92b9 c03d a340 2b3e
00000240: 8c95 ed3d de3f babd 85fd b2bc 97b7 5b3e
00000250: d4cf a73d df7e 3ebc dbb1 e53d 9613 34bc
00000260: f5e2 94bd c609 0c3d bc4c 2c3a c7b7 5ebd
00000270: 66cc 2cbe 49e7 ed3d 1ba1 ef3c d71a bfbd
00000280: 569b 933d d973 00be 2430 fdbd 26cb 1abd
00000290: 2fee 7dbd a612 af3d 5778 f13d 7d04 2bbe
000002a0: 38f2 6abd 3e8f b5bd df2c 243e f204 0cbe
000002b0: 1556 163e 26a1 c23d 2c0b dabd a01d 41bd
000002c0: a136 a43d 877a 1dbe 60f9 d3bb 9f6c 87bd
000002d0: b425 5b3d 194c a6bd 70d3 dabd 9834 1a3e
000002e0: 8106 623d 4346 f9bd 8b96 093c 60d4 83bd
000002f0: 2574 adbd 9935 93bd fc9b 133e 3b07 f23c
00000300: 805d 1dbe ad09 883d 8adb efbd 47cc 8fbc
00000310: fc8f 853d 43f0 23bd bd33 dbbd 1530 f4bd
00000320: 65f6 d7bd 7741 293d 8700 183e cb5b c6bd
00000330: c291 bebd 73ec acbc b164 f43d cc3c 193e
00000340: c3fc 0abe a494 07be 48fc 023e a54b 96bb
00000350: cad5 91bd 6ac8 5bbd d5b4 acbd 5ce3 2b3e
00000360: b1bf 98bc 5e05 84bd f099 2ebe 8c6f 173e
00000370: 82b6 143e 6486 a5bd 671f 963d cafe ad3c
00000380: af99 a63d 7560 263d ffd1 b33d c7eb 18bd
00000390: 52f6 0a3e 5d31 1f3e f0b4 01bd 9d6a fbbd
000003a0: 5a13 193e 4589 17be 4ce9 a7bd c112 86bd
000003b0: 2c05 c9bd c890 273d 95ed 95bc 8c42 213e
000003c0: 275e e1bd c142 1cbe b32b 2abe d649 173e
000003d0: a2c2 eb3c 544c 323d 5d73 743c d915 2cbe
000003e0: c26d 0f3e ccf0 91bd 01d7 2d3e db3f f8bd
000003f0: 7404 39bd ebc1 933b 2533 cc3c 2747 a2bd
-0.024157329 -0.086325996 -0.11181214 0.15576425 0.014690939 0.102089696 0.005504815 -0.06554825
0.13616203 -0.08605299 -0.099376574 0.040227965 -0.1755809 -0.1060288 0.04793899 -0.16866995
0.0043297475 0.06680162 -0.036582824 -0.00820788 0.09520836 0.011102956 -0.014294321 0.067337975
0.093492225 0.07810488 -0.09573742 0.124025956 0.05482018 0.06503613 -0.15477438 0.12442305
-0.10644949 -0.07114857 -0.06983594 -0.22397855 -0.13005796 0.067878686 0.124885105 0.08565611
0.14761223 0.061882187 -0.03973122 -0.054373767 -0.08210357 -0.121955924 -0.07585833 -0.048924692
0.08239096 0.16187337 0.06764466 -0.08681458 0.17179063 0.11913846 -0.15427645 0.08567206
-0.028119965 0.1241241 0.08722011 -0.16892828 0.13253286 -0.095406756 0.014045041 0.06331296
0.010546402 0.12180861 -0.13733639 -0.018052123 -0.0842734 -0.019648751 0.021416938 0.051303484
-0.10281495 0.05328387 -0.045131803 0.15833387 0.15015316 -0.022177454 0.06251034 0.06999336
0.14478159 -0.16428295 0.063326776 -0.06442501 0.13500488 0.16841812 -0.16477543 0.04691924
0.10925486 -0.071609996 -0.14923744 -0.13201669 0.08369687 -0.011431021 0.16611163 -0.12546687
0.15195625 -0.13764638 0.1627169 0.07026143 0.112566486 -0.035929304 0.00091201434 0.0010523987
-0.05448522 0.017288283 0.09064064 -0.13410953 -0.16396865 -0.054058857 -0.005357873 0.092634454
0.09081072 0.062851995 0.16580398 -0.07690716 0.07220204 0.10919711 -0.05263939 0.040481914
0.057328872 0.13901164 0.099713415 0.13582008 0.008154613 -0.07411525 0.026609492 -0.037164845
-0.1725419 0.010650423 -0.068555616 0.102622814 -0.08853296 0.122668654 0.03234358 0.0073231
0.07165585 -0.14637426 0.14600651 -0.137577 0.043289684 -0.07697107 0.09410395 0.16723876
0.116007894 -0.09094213 -0.021849403 0.21456753 0.08193937 -0.011626928 0.11215564 -0.010990998
-0.07269851 0.03418901 0.00065727136 -0.054374482 -0.16874847 0.1161638 0.029251626 -0.09331291
0.07207362 -0.12544192 -0.12362698 -0.037791394 -0.061994728 0.08548479 0.11790531 -0.16700931
-0.057359904 -0.08865212 0.16032742 -0.13673761 0.14681275 0.09503393 -0.10646662 -0.047147393
0.08018232 -0.15378772 -0.006468937 -0.06612515 0.053502753 -0.08119983 -0.1068486 0.15059125
0.055181984 -0.121716045 0.008397709 -0.06436992 -0.084694184 -0.07187957 0.14414972 0.029544463
-0.15367699 0.066424705 -0.11711796 -0.017553462 0.065216035 -0.040024053 -0.10703228 -0.119232334
-0.10545043 0.041322198 0.14843951 -0.09685477 -0.09305145 -0.021108842 0.11933268 0.14964598
-0.13572983 -0.13240296 0.1279155 -0.0045866542 -0.07120855 -0.053657927 -0.084329285 0.1678595
-0.018646093 -0.06446336 -0.1705091 0.14788646 0.14522746 -0.080822736 0.07330208 0.021239657
0.081347816 0.040619332 0.08780288 -0.03733423 0.13570526 0.15546174 -0.031666696 -0.12276194
0.14948788 -0.14798458 -0.08198795 -0.06546546 -0.098154396 0.04090956 -0.018301765 0.15748042
-0.11004286 -0.1525984 -0.16618232 0.1477426 0.028779332 0.043529823 0.014920083 -0.16805209
0.14006713 -0.071260065 0.16976549 -0.121215545 -0.045170262 0.004509201 0.024926731 -0.079237275
