dual/pg_same/pg_selfplay/model.pth.tar (torch, 163543 bytes, 6 tensors)

net.0.weight f4 [32, 874]
0	0xbc438068	-0.01193247
1	0xbc36854e	-0.011140181
2	0xbcd1ce00	-0.025610924
3	0x3cefe702	0.029284958
4	0xbb8d2d3c	-0.004308371
5	0x3a8d62a0	0.0010786839
6	0xbadbb460	-0.001676213
7	0x3cfc2512	0.030779395
8	0xbca19548	-0.019724503
9	0x3dbdb8b6	0.092637464
10	0x39762100	0.00023472682
11	0x3d00a1b1	0.0314042
12	0x3ba02638	0.0048873685
13	0xbce53cda	-0.027983118
14	0x3d01d01b	0.031692605
15	0xbc1a86a4	-0.009431515
16	0xbc24da34	-0.010061789
17	0xbb97d4d4	-0.0046335254
18	0xbc8e4b3f	-0.017369865
19	0x3c9351f8	0.017983422
20	0xbbfbe094	-0.007686684
21	0xbb0f3e40	-0.0021857172
22	0xbc88a3b1	-0.016679617
23	0xbc111a0e	-0.00885631
24	0x3cd4251c	0.025896601
25	0xbcc4e6b4	-0.02403579
26	0xbaa89d72	-0.0012864305
27	0xbcc2f5ec	-0.023798905
28	0xbb980af0	-0.0046399757
29	0xbc9abda2	-0.018889252
30	0xbd08d314	-0.033404425
31	0x3cf67e52	0.030089531
32	0x3cb11992	0.021618638
33	0xbcd5fcdf	-0.026121555
34	0x3d3d50cd	0.046219636
35	0x3cfdbd22	0.030973975
36	0x3992d380	0.0002800487
37	0xbb0c7220	-0.0021430328
38	0xbcc72ce2	-0.024313394
39	0x3bc6e740	0.0060700476
40	0xbbb627fc	-0.0055589657
41	0xbbab497c	-0.005227266
42	0xb6f98000	-7.4356794e-06
43	0x3befcc50	0.007318057
44	0x38a65c00	7.932633e-05
45	0x3c831062	0.015999023
46	0x3c9e897e	0.01935267
47	0x3cdea246	0.027176987
48	0x3c8b9f40	0.01704371
49	0xbb2949a8	-0.0025831256
50	0x3c6e96e0	0.014562339
51	0x3c8ff280	0.017571688
52	0xbad192e0	-0.0015989207
53	0xbce29c32	-0.02766237
54	0xbb60a328	-0.0034276936
55	0x3d04b289	0.032396827
56	0xbb866ab8	-0.0041020773
57	0xbbea0a24	-0.007142322
58	0x3b4b36c0	0.0031007975
59	0x3bd15790	0.006388612
60	0x3c2e1284	0.010624532
61	0xbc927b56	-0.017881077
62	0xbcf2e922	-0.029652182
63	0x3cce8848	0.025211468
64	0x3ca16454	0.01970116
65	0x3ca97756	0.020686787
66	0xbc796c0e	-0.015223516
67	0x3bdf49e8	0.0068142302
68	0xbd05052b	-0.03247563
69	0x3c9ac53a	0.018892873
70	0x3a30b380	0.0006740615
71	0x3cca349c	0.02468329
72	0x3cb7ba14	0.022427596
73	0x3c7a5c6c	0.015280824
74	0x3bcfd000	0.006341934
75	0x3c9d13b8	0.019174442
76	0x3c8186ba	0.015811313
77	0x3cbcbcc2	0.023039225
78	0x3c2e1a8f	0.010626449
79	0x3c899ebf	0.016799329
80	0xbb3ad530	-0.0028508417
81	0x3c64c384	0.01396263
82	0xbc2ec772	-0.010667669
83	0xbc7ea560	-0.015542358
84	0xbc9e7a40	-0.019345403
85	0xbc28361e	-0.010266809
86	0xbd0a51b3	-0.03376932
87	0x3c698b24	0.014254365
88	0xbb2e8ef0	-0.002663549
89	0x3d09bf95	0.033629972
90	0x3cb1d460	0.021707714
91	0x3ce6ba26	0.028164934
92	0x3c37340c	0.011181843
93	0xbc0fc40c	-0.008774769
94	0x3b4d22c0	0.003130123
95	0x3c847318	0.016168162
96	0xbcfd1efd	-0.030898565
97	0x3c9f9446	0.019479882
98	0x3cb120e8	0.021622136
99	0xbcbb8d74	-0.022894599
100	0x3b942390	0.004520841
101	0x3c60a860	0.013712019
102	0xbce775c7	-0.028254403
103	0x3bcaae88	0.0061853565
104	0x39029500	0.00012453273
105	0x3d0850a3	0.033280026
106	0xbcfe3b99	-0.031034278
107	0x3ca2d028	0.019874647
108	0xbd01131c	-0.031512365
109	0x3ce27416	0.027643245
110	0x3d02a869	0.03189889
111	0xbccb4bb0	-0.024816364
112	0xbc3322d4	-0.010933597
113	0xbcd07de0	-0.025450647
114	0xbc2273ea	-0.009915331
115	0x39936a80	0.00028117374
116	0x3d025d5b	0.031827312
117	0x3c726ea0	0.014796883
118	0x3c8cfdba	0.01721083
119	0x3bead0e8	0.007166017
120	0x3d085ef7	0.03329369
121	0xbd074613	-0.033025812
122	0x3caa57e6	0.020793866
123	0xbc8efac4	-0.017453559
124	0xbcc204ca	-0.023683924
125	0xbc353e28	-0.0110621825
126	0x3c47c9e0	0.012194127
127	0x3d521b33	0.05129547
128	0x3c3c8a50	0.011507586
129	0x3dbfa07a	0.0935678
130	0x3ba5b6a8	0.0050571747
131	0xbcce85d7	-0.025210304
132	0xbc124fac	-0.008930128
133	0xbadda260	-0.0016909353
134	0x3ba9c0c8	0.005180452
135	0x3c60e9bc	0.013727602
136	0xbc93987a	-0.018017042
137	0xbce52add	-0.02797454
138	0xbcedf0c4	-0.02904547
139	0x3c72b8b0	0.014814541
140	0xbd047b5a	-0.0323442
141	0xbc5ebe76	-0.013595214
142	0xbc625aba	-0.013815576
143	0x3ca24fac	0.019813381
144	0xbcfbe4e5	-0.030748794
145	0xbcf030ef	-0.029320208
146	0x3ce45d39	0.027876483
147	0x3cfb890a	0.030704994
148	0xbc0f6632	-0.008752393
149	0xbd0786ba	-0.03308747
150	0xbd00a321	-0.03140557
151	0xbc4b833e	-0.012421427
152	0x3c21da98	0.009878777
153	0x3c8da69c	0.01729136
154	0xbc62a3ce	-0.013832999
155	0xbcd964ae	-0.026537266
156	0xbcf3c5f8	-0.029757485
157	0xbba7e364	-0.0051235426
158	0xbd06a277	-0.032869782
159	0xbccc427c	-0.024934046
160	0x3c121488	0.008916028
161	0x3c8b5492	0.0170081
162	0xbca402ec	-0.020020925
163	0xbc0d6a52	-0.008631306
164	0x3ca7c88c	0.02048137
165	0x39e6b080	0.0004400052
166	0x3c3d6bd0	0.011561349
167	0xbac40860	-0.0014956109
168	0x3b0e6900	0.0021730065
169	0xbbc52714	-0.0060166214
170	0xbbb2cc24	-0.0054564644
171	0x3c1d0d88	0.009585746
172	0xbb8254ac	-0.003977379
173	0xbcf931f9	-0.030419337
174	0xbc881974	-0.0166137
175	0x3cfa2b1e	0.030538138
176	0xbc11a702	-0.008889915
177	0xbcd1eb7c	-0.025624983
178	0xbcf3b285	-0.02974821
179	0x3d6057a5	0.054771084
180	0xbbfdc078	-0.0077438913
181	0x3ceed05a	0.029152084
182	0x3bb16c30	0.0054145083
183	0x3c0a6268	0.008446313
184	0x3c9a83aa	0.01886161
185	0x3c9df414	0.019281425
186	0x3d124813	0.035713267
187	0xbc2e85d8	-0.010652028
188	0x3daadcc0	0.08342886
189	0xbcc10f30	-0.023566812
190	0x3c79de74	0.015250791
191	0x3cfe8c9e	0.03107291
192	0x3cea545e	0.028604683
193	0xbc0647a4	-0.008195791
194	0x3ca41076	0.02002738
195	0x3a0c2d80	0.0005347356
196	0x3d0160db	0.03158651
197	0xbb70a0f8	-0.0036717039
198	0xbcd1f766	-0.025630664
199	0x3c0d04c4	0.008607093
200	0xbb5b1910	-0.0033431686
201	0xbcf9e96b	-0.03050681
202	0x3c71ca40	0.014757693
203	0xbd052487	-0.03250554
204	0x3c984468	0.018587306
205	0x3bc9b220	0.0061552674
206	0xba35b880	-0.00069320947
207	0xbcdae694	-0.026721276
208	0x3cb49c04	0.02204705
209	0x3c92e222	0.017930094
210	0x3ce3353a	0.027735341
211	0x3d03c8b1	0.032173816
212	0xbd052f8a	-0.03251604
213	0x3c867f12	0.016418014
214	0xbd0a14c6	-0.033711217
215	0xbb938f68	-0.0045031793
216	0xbc00efe4	-0.007869694
217	0x3ce6d0da	0.02817576
218	0x3bad76f0	0.0052937195
219	0x3bd0e3b0	0.0063747987
220	0xbc8cbce4	-0.017179914
221	0xbd092247	-0.033479955
222	0xbc9acc27	-0.018896176
223	0x3ca54e90	0.020179063
224	0x3ce095ac	0.02741512
225	0xbc4db140	-0.012554467
226	0x3ca9ec60	0.020742595
227	0x3c869602	0.016428951
228	0x3ca3d67e	0.019999739
229	0x3c448ef8	0.011996977
230	0x3cade0bc	0.021225326
231	0xbcd3aef6	-0.025840264
232	0x3ceebe36	0.029143434
233	0xbcfab1fa	-0.030602444
234	0x3d5ac916	0.053414427
235	0x3acbaee0	0.0015539788
236	0x3bdd4220	0.0067522675
237	0x3be61aa9	0.007022221
238	0x3b6ae430	0.0035841577
239	0xbd00f371	-0.031482164
240	0xbcb47dfc	-0.02203273
241	0x3cb64312	0.022248778
242	0xbc8b23f7	-0.016984923
243	0x3c3cb038	0.011516623
244	0x3d2154fe	0.039387695
245	0xbc4b0742	-0.012391867
246	0x3a8f1120	0.0010915138
247	0x3c8f7ece	0.01751652
248	0xbcd44359	-0.02591102
249	0x3c0b0c20	0.008486778
250	0x3c5a2cd4	0.013316352
251	0xbce4c64d	-0.027926588
252	0xbca5ae51	-0.020224722
253	0xbc8b4b2d	-0.01700362
254	0xbd032de0	-0.03202617
255	0x3b2b2c30	0.0026118867

net.0.bias f4 [32]
0	0x3d69713a	0.056992747
1	0xbd2f3529	-0.042775307
2	0xbd09afd6	-0.033614956
3	0xbd099cfb	-0.033596974
4	0x3d69f633	0.05711956
5	0xbcea0f62	-0.028571788
6	0x3dc4b972	0.096056834
7	0x3d25cd33	0.040478896
8	0x3ce3b8c1	0.027798058
9	0x3cf79208	0.030221
10	0x3d8436fc	0.064558
11	0x3de254cf	0.11051332
12	0x3d945c02	0.072441116
13	0x3bdc0158	0.0067140274
14	0x3decc5ed	0.11561189
15	0x3c5bff7e	0.013427613
16	0x3db1652a	0.08661874
17	0x3dbc935d	0.09207795
18	0x3d841d91	0.06450952
19	0x3e14ee30	0.14543986
20	0x3d9cff51	0.07665885
21	0x3d529914	0.051415518
22	0x3dae78f2	0.08519162
23	0x3de7754a	0.11301668
24	0x3da9b44f	0.08286344
25	0x3d790c30	0.06080264
26	0x3d900aaa	0.07033284
27	0x3dcf00f0	0.10107601
28	0x3bae5a13	0.0053207963
29	0x398505ed	0.00025372152
30	0x3debde49	0.11517007
31	0x3d8e2053	0.06939759

net.2.weight f4 [32, 32]
0	0x3e2c05b8	0.16799057
1	0x3de6a7eb	0.112624966
2	0x3dedc3ba	0.116095975
3	0x3dc5ea51	0.09663833
4	0x3e1b0919	0.15140189
5	0xbddb811f	-0.10717987
6	0xbdda43fd	-0.10657499
7	0xbd11a075	-0.035553414
8	0xbdbb64ff	-0.09150123
9	0xbe464fc8	-0.19366372
10	0xbdff81b0	-0.12475908
11	0x3d3efb8c	0.046626613
12	0x3e2c582a	0.16830507
13	0xbe15eab3	-0.14640312
14	0x3c1a0bc4	0.009402219
15	0x3d9c8cb7	0.07644027
16	0x3d85986e	0.06523214
17	0x3d3826fe	0.04495906
18	0xbcfd5932	-0.03092632
19	0x3dc8fcda	0.098138526
20	0x3e02c8f5	0.12771972
21	0x3ddd4d97	0.10805815
22	0xbd8bd8f0	-0.06828487
23	0x3d9126eb	0.07087501
24	0x3d89b522	0.067240015
25	0x3e075a21	0.13217975
26	0x3df2e4d3	0.11860051
27	0xbe359b0f	-0.17734931
28	0x3d177e3a	0.036985613
29	0x3dc38982	0.09547712
30	0xbd2c0584	-0.041997448
31	0x3e1c0f5a	0.15240231
32	0xbd961710	-0.073286176
33	0xbd1f02f8	-0.03882119
34	0x3b4778d2	0.0030437005
35	0x3e287e10	0.16454339
36	0xbd994163	-0.07483175
37	0xbdec7cbd	-0.115472294
38	0x3d069013	0.032852244
39	0x3de5f3f0	0.11228168
40	0x3d25836d	0.04040854
41	0xbd3f99a6	-0.04677739
42	0x3e055f3b	0.13024609
43	0x3db99e7a	0.0906343
44	0xbd8b27c2	-0.067946926
45	0xbd14d8ae	-0.036339454
46	0x3e1a1569	0.1504723
47	0xbdb8c4e9	-0.09021933
48	0x3dab1eba	0.0835547
49	0xbe1ec7ca	-0.15505901
50	0xbd8d7558	-0.06907147
51	0xbe0d84e7	-0.1382023
52	0x3c8d948b	0.017282745
53	0x3ddf55ac	0.109050125
54	0xbc755d27	-0.0149758225
55	0xbe3d9a74	-0.1851595
56	0x3d9c04af	0.07618081
57	0x3d1b08a4	0.037850037
58	0xbe3c9213	-0.18415098
59	0x3ce529e0	0.02797407
60	0x3e087aa7	0.13328038
61	0x3b98ba60	0.0046608895
62	0x3ce2b9fe	0.027676579
63	0xbe0981da	-0.1342844
64	0xbdd28506	-0.102792785
65	0x3d6e0d09	0.0581179
66	0xbde6d1c8	-0.11270481
67	0xbdd3d7f4	-0.10343924
68	0xbdc25397	-0.094886
69	0x3ddc60ee	0.10760675
70	0x3e04a708	0.12954342
71	0xbe3335d7	-0.17501007
72	0xbdc777f3	-0.097396754
73	0x3de963e5	0.113960065
74	0x3ccee89c	0.025257401
75	0x3b0d37f8	0.0021548253
76	0x3d20eb04	0.03928663
77	0x3e2777d9	0.16354312
78	0xbd93e6b7	-0.0722174
79	0x3dd7738a	0.10520084
80	0x3d8965d4	0.06708875
81	0x3de6e25b	0.11273643
82	0xbe2c343a	-0.16816798
83	0x3d4e1dd7	0.050321426
84	0xbe1c5823	-0.15267996
85	0x3dcf6667	0.101269536
86	0xbd59d34f	-0.053180035
87	0xbe1ccb41	-0.1531191
88	0x3e149263	0.14508967
89	0x3dae41d5	0.0850865
90	0xbe1942d2	-0.14966896
91	0xbe06bf34	-0.13158876
92	0x3e2b83b7	0.16749464
93	0xbca66b4e	-0.020314839
94	0x3e2f2768	0.17104876
95	0x3ccec3d3	0.02523986
96	0x3e25f677	0.162073
97	0xbe247627	-0.16060697
98	0x3d92a9ac	0.071612686
99	0xbe1af020	-0.15130663
100	0x3c8deaa2	0.017323796
101	0xbe1e78e3	-0.15475802
102	0x3e6afc39	0.22947778
103	0xbdc73bf9	-0.09728236
104	0x3e1fe41a	0.15614358
105	0x3e1ba830	0.15200877
106	0x3de69bc7	0.11260181
107	0x3e081532	0.13289335
108	0x3e69729d	0.22797628
109	0x3d858c8e	0.06520949
110	0x3e8318ff	0.25605008
111	0xbc9e3afc	-0.019315235
112	0x3e88a243	0.26686296
113	0xbd9c12cc	-0.07620773
114	0x3d7d9be1	0.061916236
115	0x3e7d7081	0.24749948
116	0x3e81702b	0.2528089
117	0x3e083925	0.13303049
118	0x3daa783f	0.08323716
119	0x3e6b9351	0.23005415
120	0x3e4c6363	0.19959788
121	0x3d5f187e	0.054466717
122	0x3dde65ea	0.10859282
123	0x3e2273b2	0.15864447
124	0xbe0274fc	-0.12739938
125	0x3d8da6dd	0.06916592
126	0xbc2656a0	-0.010152489
127	0x3ce4fc31	0.027952285
128	0x3e623295	0.22089608
129	0x3ca45e05	0.020064363
130	0x3e0887fe	0.13333127
131	0x3bdfc841	0.006829292
132	0x3d7daf84	0.061934963
133	0x3bde26c2	0.0067795226
134	0x3e33e549	0.17567934
135	0xbc1adf9f	-0.0094527295
136	0x3e16ba98	0.14719617
137	0xbdc3fdf6	-0.095699236
138	0x3e7c949e	0.24666068
139	0x3e60ebea	0.21964994
140	0x3e326f28	0.17425215
141	0xbdbeb540	-0.093119144
142	0x3e47ccdf	0.19511746
143	0xbd4fe5c9	-0.05075625
144	0x3cfdce6d	0.03098222
145	0x3e01c3f8	0.12672412
146	0x3db6c6bb	0.089246236
147	0x3e7d4422	0.24733022
148	0xbd27835f	-0.04089677
149	0x3e31576b	0.17318504
150	0x3e19ad4f	0.15007518
151	0x3e496591	0.19667651
152	0xbcac0a7a	-0.02100109
153	0xbc08ced4	-0.008350093
154	0x3d33a33f	0.043856855
155	0x3e433dd5	0.19066556
156	0xbe063032	-0.13104323
157	0x3d883f5d	0.066527106
158	0x3e783e2d	0.24242468
159	0x3aa9d537	0.001295722
160	0x3d5c5f2f	0.05380171
161	0x3d03a67c	0.032141194
162	0x3c0bd327	0.008534229
163	0x3e1ea003	0.15490727
164	0x3da5bb60	0.080923796
165	0x3dcffb97	0.10155409
166	0x3dd26729	0.102735825
167	0xbda14859	-0.07875127
168	0xbdd0feb2	-0.10204829
169	0x3de151e3	0.11001947
170	0xbdc3dbf6	-0.095634386
171	0x3e48fcec	0.19627732
172	0xbd92f0e1	-0.0717485
173	0x3daf05bb	0.08546015
174	0x3dd15a38	0.10222286
175	0xbe36f814	-0.17868072
176	0x3e3db92f	0.18527673
177	0x3ca63497	0.020288749
178	0xbcc78cee	-0.024359193
179	0x3b7d6fa6	0.0038671284
180	0x3c2c7299	0.010525369
181	0x3da6862a	0.081310585
182	0x3cc77883	0.024349457
183	0xbdb21617	-0.086956196
184	0x3dab7465	0.0837181
185	0x3e438ee6	0.1909748
186	0xbe1669fa	-0.14688864
187	0x3df9d152	0.12198128
188	0xbe35b05d	-0.17743059
189	0xbd355949	-0.044274602
190	0x3d5f803c	0.054565653
191	0x3e5d18dd	0.21591516
192	0xbe0d8ac0	-0.1382246
193	0xbe1f8847	-0.1557933
194	0x3e2561c9	0.16150583
195	0x3dcda602	0.10041429
196	0x3e244304	0.1604119
197	0x3dc55fdd	0.09637425
198	0x3d0aec37	0.03391668
199	0xbe0d3906	-0.13791284
200	0x3c9f8ac1	0.019475343
201	0x3d439103	0.047745716
202	0x3ddf312c	0.10898051
203	0xbde450cf	-0.111482255
204	0x3d948db7	0.072535925
205	0x3c6611f5	0.014042367
206	0xbb243d85	-0.0025061083
207	0xbe31b59c	-0.17354435
208	0xbdfb1a24	-0.12260845
209	0xbe1bd140	-0.15216541
210	0xbe2c55c3	-0.1682959
211	0xbccd0c62	-0.025030319
212	0xbe1e19de	-0.15439555
213	0xbe0b4afe	-0.13602826
214	0x3cda265a	0.026629616
215	0xbd1b7163	-0.03794993
216	0x3dc3c004	0.095581084
217	0xbd8dbd4e	-0.06920873
218	0xbe027299	-0.12739028
219	0x3dabb7e2	0.08384682
220	0x3c9ef1e2	0.019402448
221	0x3d60b290	0.05485779
222	0x3d9e740e	0.077369794
223	0xbe0556ae	-0.13021347
224	0x3dfd3754	0.123640686
225	0xbdb112e3	-0.086461805
226	0xbcc6c56f	-0.024264066
227	0x3da39a6d	0.07988439
228	0xbd83e018	-0.06439227
229	0xbd10da24	-0.035364285
230	0xbcedf6aa	-0.029048283
231	0xbe5177b0	-0.20455813
232	0x3e10685a	0.14102307
233	0x3daa6e77	0.08321851
234	0x3e24f032	0.16107252
235	0xbe32bfaf	-0.17455934
236	0x3e22b1f5	0.15888198
237	0xbda26255	-0.079289116
238	0x3cf7ccac	0.030248962
239	0xbcc80fbc	-0.024421565
240	0x3e1a4b45	0.15067776
241	0xbdf166cd	-0.11787186
242	0xbe020523	-0.12697272
243	0x3e374cf6	0.17900452
244	0x3e2be1bc	0.1678533
245	0x3e17584e	0.1477978
246	0x3e0560d5	0.1302522
247	0x3de9b6e8	0.1141184
248	0xbe2d9c9e	-0.16954276
249	0x3e201aee	0.15635273
250	0xbd84b532	-0.06479873
251	0xbd8e7d36	-0.06957476
252	0xbe17203f	-0.14758395
253	0x3d300d44	0.0429814
254	0xbd98589d	-0.07438777
255	0xbe06a8d3	-0.13150339

net.2.bias f4 [32]
0	0x3d7a1e13	0.061063837
1	0xbdef697a	-0.1169004
2	0xbc9ed3a6	-0.019388031
3	0x3e41576e	0.18881008
4	0xbdce9e14	-0.10088745
5	0x3ce31406	0.027719509
6	0xbd1131b2	-0.035447784
7	0xbe0e7f13	-0.13915662
8	0xbda3e91d	-0.08003447
9	0x3da3d650	0.07999861
10	0x3d111feb	0.03543083
11	0x3d23ba09	0.03997234
12	0xbdb3a28e	-0.08771239
13	0x3e014b54	0.12626392
14	0x3e064d0f	0.13115333
15	0xbe43246c	-0.19056863
16	0x3c51e530	0.01281099
17	0x3e0254a9	0.12727608
18	0x3dcdc50f	0.100473516
19	0xbdf6aeca	-0.12045057
20	0xbde0214f	-0.10943853
21	0x3d592af7	0.05301949
22	0x3e0b87dc	0.13626045
23	0x3e188d7f	0.14897726
24	0xbcc5625c	-0.024094753
25	0x3dadd6a2	0.084882036
26	0x3ddf9bf8	0.109184206
27	0xbcfef25d	-0.031121427
28	0x3e04aff4	0.12957746
29	0x3d20a919	0.039223764
30	0x3b936587	0.004498187
31	0xbdc9e28a	-0.09857662

net.4.weight f4 [344, 32]
0	0x3de8f681	0.11375142
1	0x3e0dc6bf	0.13845347
2	0x3d00a2b6	0.031405173
3	0xbddb20a5	-0.10699586
4	0xbe162fdc	-0.14666694
5	0x3e161f06	0.14660272
6	0x3e238ee9	0.15972485
7	0x3e1f1b4d	0.15537758
8	0xbdc3bf49	-0.09557969
9	0x3e249a4e	0.16074488
10	0x3e33ddfe	0.17565152
11	0x3da038ba	0.0782332
12	0x3e0312af	0.12800096
13	0xbbdc148b	-0.006716316
14	0xbd436d7e	-0.04771184
15	0x3dda3995	0.10655514
16	0xbdc7b8e7	-0.09752064
17	0x3d9d78f8	0.076890886
18	0x3b5b6d4b	0.0033481892
19	0xbdc7a05a	-0.097473815
20	0x3e3a3507	0.18184291
21	0xbe18b960	-0.14914465
22	0x3e07cab3	0.13260917
23	0x3de714cf	0.11283266
24	0xbe02f76a	-0.12789693
25	0xbc1d1771	-0.009588108
26	0x3e1a8b00	0.15092087
27	0x3caf718e	0.021416452
28	0x3ddaa1c8	0.106753886
29	0x3e208156	0.15674338
30	0x3de0684d	0.10957394
31	0x3b1611d3	0.0022898808
32	0x3d87b079	0.06625456
33	0x3e18908e	0.14898893
34	0xbe0e5452	-0.13899353
35	0x3d29016b	0.041261118
36	0xbde73a65	-0.11290435
37	0xbd8ec355	-0.069708504
38	0xbd8354da	-0.064126685
39	0xbda6b456	-0.08139865
40	0xbe1ea939	-0.15494241
41	0xbdd687d4	-0.10475126
42	0xbde0780a	-0.10960396
43	0xbd606af3	-0.054789495
44	0x3e15a2f3	0.14612941
45	0xbd9868ae	-0.07441841
46	0x3e03d4c6	0.12874135
47	0xbd906b03	-0.07051661
48	0xbddd4d1e	-0.108057246
49	0xbc1f08d4	-0.009706695
50	0x3dd3110a	0.10305984
51	0xbdf71346	-0.12064223
52	0xbd955e3a	-0.07293363
53	0xbe0879c9	-0.13327707
54	0x3d1dfb9d	0.038570035
55	0x3dfc6d59	0.12325544
56	0x3d81e6e1	0.06342865
57	0x3d431789	0.047629867
58	0xbdd044ed	-0.101693965
59	0x3e2f437f	0.17115591
60	0x3dd7d11e	0.10537933
61	0x3cdbcc48	0.026830807
62	0x3ba746ea	0.005104889
63	0xbe32a084	-0.17444044
64	0x3d99330a	0.07480438
65	0xbd46c79f	-0.048530217
66	0xbd1b4cb5	-0.03791495
67	0xbd4277cc	-0.04747753
68	0x3ba27bb6	0.004958595
69	0xbde69e7c	-0.11260697
70	0xbcb49eb6	-0.022048336
71	0x3bb0ad1e	0.005391731
72	0xbd89e4eb	-0.06733116
73	0x3daeaa09	0.085285254
74	0x3dd25420	0.10269952
75	0x3ded3fdd	0.115844466
76	0xbd7065ea	-0.058690943
77	0xbc9529a9	-0.018208342
78	0xbd22abab	-0.039714497
79	0xbdf8d1cb	-0.1214939
80	0x3da0fcd7	0.078607254
81	0xbc9ed2ed	-0.019387687
82	0x3dcd9200	0.10037613
83	0x3d2467b0	0.040137947
84	0x3d9ce757	0.07661312
85	0xbdfd5dd3	-0.12371411
86	0x3b5f997c	0.0034118583
87	0x3dc1c4de	0.094613776
88	0xbe293ee3	-0.16527896
89	0xbce6ce12	-0.028174434
90	0xbdb0e105	-0.08636669
91	0xbe0ae5a4	-0.13564163
92	0xbe1347c0	-0.14382839
93	0x3e258f5d	0.1616797
94	0xbdec1159	-0.11526746
95	0x3e06f534	0.13179475
96	0xbdc3d037	-0.09561198
97	0xbdf80e53	-0.12112107
98	0x3c00bf0b	0.007858048
99	0xbe01c39a	-0.12672272
100	0x3d7ea75d	0.06217133
101	0xbe04aaf7	-0.12955843
102	0xbdc19107	-0.0945149
103	0xbc8a7bdc	-0.016904764
104	0xbdb46aa4	-0.088094026
105	0x3dfd7740	0.12376261
106	0xbdaf4886	-0.085587546
107	0xbcddccc6	-0.027075183
108	0x3d5d6ee0	0.054060817
109	0x3bdfb517	0.0068270075
110	0x3e0e1a91	0.13877322
111	0xbdbe707a	-0.09298797
112	0x3d2409fb	0.04004858
113	0x3e2d9f3c	0.16955274
114	0x3e303b94	0.17210227
115	0xbe19bbcd	-0.15013047
116	0x3a1649df	0.00057330535
117	0x3c768357	0.015045962
118	0x3d8a070f	0.067396276
119	0xbda4a731	-0.08039702
120	0xbb92fca2	-0.0044856826
121	0x3de87026	0.113495156
122	0x3e24a6e8	0.16079295
123	0x3e2acd2c	0.1667983
124	0x3e25938d	0.16169567
125	0x3e00b216	0.12567934
126	0xbdda4210	-0.10657132
127	0x3e02fe54	0.12792331
128	0xbe331b75	-0.17490943
129	0xbe255897	-0.16147076
130	0xbdb89ab1	-0.0901388
131	0xbda022ef	-0.07819163
132	0x3d6e921c	0.05824481
133	0x3e1a92f3	0.15095119
134	0xbc98f22a	-0.01867016
135	0x3b61f857	0.0034480297
136	0xbda31bb7	-0.079642706
137	0x3b1a327a	0.0023528622
138	0x3d3f1b7f	0.04665708
139	0x3dcf5231	0.10123099
140	0x3c2f3c70	0.010695562
141	0xbd604b1a	-0.054759122
142	0xbdc3df61	-0.095640905
143	0xbddc0d8e	-0.10744773
144	0xbe273a3e	-0.16330811
145	0x3b878d76	0.0041367365
146	0x3df510ad	0.11966071
147	0xbe2e9f7a	-0.17053023
148	0x3e02cfab	0.12774532
149	0xbc7e7f13	-0.015533227
150	0x3e109dcb	0.14122693
151	0xbdfc6234	-0.12323418
152	0x3de43391	0.11142648
153	0xbdc618d4	-0.09672704
154	0x3dc8b6fd	0.09800527
155	0xbd49c5b5	-0.049260814
156	0x3ddae1d3	0.10687604
157	0xbe31a751	-0.17348982
158	0xbc1ce017	-0.009574912
159	0x3e021fa0	0.12707376
160	0xbdfaf03c	-0.12252852
161	0xbd4b051e	-0.049565427
162	0x3d78dff0	0.06076044
163	0x3d28885f	0.04114568
164	0xbe08dd8d	-0.13365765
165	0xbd94bece	-0.072629556
166	0x3e0c9065	0.13726957
167	0xbd34a6d8	-0.044104427
168	0xbadec4a7	-0.0016995863
169	0x3cc23fba	0.023712028
170	0xbda9278c	-0.08259496
171	0x3dfc57d7	0.123214416
172	0xbdb796e4	-0.08964327
173	0xbe076345	-0.13221462
174	0xbd8227de	-0.0635526
175	0x3dd33013	0.10311904
176	0x3d9c82a4	0.07642105
177	0xbe2259a1	-0.15854503
178	0x3e28a634	0.16469651
179	0x3e0b427b	0.13599579
180	0xbd643d6d	-0.055722643
181	0xbdfa8917	-0.12233179
182	0xbcb4d39b	-0.022073558
183	0xbb1e479d	-0.0024151572
184	0xbe14c49e	-0.14528129
185	0x3e2ecddc	0.17070717
186	0x3d3a181f	0.04543316
187	0x3db76b9f	0.08956074
188	0xbe24ca63	-0.1609283
189	0x3d44ad53	0.048016857
190	0x3d059505	0.03261282
191	0x3e06b8fb	0.13156502
192	0x3df4f083	0.119599365
193	0xbe144059	-0.14477672
194	0xbe2e9d4e	-0.17052194
195	0xbe2aefac	-0.1669299
196	0x3d9722a9	0.07379658
197	0x3e034f56	0.12823233
198	0x3dbda618	0.092601955
199	0x3e051d66	0.12999496
200	0xbe213efb	-0.15746681
201	0x3caffe96	0.0214837
202	0xbe29d73a	-0.16586009
203	0x3d128603	0.035772335
204	0x3e2cdc59	0.16880931
205	0xbdb40890	-0.08790696
206	0xbd8aee1d	-0.06783698
207	0x3ddac0e7	0.106813245
208	0xbe25f73b	-0.16207592
209	0x3d4bc9b2	0.0497529
210	0x3e193e7c	0.14965242
211	0xbda99bf8	-0.08281702
212	0x3d8a60b4	0.06756726
213	0x3d0b9ac2	0.034083135
214	0xbc813aea	-0.015775163
215	0xbe31ba42	-0.17356208
216	0xbd6924c1	-0.056919817
217	0xbd1da49a	-0.038487054
218	0x3d46991c	0.04848586
219	0xbe164b4c	-0.14677161
220	0xbde9d5e7	-0.11417752
221	0xbdb5aa7b	-0.08870407
222	0xbe2b12da	-0.1670641
223	0xbe2bcd8b	-0.16777627
224	0x3d24a992	0.040200777
225	0x3e2a0595	0.16603692
226	0xbe1e06ec	-0.15432328
227	0x3d2bbc97	0.0419279
228	0xbddad0b3	-0.106843375
229	0xba078155	-0.0005169113
230	0x3e20f79f	0.1571946
231	0x3cb732f7	0.02236317
232	0xbe0ccc03	-0.137497
233	0x3c82120e	0.01587775
234	0x3d38587a	0.045006253
235	0x3d9b94c7	0.075967364
236	0x3cdab870	0.026699275
237	0x3dc755aa	0.09733136
238	0x3e046ccd	0.12932129
239	0x3e000f96	0.12505946
240	0xbc03eaf4	-0.008051623
241	0x3e0fc7ab	0.14041011
242	0x3df45bb2	0.11931552
243	0x3d35cd04	0.04438497
244	0xbde716cc	-0.11283645
245	0xbdc5ce4f	-0.09658491
246	0xbd827d78	-0.063715875
247	0x3d87ce37	0.06631129
248	0x3da869b5	0.08223287
249	0x3cda50e7	0.026649905
250	0xbe1bfd5a	-0.15233365
251	0x3e1230a6	0.1427637
252	0x3d976679	0.07392592
253	0x3b947725	0.0045308047
254	0x3d93d88d	0.07219038
255	0xbc917280	-0.017754793

net.4.bias f4 [344]
0	0xbe131ee9	-0.1436726
1	0x3db939e5	0.09044246
2	0xbdd83558	-0.105570495
3	0xbda00703	-0.078138374
4	0x3e2a2ae1	0.1661792
5	0x3d9a5c00	0.07537079
6	0xbdce32e9	-0.10068304
7	0xbdb5435a	-0.08850737
8	0xbdb3e607	-0.087841086
9	0x3d4e4c27	0.050365593
10	0x3d17fc5e	0.03710591
11	0x3d09965e	0.033590667
12	0xbd295d6b	-0.041348856
13	0xbdfca458	-0.123360336
14	0xbe08783c	-0.13327116
15	0x3d3f5735	0.046714026
16	0x3d1c5e4d	0.03817587
17	0xbc7014f5	-0.014653434
18	0x3e070092	0.13183811
19	0xbe25b6bc	-0.16182989
20	0xbdee8ac7	-0.116475634
21	0x3d3cbae6	0.046076678
22	0x3d5917f1	0.053001348
23	0xbdd78200	-0.105228424
24	0xbe422729	-0.18960251
25	0xbd918efd	-0.07107351
26	0xbd19adfe	-0.037519448
27	0xbda08829	-0.078384705
28	0x3d5195ec	0.051168367
29	0x3db3e077	0.08783048
30	0x3da089bc	0.07838771
31	0xbe26f99c	-0.16306156
32	0x3ca20b14	0.019780673
33	0xbd6f44d0	-0.058415234
34	0x3d9d6b02	0.07686426
35	0xbe8d582e	-0.27606338
36	0x3d42f136	0.047593318
37	0x3e1e56f5	0.15462859
38	0x3d079aab	0.033106487
39	0x3e15d742	0.14632896
40	0x3e174465	0.14772184
41	0x3e06b758	0.13155878
42	0xbe19494d	-0.14969368
43	0xbcc854ea	-0.024454553
44	0xbded5264	-0.115879804
45	0xbd1f9933	-0.03896446
46	0xbdc5a8ff	-0.09651374
47	0x3dea30ec	0.11435112
48	0xbdb67438	-0.08908886
49	0x3d30d9b1	0.043176357
50	0xbd41f5c1	-0.04735351
51	0xbdd7788d	-0.1052104
52	0xbd072569	-0.03299466
53	0xbc53c39b	-0.012925054
54	0x3e2717fa	0.1631774
55	0xbe0da4f4	-0.13832456
56	0xbd1d4ecc	-0.038405225
57	0xbd3223f6	-0.043491326
58	0x3dfc211e	0.12311004
59	0x3e320e36	0.17388234
60	0xbe0b6397	-0.1361221
61	0xbdadb4eb	-0.08481773
62	0xbe1d0eff	-0.15337752
63	0x3df96b9f	0.1217873
64	0x3ab9f8eb	0.0014188563
65	0xb9d04ebc	-0.00039731513
66	0x3cce28ba	0.025165904
67	0xbd4378ef	-0.047722753
68	0x3de86281	0.11346913
69	0x3e1207c9	0.14260782
70	0xbd08cd5e	-0.03339898
71	0x3db037b7	0.08604377
72	0x3e251783	0.1612225
73	0xbe2ad658	-0.16683328
74	0x3ccc7554	0.02495829
75	0x3d44153b	0.04787181
76	0xbdb8f504	-0.09031108
77	0xbe0d0c49	-0.13774218
78	0xbd6a020f	-0.05713087
79	0x3e4d7a3d	0.20066161
80	0xbd8827e9	-0.06648237
81	0x3c492ba7	0.012278474
82	0xbd812e42	-0.06307651
83	0xbe00f083	-0.12591748
84	0xbcc9aa8d	-0.024617458
85	0x3d49930e	0.049212508
86	0xbc695b20	-0.014242917
87	0x3cf95931	0.030438038
88	0xbd8f2648	-0.069897234
89	0xbd16e341	-0.03683782
90	0xbc70e553	-0.014703113
91	0x3e29a708	0.16567624
92	0xbe1a4143	-0.15063958
93	0x3b9a3576	0.00470608
94	0x3dbfecc4	0.09371331
95	0x3ca71664	0.020396419
96	0xbdd50139	-0.10400624
97	0x3e11d26f	0.1424043
98	0xbb95e28e	-0.0045741266
99	0xbcd39880	-0.025829554
100	0xbd287215	-0.041124422
101	0x3c1d66f9	0.00960707
102	0xbc8a4a32	-0.016881082
103	0xbdc4e617	-0.09614199
104	0x3d983d25	0.074335374
105	0xbd7d9ee3	-0.061919104
106	0x3bce6985	0.0062992
107	0x3e03513d	0.12823959
108	0xbe0b2b3e	-0.13590714
109	0x3decd4c8	0.11564022
110	0x3e240f82	0.16021541
111	0x3d0e4716	0.03473576
112	0xbe1e0d24	-0.154347
113	0xbde1865b	-0.110119544
114	0x3da0db38	0.07854313
115	0x3cae1631	0.021250816
116	0xbd84ae4a	-0.064785555
117	0x3d9a7801	0.0754242
118	0xbe115c86	-0.14195451
119	0x3df1d4d0	0.11808169
120	0xbd3fcb8e	-0.046824984
121	0x3e1bb2df	0.15204953
122	0xbd6e50e5	-0.058182616
123	0xbde6ef2f	-0.112760894
124	0xbd9c16ee	-0.07621561
125	0xbd4fcb23	-0.050730836
126	0xbe287e47	-0.16454421
127	0x3db75416	0.08951585
128	0x3de1479c	0.109999865
129	0x3de0efbe	0.10983227
130	0xbda7b4dc	-0.08188793
131	0xbd29e254	-0.04147561
132	0x3c92be44	0.017912991
133	0xbd3096b1	-0.04311246
134	0x3e2886f8	0.16457736
135	0xbd47c4b2	-0.048771568
136	0x3e09cdcd	0.13457413
137	0x3dd7d332	0.10538329
138	0x3db029f7	0.08601754
139	0x3e2c5d14	0.16832381
140	0xbde27470	-0.11057365
141	0x3deff4d1	0.11716617
142	0x3caa33ee	0.020776715
143	0xbe04a1ec	-0.12952393
144	0xbd352ce3	-0.04423226
145	0x3dc80926	0.0976737
146	0x3e2cd835	0.16879351
147	0x3db164ab	0.08661779
148	0x3dcabc20	0.09899163
149	0xbe0ef3d8	-0.13960207
150	0xbd7ced12	-0.061749525
151	0x3e343e6a	0.17601934
152	0xbd5e4a69	-0.05427018
153	0x3d501fd1	0.050811592
154	0x3df4dcfa	0.119562104
155	0xbdb8af87	-0.09017854
156	0x3d32caa6	0.04365029
157	0x3e315b3b	0.17319958
158	0x3e098544	0.13429743
159	0xbdc409d4	-0.09572187
160	0x3e083214	0.13300353
161	0xbc35eabf	-0.011103331
162	0xbb7e05ec	-0.0038760854
163	0x3d9a7d02	0.075433746
164	0x3dfc6887	0.123246245
165	0xbdc1745d	-0.09446023
166	0x3d4e6859	0.050392482
167	0xbcf2a0aa	-0.029617626
168	0xbe20fbea	-0.15721098
169	0x3e337517	0.17525135
170	0x3e1d4f15	0.15362199
171	0x3b1ddff4	0.0024089785
172	0xbc8862a6	-0.016648602
173	0x3e116228	0.141976
174	0x3e177923	0.14792304
175	0x3dec55f5	0.115398325
176	0xbd40db50	-0.047084153
177	0xbdab3571	-0.083598025
178	0x3d6fc9c5	0.05854203
179	0x3c75b5be	0.014996944
180	0xbdfd8493	-0.12378802
181	0x3dc724d7	0.097238235
182	0x3d0793af	0.033099826
183	0x3bdc6a5c	0.006726546
184	0x3dca5d82	0.098811164
185	0x3e1a4ab5	0.15067561
186	0xbe298451	-0.16554381
187	0xbcaeae59	-0.02132337
188	0x3d37d4e4	0.044880763
189	0xbdcba2e4	-0.09943178
190	0x3c33465d	0.010942069
191	0xbdefcb51	-0.117087014
192	0xbd6debfb	-0.058086377
193	0xbd98b327	-0.074560456
194	0x3d9aac7f	0.07552432
195	0xbd3d1354	-0.04616101
196	0x3cafe020	0.021469176
197	0x3d8d7644	0.06907323
198	0xbe2abdae	-0.1667392
199	0xbda98b99	-0.08278579
200	0x3e3238f9	0.17404546
201	0x3dc4e609	0.09614188
202	0x3e3ac843	0.18240456
203	0xbe1683a4	-0.14698654
204	0x3c89d129	0.016823368
205	0xbe20eefa	-0.15716162
206	0x3e044414	0.12916595
207	0x3e0c9274	0.13727742
208	0x3e3ab41f	0.18232773
209	0x3c9212a3	0.017831152
210	0x3e286e19	0.16448249
211	0xbdd2b6b2	-0.102887526
212	0x3dd65f4a	0.10467394
213	0x3de5e157	0.11224621
214	0x3da1b4c0	0.078958035
215	0xbd559d83	-0.052152168
216	0xbd95047a	-0.072762445
217	0x3bd8d5a9	0.006617267
218	0x3e3bd86f	0.18344282
219	0xbe2ca3c9	-0.16859354
220	0x3e2f98e2	0.17148164
221	0x3e3acd48	0.18242371
222	0xbc09c65c	-0.008409109
223	0xbe00178c	-0.12508982
224	0x3da36934	0.0797905
225	0x3df5b6be	0.11997746
226	0x3d9e2295	0.0772144
227	0x3e01b978	0.12668407
228	0x3ca173c6	0.019708525
229	0xbe20869f	-0.15676354
230	0xbdcafbf1	-0.09911335
231	0x3da8f5c9	0.08250005
232	0x3ca67eb9	0.020324098
233	0x3c415749	0.011800596
234	0xbca852fb	-0.02054738
235	0x3df7238f	0.12067329
236	0xbdc3e8f0	-0.09565914
237	0x3d9ab546	0.075541064
238	0x3db0754a	0.08616121
239	0x3d87a78f	0.06623756
240	0x3d3cd30c	0.046099707
241	0x3c8e65ef	0.01738259
242	0x3d361e47	0.04446247
243	0x3d51052b	0.05103032
244	0xbdc9c6d7	-0.09852379
245	0xbdae0104	-0.084962875
246	0x3dee3b2e	0.116323814
247	0xbd22b0ef	-0.03971952
248	0xbdb90974	-0.09035006
249	0xbd91f0f4	-0.07126036
250	0x3d94a475	0.0725793
251	0x3e0a49a7	0.13504659
252	0x3dc1497c	0.09437844
253	0x3d9bc67b	0.076062165
254	0x3d63aa9e	0.055582635
255	0x3e199f5f	0.15002201
