solitaire/good checkpoints/dqn_sl_checkpoint.pth.tar (torch, 388619 bytes, 8 tensors)

conv1.weight f4 [32, 65, 5, 5]
00000000: 96f6 b43c f562 acbc c879 cbbb e0c4 683a
00000010: f060 623b 6039 463b 848c 153c c087 94b9
00000020: f682 66bc 98f4 b53c 206d 88ba 507f 653c
00000030: 2ce0 eabb c9a0 b3bc 143a 683c c373 b4bc
00000040: 962b a7bc 8002 77b9 9031 5cbb ff2d 69bc
00000050: dce3 b03c 5274 16bc da36 813c f685 57bc
00000060: 4c6a b13b 90c5 9bbb 1838 663c 8b2a b6bb
00000070: 5b10 a0bc 26b3 8d3c f3de a5bc f18a a1bc
00000080: dc2a bebb 32b3 993c 34bc b13b 6858 f33b
00000090: c5cc 93bc f8f5 863c b8ee 623c 606e 62bc
000000a0: 528f a93c 7c98 af3c 7c79 0fbc f89a 58bb
000000b0: 6a78 943c 7164 a5bc 4066 3c3c fcde b1bc
000000c0: c0ad b2b9 1a97 893c 0458 763c deed bbbc
000000d0: f06b a3ba 0e7f 15bc a883 c6bb 6086 833b
000000e0: bf7b 1cbc 9438 92bc e4ea b33b c9ce 56bc
000000f0: 9ebb 35bc 523e 893c 984b 863b 2a1b a53c
00000100: e63a a8bc 183e 5e3c 636f 64bc 540b a43c
00000110: c861 8f3c 48dc d63b de0e ac3c 787e 9b3b
00000120: c009 653c 788b 9fbb 30ed 90bb dcf0 353c
00000130: 9fd5 68bc b3c4 033c eca7 93bc f604 183c
00000140: 0487 b63b 5017 ba3b ec57 c83b c051 fd3b
00000150: e45d babb b019 123c 80db bc3b f1f1 abbc
00000160: 50f2 1d3c 0bac b83c c745 9cbc 5066 39bc
00000170: 24e2 92bc 4040 b83b cea9 a93c 7481 933c
00000180: 50af e93a 86b7 89bc 9a40 a0bc 945e 2d3c
00000190: 40e9 b0b9 e807 843b 686c 4d3b 4051 313b
000001a0: 5e5c 11bc 18d3 fe3b e0df e1bb 603d ad3c
000001b0: ef2a 82bc 00f1 e439 b83c 4cbb 0083 9cbc
000001c0: c049 563c 6a36 b53c 98ef 843c 25bb bcbc
000001d0: 48b8 5fbb bda1 63bc c133 54bc c0f4 363a
000001e0: d81f 253c e402 97bb 18d2 b1bb eb41 c3bc
000001f0: e630 3abc 394e 2abc 6df7 c0bc b0b1 b43a
00000200: 905d e73b f0a4 f43b 98d4 94bb 2018 f3bb
00000210: c04c 683b 9348 67bc 7881 473c 4597 a4bc
00000220: 0230 be3c d624 80bc c09b 6b3c ec0e a63c
00000230: 6bd7 afbc 44fb 273c 2cfc 82bb 28ee 433b
00000240: 5551 35bc 783f 853b e429 7c3c 3aa6 3ebc
00000250: 3848 4ebb 7cca 3f3c 1ae6 3abc 3ccb b6bb
00000260: 1cd3 f6bb 6037 a2bc ccfe 61bc 1820 07bc
00000270: a5c3 80bc 9c65 48bc 57cd febb c049 8d39
00000280: 8cba d13b 5804 5fbb 4a6c a13c a638 b9bc
00000290: 524b 9cbc 6efe 8a3c 64ba a33c 0ab5 8e3c
000002a0: 6b61 003c 70ce d23a 40ce bbba fc99 2b3c
000002b0: ac6d 953b e8f0 80bc 0ec8 5dbc a0a9 ecba
000002c0: ab57 c5bc e49c 263c 40e6 253c e87c 543b
000002d0: f272 b4bc 0024 bcba bac3 9b3c c3d3 80bc
000002e0: 0603 70bc 5705 22bc 8eb2 14bc 88f6 933c
000002f0: 727b abbc 5471 adbb 7698 833c 9e95 9c3c
00000300: 2038 f4ba 0835 cabb 3431 3f3c 93cf 4abc
00000310: c22a 74bc bc28 4dbc 2088 8f3c d058 723c
00000320: 04fb a13b 10ab 90ba 2ede 86bc 90db 5c3c
00000330: 2cd0 483c 01a9 9fbc a478 a03c 73a9 ff3a
00000340: 28f3 8f3c 0ff1 d53b 060e 98bc 20ba b53c
00000350: 7a60 84bc 2cd5 bd3c 6869 bb3b 18fe 253b
00000360: 1d13 40bc f041 ef3b 2421 0d3c 0997 c7bc
00000370: 0c1d 0f3c 34a9 b73b e852 473c 30ae 7d3c
00000380: d457 dcbb dc4c 82bb 71b4 4ebc e0e0 233b
00000390: 3435 1e3c 3440 b73c 7846 ebbb c4a8 90bc
000003a0: aafc ae3a 205b 41ba 3634 36bc c886 cfbb
000003b0: c406 3cbc 2c5f c6bb 6cf1 febb e0fe 6a3b
000003c0: c862 063b 3d20 a3bc ecc4 0a3c 3258 82bc
000003d0: e736 b7bc a645 cabc 30b3 933c 60ce 4e3c
000003e0: 607d 0f3c 401d c63b f0de 9a3b f2fa 95bc
000003f0: d819 d1bb 041d 1d3c 1045 c13c 4ec5 8c3c
0.022090238 -0.02104328 -0.006209586 0.00088794343 0.0034542643 0.00302466 0.00912774 -0.000283299
-0.014069309 0.022211358 -0.0010408498 0.014007404 -0.0071678367 -0.021927254 0.014174003 -0.022027856
-0.020406526 -0.00023556687 -0.0033598877 -0.014232158 0.021593027 -0.009183006 0.015773226 -0.013154497
0.005414283 -0.004753776 0.01405146 -0.0055592707 -0.019539049 0.017297339 -0.020247912 -0.019719573
-0.005803449 0.018762205 0.005424047 0.0074263103 -0.018041978 0.016474709 0.01385086 -0.013820261
0.020698223 0.021435015 -0.0087569915 -0.0033051353 0.018123824 -0.020189496 0.011498988 -0.021712773
-0.0003408026 0.016795684 0.015035633 -0.022940572 -0.0012468081 -0.0091245305 -0.006058175 0.0040138215
-0.009550988 -0.017849244 0.0054906476 -0.013110825 -0.011092095 0.01675335 0.004098367 0.020154554
-0.020535897 0.013564609 -0.013942572 0.020024933 0.01750268 0.0065570213 0.021003183 0.004745301
0.013979375 -0.004868921 -0.004422806 0.011104789 -0.0142110875 0.008042502 -0.018024407 0.0092785265
0.0055702943 0.0056790486 0.0061139967 0.0077306926 -0.005687462 0.008917257 0.005763471 -0.02098939
0.009640291 0.022542974 -0.019076241 -0.011315897 -0.017930098 0.0056228936 0.020710852 0.018006064
0.0017828736 -0.016811144 -0.019562054 0.010581631 -0.0003374312 0.004029263 0.0031345133 0.0027056485
-0.00887212 0.007776629 -0.006893143 0.02114743 -0.015889613 0.00043667108 -0.003116412 -0.019105434
0.013079107 0.022120673 0.016227528 -0.023038456 -0.003413694 -0.013893542 -0.012951792 0.00069792196
0.010078393 -0.004608499 -0.0054266565 -0.023835143 -0.011364197 -0.010394626 -0.023555482 0.0013785865
0.007060714 0.007465951 -0.0045419447 -0.0074186474 0.0035446137 -0.014116424 0.012176864 -0.020091662
0.023216251 -0.015642565 0.014380395 0.020270787 -0.021465024 0.0102527775 -0.0039973464 0.002989659
-0.011066754 0.004066404 0.015390847 -0.011636311 -0.0031476151 0.011705991 -0.0114074 -0.0055784266
-0.0075324904 -0.019801795 -0.013793658 -0.008247398 -0.01571829 -0.012231257 -0.0077759433 0.00026948564
0.006400412 -0.0034029689 0.019704957 -0.02261002 -0.019078884 0.016967025 0.019986339 0.01742031
0.007835726 0.0016083252 -0.0014328435 0.010473724 0.004560193 -0.015739873 -0.013536466 -0.0018055923
-0.024089655 0.010169242 0.010125697 0.0032423083 -0.022027466 -0.001435399 0.019014228 -0.015725976
-0.014649158 -0.009888968 -0.009075774 0.018061891 -0.020932887 -0.005293051 0.01606391 0.019114312
-0.0018632449 -0.0061708726 0.011669446 -0.012378591 -0.014902772 -0.012521919 0.017520964 0.014791682
0.0049432535 -0.0011037309 -0.016463365 0.013480082 0.012256663 -0.019489767 0.019588776 0.0019505456
0.017572 0.0065289806 -0.018561374 0.022183478 -0.016159285 0.023172937 0.0057193525 0.0025328454
-0.011723307 0.0073015615 0.008613858 -0.024364011 0.008734953 0.0056048874 0.0121657625 0.015483424
-0.006724337 -0.0039764475 -0.012616263 0.0025005862 0.009656239 0.022369482 -0.0071800314 -0.017658599
0.0013350446 -0.00073759444 -0.0111208465 -0.006333206 -0.011476222 -0.006053826 -0.0077802446 0.0035857484
0.0020505656 -0.019912833 0.008469801 -0.015911195 -0.022365047 -0.024691414 0.01802978 0.012622446
0.008757919 0.0060459673 0.0047262833 -0.018308137 -0.0063812546 0.009589437 0.023592502 0.017183926

conv1.bias f4 [32]
00000000: 52be 1ebc 0ffe 3b3c facc a0bc 8490 63bc
00000010: 4a59 06bc 6377 963b e3aa a6bb bdf9 01bc
00000020: 5bcc 4c3b c64b 87bc e7a8 31bb 1e1d 993c
00000030: 5377 203c 9d15 05bc 9a54 293b 364a 4f3c
00000040: 5945 8bbc ef7f ca3c 9c6f bbbb 1511 bebc
00000050: 3965 a3bc 76a8 9a3b 69af cb3b c283 3ebb
00000060: 9382 1939 0a72 45ba 45d8 c8bc 40fc 803c
00000070: 2e01 c9bc b237 aabc 1ede ac3c 7792 b73b
-0.009688931 0.0114741465 -0.01962899 -0.013889436 -0.008199999 0.0045918687 -0.0050862893 -0.007933077
0.0031249735 -0.016515624 -0.002710873 0.018690642 0.009794074 -0.008122829 0.002583778 0.012651971
-0.017000841 0.024719207 -0.005720092 -0.023201505 -0.019945728 0.004719789 0.006215979 -0.0029070233
0.0001463986 -0.0007531947 -0.024517188 0.015745282 -0.024536695 -0.02077851 0.021102007 0.0056021768

bn1.weight f4 [32]
00000000: a731 803f 0ca4 7f3f bd04 7f3f 252c 803f
00000010: 64cc 7f3f eb93 803f e293 7f3f 821b 7f3f
00000020: 4299 803f 9c95 803f 5375 803f a15a 803f
00000030: 7875 7f3f 2690 803f 1d95 803f 0b05 803f
00000040: 6651 7f3f b28f 803f 531e 7f3f 4098 803f
00000050: 1b81 803f 0f46 7f3f c693 803f 1493 803f
00000060: 948a 803f 3301 803f f18c 803f d893 803f
00000070: 5551 803f a555 803f 3b81 803f 2312 803f
1.0015153 0.9985969 0.99616605 1.0013472 0.9992125 1.0045141 0.99835026 0.9965135
1.004677 1.0045657 1.0035805 1.0027658 0.9978862 1.0043991 1.0045506 1.0001539
0.9973358 1.0043852 0.99655646 1.0046463 1.00394 0.99716276 1.0045097 1.0044885
1.0042291 1.0000366 1.0043012 1.0045118 1.002482 1.0026137 1.0039438 1.0005535

bn1.bias f4 [32]
00000000: 7697 3c3a 66ed 27bb e5d8 7dbb 1505 2e3b
00000010: 43c1 a7ba 0b3c 7c3b a6c5 adba a839 78bb
00000020: 6588 803b f28f 7e3b 2bc7 6c3b 06f3 3a3b
00000030: a919 3bbb 2d96 793b 7d55 803b 0438 1bba
00000040: 9774 47bb 7033 7e3b a79a 72bb dafe 803b
00000050: 24bc 7d3b 7924 64bb bcd0 7d3b 54e6 7d3b
00000060: d162 7a3b 3459 ab39 3b0b 7b3b d838 7e3b
00000070: 23a7 3f39 c3f7 a7ba 9e9e 383b 3bc3 39ba
0.00071942003 -0.0025623678 -0.0038734016 0.0026553322 -0.0012798685 0.0038487937 -0.0013257756 -0.0037876163
0.0039225095 0.0038843122 0.0036129456 0.00285262 -0.002854923 0.0038083897 0.003916441 -0.0005921128
-0.0030434483 0.0038787983 -0.003701845 0.0039366307 0.0038716877 -0.0034811778 0.0038729152 0.0038742023
0.0038205872 0.00032682123 0.0038306254 0.0038791206 0.00018277443 -0.0012814928 0.0028170715 -0.00070862815

bn1.running_mean f4 [32]
00000000: 4846 56be 42b2 083e bd2e 67bc 2293 29bd
00000010: 8880 49be a421 70be ddf0 d43d 5fa2 873d
00000020: a000 0c3e 7c7e f7bd 5594 5a3e 0731 51bd
00000030: 1294 273d df2f 33bc 0afd f1bd 944a c2bd
00000040: afa9 c03d 747a 963d 64fb bebd e81f 56be
00000050: 8be0 d8bc 8f11 873d c8fd b0bd daea 513d
00000060: 8b25 ec3d 57fe 483d 7f7a 2d3c 7612 313d
00000070: 35cb 323d eb5e a8be 3c2a 96bd bfb3 0cbe
-0.20925248 0.1334925 -0.014110264 -0.041400082 -0.19677937 -0.23450333 0.103975035 0.06622767
0.13672113 -0.12084672 0.21345647 -0.051072147 0.040912695 -0.010936706 -0.118158415 -0.09486881
0.094073646 0.07347575 -0.09325293 -0.20910609 -0.026474258 0.06595146 -0.08642155 0.051249363
0.11530598 0.049070682 0.010588287 0.043230496 0.043650825 -0.32884917 -0.07332274 -0.13740443

bn1.running_var f4 [32]
00000000: 7c5b 173c 6660 653b 7d54 fc3b 958f 773c
00000010: 9a93 f23c 29cc b63c 08d5 f63c 11aa 033c
00000020: bf1d b83b 90a5 9a3c 2e29 6e3c 54cb 6f3b
00000030: 86e3 a93c 5230 a73b 0c97 db3b f648 923c
00000040: e0a6 df3c 28f6 d33b 1c08 9f3c cbd9 5c3b
00000050: b6ee b13b c834 803c 7445 3e3c 7179 a23b
00000060: 6081 a03b 93d2 1b3c 798c b13b 1871 103d
00000070: 482d d63b a721 f93b da94 773c d258 a43b
0.00923812 0.0035000085 0.0077005015 0.015109916 0.029611398 0.022314148 0.030130878 0.008036152
0.0056187804 0.018877774 0.014536185 0.00365897 0.020738374 0.005102196 0.006701356 0.017857056
0.027301252 0.006468553 0.019413047 0.003369915 0.005430068 0.015650168 0.011613239 0.0049583246
0.004898235 0.009510654 0.005418357 0.035264105 0.0065361597 0.0076028886 0.015111173 0.005015471

head.weight f4 [344, 128]
00000000: d0c6 ffbc c17e 9cbd 1a4c 543c a243 923d
00000010: 8126 04bd 4076 b7bb 7d8e 40bd b29b f43c
00000020: 52b6 96bd 600f bcb8 dbe7 9bbd 4c02 7dbd
00000030: e05e beba dd86 9dbd f063 a03b 2e6c 083c
00000040: 0015 ddba 1aff 343d 6546 3c3d 07d9 73bd
00000050: 81a4 bf3c 777b 4b3c 34b1 ad3d 933c ecbc
00000060: b0a7 fb3b c47a cd3c d103 64bd f674 663d
00000070: 3209 8bbc 2a98 a8bd a6a0 d539 54d3 5f3d
00000080: fb99 233d e222 af3d ac1e e7bc 90be 7f3d
00000090: 0baa fe3c 7130 3f3d 9e85 6b3d 2e9b 55bc
000000a0: 9da3 eb3c df4f 563d 27e5 0abd 3743 a23d
000000b0: 77ac a93d 8979 ddbb c4a1 0f3c 3057 0ebd
000000c0: 0621 1cbd 65a7 81bd 3d8a dcbc b808 31bd
000000d0: a1d2 643d 4d48 1bbd aa95 b33d eee6 2a3c
000000e0: 7f14 383d 9198 a63d f810 52bd aeff 6c3c
000000f0: 673f c53a 2931 58bd 2344 bebc 9565 7e3d
00000100: 0d8a 6bbd 5c37 14bd 35fc 80bb 6884 2fbd
00000110: 078e 4b3d f384 80bd 0b12 b83c aa09 ff3b
00000120: d1fb ffbc 78d1 9abd 72fe 423d 840d 3fbc
00000130: 0f6a 8f3d d7f3 873c 0938 023d 7d14 17bd
00000140: 1858 23bd 9a96 ac3d 48c2 02bd 9755 863d
00000150: 6dc5 ca3c 97a2 26bd c5bf 64bd 9b5e 90bd
00000160: 4315 42bd 02bb 683d 7224 9b3d d233 2e3d
00000170: 0d83 5f3a 602a 8cbc 59e4 2e3d 77a9 243d
00000180: 63eb b63d dec7 3b3c fcf3 1ebd e0b2 6e3c
00000190: 6aba 84bd d82e 2d3d 0a54 a4bc 9b59 dfbc
000001a0: 4014 53bd c878 60bb 8c24 1a3d 0d2a 8a3c
000001b0: d190 6bbd fb33 1cbc 72be 693d f1e6 923d
000001c0: 8070 dd3c 0e05 28bd edba 1f3b 88df 77bd
000001d0: f416 7bbd f80c 7b3c 19f3 3a3d c318 1d3c
000001e0: 3e60 6bbd 4b0e 82bd e437 013d eb51 813d
000001f0: 7a03 64bd de50 6abc c11e 563d 28de 2abd
00000200: 4901 973d 8099 edbb 4aca 8fbd 55eb 4abd
00000210: 725c 93bd 9249 77bd d6b4 0e3d c961 a73d
00000220: cb5e b1bd 5d28 2abd 9050 fe3b 10e5 9cbb
00000230: 98ef b1bc 034a 8b3d fc78 7ebd c811 5e3c
00000240: b6d2 353d 2023 633b 7929 9d3d 5502 aabd
00000250: aa08 233d b370 a2bd 6218 243d b392 1abd
00000260: 9c05 9bbd 7dbd 62bd 86d2 343d b66a 6c3d
00000270: 8fd7 67bd 40dc 73bc 2ca9 adbd 8004 ff3c
00000280: 930c 943d 5f56 08bd cce3 873c 0885 68bc
00000290: d655 003d af62 aebd 6a5e 79bd 801b cb3b
000002a0: 0260 5b3d 397f 03bd 114f 06bd 9ad3 b1bd
000002b0: 7c46 0e3d f65c 7c3d e9ec 55bd b4d2 96bd
000002c0: a0c8 c9bb b681 9fbd 2576 67bd fc55 dd3c
000002d0: 4eef 10bd 0038 fd3b b398 913d 003a 94bc
000002e0: 74dd dbbc 2b71 55bd 76ce 593d 8410 bc3c
000002f0: 30fe 2abc 3adc 303d 67f2 83bd 619b 9dbd
00000300: 1073 2c3c 58cb 84bc 8d30 a43d 3e79 0a3d
00000310: 3845 40bc e832 fa3c 98a6 6dbc 1ff5 8f3d
00000320: 9a8b 2b3d 75ea 3abd 08f4 39bc 34c5 2bbd
00000330: c825 f93c 808b 3f3b 746e 85bd bcab 6ebd
00000340: b1b5 a63d 3064 ea3b 7857 6cbd 108e bebb
00000350: 397a 9abd 707b b43c 6816 aebc e905 953d
00000360: a4bc 9d3c 9c7f d63c e876 b4bc 005c ce39
00000370: d424 963c b851 db3c e0ad 73bc 2402 8abd
00000380: ae8f 413d eb63 29bd bd2a 9c3d b053 b33b
00000390: d89e 923c 40a1 a63b 89d4 813d 9c36 863c
000003a0: 5883 5fbd c392 843d 10f2 dc3c 030a acbd
000003b0: 2a08 303d 9f3f 06bd c8f4 74bc 58da 0a3d
000003c0: d848 9ebd 2b63 0ebd 42ae 1c3d 98a4 aabd
000003d0: d7eb 8d3d a5e2 8dbd 5807 953c 875b 99bd
000003e0: 5418 ec3c 4c11 893c 1116 8f3d 676c 803d
000003f0: 4004 5f3c 900e acbd 5cda b6bc 6aff fdbc
-0.03122273 -0.07641364 0.012957597 0.07141806 -0.032263283 -0.0055988133 -0.047010887 0.029859398
-0.073589936 -8.9674024e-05 -0.07612582 -0.06176977 -0.0014524125 -0.07691739 0.004894726 0.008326573
-0.001686722 0.044188596 0.04596557 -0.059533145 0.023393871 0.012419573 0.084810644 -0.028837478
0.007679902 0.025082953 -0.055667702 0.056263886 -0.016972158 -0.08232148 0.00040746218 0.054644898
0.03994177 0.08551575 -0.028212868 0.062437594 0.031086942 0.046677057 0.057500474 -0.013037486
0.02876454 0.052322265 -0.033909943 0.079229765 0.08284848 -0.006758873 0.008766595 -0.034751117
-0.03811743 -0.06330756 -0.026921386 -0.043221205 0.055864934 -0.03791075 0.087687805 0.0104310345
0.04494142 0.081345685 -0.051285714 0.014465256 0.0015048803 -0.052781258 -0.02322585 0.062108595
-0.057504702 -0.036185607 -0.0039363154 -0.04285088 0.049695995 -0.06275358 0.022469541 0.0077831345
-0.031248005 -0.07559484 0.04760594 -0.011660937 0.07002651 0.016595764 0.03179172 -0.036884774
-0.039878935 0.084271625 -0.031923562 0.06559294 0.024752343 -0.0406824 -0.05584695 -0.070492946
-0.047383558 0.05681897 0.07575311 0.04252989 0.0008526303 -0.01711005 0.042698238 0.040200677
0.08931615 0.011461226 -0.0388069 0.014569014 -0.06480868 0.042281 -0.020059604 -0.027264407
-0.051532984 -0.0034251679 0.03763251 0.016865755 -0.057511155 -0.0095338775 0.05706639 0.07172955
0.027031183 -0.041020446 0.002437289 -0.06051591 -0.061301187 0.015322916 0.045641992 0.009588423
-0.05746483 -0.063503824 0.031547442 0.06314453 -0.055667378 -0.014301507 0.052275423 -0.04171577
0.07373292 -0.0072509646 -0.070210055 -0.049540836 -0.07195367 -0.060372896 0.034840427 0.08172948
-0.086606584 -0.0415424 0.0077610686 -0.0047880486 -0.021720693 0.06801226 -0.0621271 0.013554044
0.044390403 0.0034658387 0.07673926 -0.08301226 0.039803185 -0.07931652 0.040062316 -0.03773756
-0.07569429 -0.05535649 0.044146083 0.057718955 -0.056602057 -0.014884055 -0.084795326 0.031130075
0.07228961 -0.033285495 0.016588114 -0.014191873 0.03133186 -0.08514916 -0.060881056 0.0061983466
0.053558357 -0.03210375 -0.032790247 -0.08682938 0.034735188 0.061612092 -0.05222789 -0.07364407
-0.0061579496 -0.07788412 -0.056509156 0.02701854 -0.03538447 0.007727623 0.07109203 -0.018094063
-0.026838996 -0.05210988 0.053175412 0.022957094 -0.01043658 0.043178774 -0.06442719 -0.07695652
0.01052548 -0.016210243 0.08017073 0.03380703 -0.011735253 0.030541852 -0.014505051 0.07029175
0.04188118 -0.045633752 -0.0113496855 -0.041936114 0.030413523 0.0029227436 -0.06515208 -0.058269247
0.08140124 0.0071530566 -0.057700604 -0.005815275 -0.07542843 0.022031516 -0.021250919 0.07276518
0.01925499 0.026183896 -0.022029355 0.00039359927 0.018328108 0.026772365 -0.014872998 -0.067386895
0.047256164 -0.041355055 0.07625339 0.005472623 0.017898008 0.0050851405 0.06339366 0.016383462
-0.05456862 0.06473305 0.026970893 -0.08400347 0.042976536 -0.032775518 -0.0149509385 0.033899635
-0.077287376 -0.034762543 0.038252123 -0.08332175 0.069297485 -0.06927995 0.018191978 -0.074881606
0.028820194 0.01673188 0.06986631 0.06270676 0.013611853 -0.08401215 -0.022320919 -0.03100558

head.bias f4 [344]
00000000: ff0a 92bd f664 aebd 20c3 93bb 506d c63c
00000010: c70d 8dbd be66 7c3d 4053 7d3b d782 a73d
00000020: bea7 2d3d eba8 7dbd ccf8 19bd 3c69 adbd
00000030: e2b7 1c3d 1843 88bd 4087 5c3b 90e7 a6bc
00000040: 26d4 4fbd d030 003d 0c7e 3abd fe4b 5a3d
00000050: 8409 91bc 18b4 113d 66c0 85bd 6020 963c
00000060: fb8e dcbb 0b37 5bbd a8d9 cb3c 0aff 8c3d
00000070: a8a8 903c 082e 49bd 6854 89bd 90ec 073c
00000080: 80b9 953b cf05 a23d d00f cdbc 01f2 84bd
00000090: d848 433c c133 41bd 7abb 7b3d 2682 aabd
000000a0: 50ed 3cbc a1c1 99bd 0076 53bb d530 b33d
000000b0: dc76 87bc 0de2 b3bd 6c92 c0bc 6c34 25bd
000000c0: 5ca4 dbbc cce0 17bd 2615 293d 3bd7 9dbd
000000d0: 8807 eb3c e916 8fbd d2c3 5d3d 5083 703c
000000e0: 7d0e 823d 305f 2ebd 3c0d 93bc d0f3 fdbc
000000f0: e374 973d 0096 90b9 00bd 36ba 50e6 51bc
00000100: 697d 53bd c09e a6bd c40d 5dbd 26de 193d
00000110: 6802 593c 801c b4bd b5ac 993d 6c61 e43c
00000120: 6294 4d3d 614f 813d 8832 513c 40f0 f13b
00000130: ec3e c93c 6b6b ad3d 41d7 b43d 65f4 ac3d
00000140: 28a1 513d 2376 a33d bacc b1bd 440d acbd
00000150: e463 eebc 206e b23b 5de4 a73d 11a0 b03d
00000160: 26cd 48bd 2e9d 763d a711 b33d 1047 72bc
00000170: 2c8c 8ebc 9196 7bbd fd77 9a3d 1ad7 1f3d
00000180: d23b 063d b0cf a4bd 40d1 7ebd 7fe6 aebd
00000190: d5c0 7cbd d459 8bbc 981e 383c d0da a9bb
000001a0: 0ed6 573d dd21 953d 2d10 33bd 9263 1b3d
000001b0: 9964 54bd 8b15 aa3d c8a9 513c 6c7c af3c
000001c0: 7129 07bd 6ab2 293d 9138 a63d 6f40 a53d
000001d0: 9ed8 223d 7a91 94bd 2eef 463d 5689 2f3d
000001e0: 94d3 a83c 761a 263d 59af 0ebd 48cd de3c
000001f0: 406f f13b 1750 1ebd 9ea3 313d 504b cc3b
00000200: 1006 a33d 16f3 3f3d e15b a03d 1291 2d3d
00000210: 8279 2b3d 60f4 9cbd 1895 563c a549 ab3d
00000220: 03c7 66bd 1833 e73c b7ae 1dbd 3773 69bd
00000230: e066 4e3b bbe2 853d 9212 a7bd 0068 34ba
00000240: c72c 29bd ceac 4f3d 6064 163b 276a 6f3d
00000250: b25d 0f3d 0c57 bf3c 583c 633c b817 74bd
00000260: a0ca b3bb 4684 a6bd c02d 793c 8f1a adbd
00000270: f2ad 413d d8f3 15bd 8002 263a 544c 10bd
00000280: 5466 d03c cbee 9d3d 1204 3c3d 5a88 7f3d
00000290: b0ec df3b 64f5 db3c 28e1 e13c 2620 70bd
000002a0: b00d 6ebd eac5 a1bd ada7 aa3d bc3c d13c
000002b0: 40e6 cbbc 5199 a03d 72a6 163d 9e59 683d
000002c0: 20da ccbc 6084 b7bb 9e90 8bbd 0094 7039
000002d0: ddf7 bb3c 744a c03c b89a 6cbc de78 60bd
000002e0: 7ac3 393d 4cfc 8dbc 9651 123d e175 993d
000002f0: 885b debc 1a3b 7e3d d813 0d3c 900b e6bc
00000300: 4610 163d 870a 85bd ad39 87bd 5144 1dbd
00000310: 036c 81bd 4b03 b2bd 1031 8ebd 28c4 973c
00000320: 4e9d 38bd a4b3 39bd 6faf 56bd 80bc a93b
00000330: b010 ab3c d0f3 8fbd 8297 2f3d d03c 09bc
00000340: 107f e63b e5aa 23bd 75d5 9fbd d4fc 82bd
00000350: be46 7a3d 855a 973d a47c bfbc 14ab 32bd
00000360: 0e24 163d 673c 9ebd 3f10 ae3d 98cb 83bd
00000370: d45a d0bc 825d f1bc d089 e53b 54be d9bc
00000380: 2bdc 933d 64fd debc b41e a7bd d639 2e3d
00000390: 3ccb bb3c 0443 a43c bd0f 803d 9090 f7bc
000003a0: fb95 4fbd 4f20 8f3d 6ecd 653d 32ed 33bd
000003b0: 27e8 ab3d e8ce 023d 48f9 bdbc bfa0 8c3d
000003c0: 705e 4fbd e3fa 813d a06d ee3b 3f4a 33bd
000003d0: 5292 87bd 5d34 87bb cae4 adbd be6c 2c3d
000003e0: ab5f a83d a757 9a3d b4a0 a5bc b845 66bc
000003f0: ce1a 96bd ec65 cfbc 7cda b4bc b075 9b3c
-0.071310036 -0.085153505 -0.0045093447 0.024222046 -0.068873934 0.06162142 0.0038654357 0.081792526
0.0423963 -0.06192867 -0.037590787 -0.084673375 0.0382613 -0.06653422 0.0033649951 -0.02037409
-0.05073943 0.03129655 -0.045530364 0.053295128 -0.017704733 0.03557214 -0.06530838 0.018325984
-0.006730912 -0.05351929 0.02488406 0.06884582 0.017658547 -0.049116164 -0.06705552 0.008296147
0.0045692325 0.07911264 -0.025031954 -0.06491471 0.011919223 -0.047168497 0.06145809 -0.08325605
-0.011531189 -0.07507635 -0.0032266378 0.08749548 -0.016536169 -0.0878335 -0.02350732 -0.040333197
-0.026811771 -0.037079617 0.041279934 -0.077070676 0.028690115 -0.06986792 0.054141827 0.014679745
0.0635042 -0.042571247 -0.017950647 -0.031000048 0.07395341 -0.0002757758 -0.0006970912 -0.012811258
-0.051633272 -0.08135748 -0.053968206 0.037565373 0.013245203 -0.087944984 0.075036444 0.027878486
0.050190337 0.063139684 0.012768395 0.0073833764 0.024566136 0.08467754 0.08830119 0.08445052
0.05117908 0.07981517 -0.086816266 -0.08400968 -0.029100366 0.005445257 0.08197854 0.0862428
-0.04902377 0.060208492 0.08743601 -0.01478745 -0.017400824 -0.06142289 0.07542417 0.039023496
0.032771893 -0.08047426 -0.062211275 -0.085400574 -0.061707336 -0.017010607 0.011237763 -0.005183555
0.052694373 0.072818495 -0.0437166 0.037936755 -0.05185375 0.0830489 0.012796827 0.021421634
-0.032998506 0.041429915 0.08116258 0.0806893 0.039757363 -0.0725431 0.048567943 0.042855583
0.0206087 0.04055258 -0.034835193 0.027197495 0.0073679984 -0.0386506 0.043368928 0.006234564
0.07960141 0.046862684 0.078300245 0.042374678 0.041863926 -0.07663798 0.01309707 0.08363656
-0.056342136 0.028222606 -0.0384967 -0.056994643 0.0031494424 0.06537386 -0.08157839 -0.0006881952
-0.04130247 0.05070191 0.0022948012 0.058450844 0.035001464 0.023356937 0.013869368 -0.059592932
-0.0054868013 -0.08130698 0.015208662 -0.08452331 0.047285028 -0.0366095 0.000633277 -0.035229042
0.025439419 0.07711562 0.04590232 0.062385894 0.0068336353 0.02685041 0.027573183 -0.05862441
-0.058118522 -0.07899077 0.08332763 0.025541656 -0.024890065 0.07841743 0.03677983 0.05672609
-0.025006354 -0.005600497 -0.06814693 0.00022943318 0.022945339 0.023473002 -0.014441185 -0.054802768
0.045352437 -0.017332219 0.035722338 0.07493187 -0.027143255 0.062068082 0.008610688 -0.028081685
0.036636613 -0.064961486 -0.06602798 -0.03839523 -0.0631943 -0.08692034 -0.06942952 0.018526152
-0.045071892 -0.045337334 -0.0524134 0.0051799417 0.02088198 -0.070289254 0.0428691 -0.008376315
0.00703419 -0.0399579 -0.078043856 -0.063958794 0.06110262 0.07390312 -0.023374863 -0.043620184
0.03665548 -0.077263646 0.084991924 -0.06435317 -0.025433935 -0.029463533 0.007004954 -0.026580013
0.07219728 -0.027220435 -0.08160153 0.042535625 0.022924058 0.020051487 0.06253002 -0.0302203
-0.050680142 0.06988584 0.056104116 -0.04392738 0.08393889 0.031935602 -0.023190156 0.068665974
-0.050627172 0.06346681 0.007276252 -0.04377198 -0.06619705 -0.0041261152 -0.08490904 0.042095892
0.08221372 0.075362496 -0.02021823 -0.014054708 -0.07329331 -0.025317155 -0.022076838 0.018977016
