dual/pg_same/es_selfplay/model.pth.tar (torch, 163543 bytes, 6 tensors)

net.0.weight f4 [32, 874]
000000 ca 1b cc bf 06 05 8b 40 57 d5 44 3f 39 f1 0c 40
       -1.594598 4.344363 0.7688803 2.202223
000010 a1 8e 86 bf 59 c6 eb be 59 b3 2c 40 1e 5a b7 bf
       -1.0512277 -0.46049765 2.6984465 -1.4324377
000020 14 28 1e c0 26 ab c2 3f 48 e0 e3 3f b6 92 1f c0
       -2.4711962 1.520848 1.780282 -2.4933295
000030 63 ca 27 3f 2a d7 06 bf 5b f7 50 c0 ab 3f 17 40
       0.6554319 -0.52672064 -3.2650974 2.363261
000040 3f 56 7d c0 1f 9d cc 3f e4 ec 8a 3e f1 ca a1 3f
       -3.958389 1.598545 0.27133858 1.2640058
000050 b4 60 9f 3f b7 96 bb 3f 77 48 a3 c0 1e 5a 23 40
       1.2451386 1.465537 -5.102596 2.5523753
000060 6f 56 95 be 56 59 43 3f 9e 74 7c 40 a9 1e 97 bc
       -0.29167506 0.7630819 3.9446177 -0.018447237
000070 74 af 21 3f ee 97 3a bf 61 ec e3 bf 75 a1 00 c0
       0.63158345 -0.72888076 -1.7806512 -2.0098546
000080 fa a8 46 c0 54 6e 68 3d cf 07 55 40 e0 4c 9a c0
       -3.1040635 0.056745842 3.3286016 -4.821884
000090 5d 4b e4 c0 03 f2 84 3f 02 0d a0 40 07 1b 6c c0
       -7.1341996 1.0386356 5.001588 -3.6891496
0000a0 15 11 c4 bf f1 90 60 40 ab 14 00 3e 06 ae 4e 40
       -1.5317713 3.5088465 0.12507884 3.2293715
0000b0 d1 a7 62 3e 98 d4 aa 3f 8f 45 f4 3f 5a 76 a6 bd
       0.2213433 1.3346128 1.9083728 -0.081280425
0000c0 33 ec a9 40 f1 70 77 c0 a8 a3 aa 3f 9c 78 c6 bf
       5.310083 -3.8662684 1.3331194 -1.5505557
0000d0 53 54 37 bf 31 b3 85 c0 20 47 1b c0 c9 e6 96 3f
       -0.71613044 -4.178124 -2.4262161 1.178918
0000e0 89 f9 88 bf 12 3c 70 c0 7c dd 42 3e ff c0 82 40
       -1.0701152 -3.7536664 0.19029802 4.086059
0000f0 c8 0d f8 bf e8 ca ae bf 73 bc ec bf e5 e4 42 3e
       -1.9379206 -1.3655672 -1.849501 0.19032629
000100 a1 15 d1 bf 21 f1 d6 3f ba ae b0 3e 5f ae f1 bf
       -1.6334726 1.6792337 0.34508306 -1.8881339
000110 2b 59 58 c0 b4 87 1b be 4a 52 a7 3f c6 d2 ff be
       -3.3804424 -0.15188485 1.3071988 -0.49965495
000120 43 52 a4 c0 37 b3 76 bf 3f dc 37 c0 ed 4b 67 3d
       -5.1350417 -0.9636721 -2.8728178 0.056468893
000130 3a fc 45 c0 2e 2c 19 40 55 f8 e8 3f d8 69 c9 be
       -3.0935197 2.3933215 1.8200785 -0.39338565
000140 24 e2 f1 bf 53 1a 82 3f ca a5 37 c0 f0 18 36 c0
       -1.8897138 1.0164284 -2.869494 -2.845272
000150 a8 b3 2f 40 e9 c9 52 40 cd 86 8a 3f e0 4a 14 40
       2.7453403 3.2935736 1.0822388 2.31707
000160 ce 43 69 bf 68 d8 1c bf 89 43 c4 bf bc da 4a bf
       -0.91119087 -0.6126771 -1.533311 -0.7924001
000170 cc 6a c8 40 bc 86 a1 40 7b 9d cc 3e 8d 03 9e bf
       6.2630367 5.047697 0.39963898 -1.2344834
000180 27 ff 30 40 a3 8b e8 bf eb 6b 58 40 5c fd 02 41
       2.7655733 -1.8167614 3.3815868 8.186855
000190 d0 50 80 bf 85 02 9f bf 28 59 8d c0 b6 aa b9 40
       -1.0024662 -1.2422644 -4.4171333 5.8020887
0001a0 d8 60 e9 3f d8 ac 75 bd c5 ff c7 be 4d e5 2c 40
       1.8232679 -0.05997929 -0.39062324 2.7014954
0001b0 45 ba 72 c0 b1 3d 88 bf ac 04 19 c0 3d e5 e1 bf
       -3.792619 -1.0643827 -2.3909101 -1.7648083
0001c0 43 f5 1d 3f 12 7a c5 40 d4 68 e5 3e 3a 47 10 40
       0.61702365 6.171151 0.4480654 2.2543473
0001d0 2f 64 ba 40 eb 44 2c c0 0a e8 04 c0 52 b4 6e c0
       5.8247294 -2.6917064 -2.0766625 -3.7297559
0001e0 3a f1 3f be 31 c5 02 40 c3 72 ef be 74 52 0f 40
       -0.18744364 2.0432856 -0.46767244 2.2394075
0001f0 fe 73 48 3f e8 a9 0f c0 5c ac 85 40 6b 7e 08 40
       0.7830199 -2.2447453 4.17729 2.132716
000200 5b 02 08 c0 08 2d 74 40 a4 bb 55 c0 d2 4a cb 3f
       -2.1251438 3.8152485 -3.3395777 1.5882208
000210 25 9e 97 40 5f ed bf c0 c6 ae c1 c0 76 ef 3f 3f
       4.7380548 -5.997726 -6.0525846 0.74974763
000220 b4 50 30 40 1c 9c 15 bf 68 f8 8d c0 fc 1c fb 3f
       2.7549257 -0.5844133 -4.436573 1.961822
000230 29 54 e2 bf 97 e6 0c 3e 32 22 1a bf 7e 9e 01 40
       -1.7681934 0.13759838 -0.6020843 2.0252986
000240 d7 1e 9a 3f 92 d2 3b c0 34 cf c3 bf ea 55 11 c0
       1.2040662 -2.9347272 -1.5297608 -2.2708688
000250 8a bf d6 3f 26 cd 5e 3f d2 2c 52 bd a8 dc db be
       1.6777203 0.8703178 -0.051312275 -0.42941785
000260 4d b1 da bf a2 bd 4f 40 87 f0 0a 40 6a 09 e2 3f
       -1.7085358 3.2459493 2.1709306 1.7659123
000270 6f 6d 9d 40 8c 33 31 40 45 06 fc 3e 48 06 50 c0
       4.9196086 2.7687712 0.49223533 -3.2503834
000280 22 88 b5 bf b7 47 f1 3f dd d6 5e 40 3d 0b b7 3f
       -1.418217 1.8850011 3.4818642 1.4300305
000290 72 91 5d 3f e4 22 aa be 39 b2 dd bf 61 5f 9b 3f
       0.86550057 -0.33229744 -1.7320014 1.2138482
0002a0 a5 b7 e6 3f 18 27 17 bf fc e3 79 c0 1d f4 00 40
       1.8024794 -0.5904403 -3.90454 2.0148995
0002b0 e0 a4 a4 3f cd 3a 33 40 ee bf 53 bf ef 1e dc 3f
       1.2862816 2.800464 -0.82714736 1.719694
0002c0 8b f8 89 c0 7b 73 2b c0 24 48 98 bf b4 6f 1c 40
       -4.3115897 -2.6789234 -1.1897016 2.4443178
0002d0 3c 12 39 40 89 00 43 c0 1e c3 87 c0 af c9 48 40
       2.891738 -3.0469077 -4.242568 3.1373098
0002e0 c2 99 ac 40 22 c2 eb bf 1f 55 a4 3f c0 7c 98 3f
       5.3937693 -1.841862 1.2838477 1.1913071
0002f0 ab 1d 3e 40 b9 d4 b4 40 45 b8 b3 c0 97 be 63 3f
       2.9705608 5.650967 -5.616244 0.8896269
000300 6b e9 70 3f 21 79 d5 3f 4b 01 14 40 9f f9 d3 3f
       0.9410617 1.6677591 2.312579 1.6560553
000310 2c a7 de be 63 96 5d 40 40 1a a0 bf af cd 2c 3e
       -0.43486917 3.4623039 -1.2508011 0.16875337
000320 c4 bf f1 3e 8c 48 1a c0 69 d9 8e 3e e6 dd 72 c0
       0.47216618 -2.410678 0.27900246 -3.7947936
000330 32 ea 83 40 ad 19 07 40 a3 76 03 c0 56 27 35 bf
       4.1223383 2.1109421 -2.054116 -0.70763147
000340 6d 44 c0 40 99 7a 50 40 bd 35 af 3e c3 da 34 40
       6.0083528 3.2574828 0.34220687 2.8258522
000350 71 6f 10 40 7c a5 12 c0 6e 00 b4 3e f0 a8 fc bd
       2.2568018 -2.2913504 0.35156578 -0.1233691
000360 1a fa 95 c0 c6 08 92 be c6 76 20 40 28 2e 8a 40
       -4.68678 -0.2852232 2.5072494 4.3181343
000370 04 4e dd c0 60 2e 9d 3d ab 1f 16 3d c1 23 8a bf
       -6.9157734 0.07674861 0.036651295 -1.0792161
000380 b9 76 c2 bf fa d2 4c bf 22 de eb 3f 07 e3 4f 40
       -1.5192481 -0.80009425 1.8427165 3.2482316
000390 99 0e 38 40 f2 4a 61 c0 6a f3 9a c0 a7 2e 2a c0
       2.875891 -3.5201993 -4.8422136 -2.6590974
0003a0 58 92 e7 bf 8d b7 a9 3f 7a 99 c9 3e aa 64 04 c0
       -1.8091536 1.325914 0.39374906 -2.068644
0003b0 ab 39 6d bf 57 a3 d2 be a8 70 01 c0 c4 f2 59 40
       -0.9266612 -0.41140243 -2.022501 3.4054422
0003c0 e4 ef 44 bf f7 56 7e 3f 71 c2 c4 3f fa 48 59 40
       -0.76928544 0.9935145 1.5371839 3.3950791
0003d0 1c 97 29 40 70 97 26 40 a7 1c 2c c0 d2 3e 9a bf
       2.649848 2.602993 -2.6892488 -1.2050421
0003e0 29 a5 67 3f f8 3f e5 3f f7 de 43 c0 75 57 ea bf
       0.9048639 1.7910147 -3.0604837 -1.830794
0003f0 01 a0 5b 40 8f c6 85 c0 b0 85 01 bf 15 54 28 40
       3.4316409 -4.180488 -0.50594616 2.630132

net.0.bias f4 [32]
000000 bd d9 2b bf 31 88 fc bf 95 ff 4e 40 29 ce 70 3f
       -0.6712912 -1.9729062 3.2343495 0.94064575
000010 17 44 48 bf 2f 54 7b 40 a5 b9 c3 3e 2f 83 41 c0
       -0.78228897 3.9270132 0.38227573 -3.0236318
000020 c1 2d e7 3f 1a 06 29 c0 90 31 3a c0 2c 38 8e 3f
       1.8060838 -2.6409974 -2.909275 1.1110892
000030 2d cb b1 be c7 d0 87 c0 89 b3 b0 3f 3d 12 f8 bc
       -0.34725323 -4.2442355 1.380479 -0.030282134
000040 07 43 1a 40 36 6f e7 bd 9f 8f e6 40 83 15 65 c0
       2.410341 -0.11300509 7.205032 -3.579438
000050 25 98 86 be 56 d3 fe 3f f5 85 45 c0 88 67 78 40
       -0.26287952 1.9908245 -3.086301 3.881319
000060 1a 43 35 3f 1e fe 70 3f c4 13 f3 3d 10 63 99 c0
       0.70805514 0.9413775 0.11869004 -4.7933426
000070 a3 22 11 bf ea b3 3a 3f 3f ae 2a c0 b1 5f a7 be
       -0.56693476 0.7293078 -2.6668851 -0.32690194

net.2.weight f4 [32, 32]
000000 3b 91 55 40 ea b7 ec 3d af 62 07 c0 a8 64 17 bf
       3.3369892 0.11558516 -2.1153982 -0.59137964
000010 44 5a 07 c0 87 bf ea be 88 9a ef bf 9e cd 24 3f
       -2.1148844 -0.4584925 -1.8719034 0.64376247
000020 85 1c cd 3f 9a 60 97 40 5b 1a e1 3f f8 7c b3 3f
       1.6024328 4.730542 1.7586168 1.4022512
000030 39 d8 59 bf 84 d8 4f c0 0a d6 24 40 1c 12 f4 c0
       -0.85095555 -3.24759 2.575564 -7.6272106
000040 c4 58 ea be 8b 0f 58 c0 74 75 68 3f 00 a9 6e 40
       -0.45770848 -3.3759487 0.9080422 3.729065
000050 5b d5 89 bf e3 4c 9a 3f da 88 2a c0 24 9e 6d c0
       -1.0768236 1.2054714 -2.6646028 -3.7127771
000060 25 09 42 c0 d9 28 6e c0 30 39 e6 bd 83 cd c0 bd
       -3.0318081 -3.7212431 -0.112413764 -0.09414198
000070 5f 80 1e 40 1e 72 5a 3e 52 7b 75 3f e3 60 9a c0
       2.4765851 0.21332595 0.95891297 -4.824327
000080 8c 9c 51 3e fb b9 6c 40 66 5f 88 3e 50 67 5d 3f
       0.20469874 3.6988513 0.26635283 0.8648577
000090 09 5e 7d bf 76 1b 1b 40 86 a3 1f 3f 66 df 06 40
       -0.9897161 2.423551 0.6235889 2.1073852
0000a0 78 26 9a be cd fb 9a 3f 9f 9b 2b 40 63 ee 9b 40
       -0.30107474 1.2108094 2.6813734 4.87285
0000b0 92 ba 95 c0 29 02 61 40 9a f9 83 c0 6d d4 c7 3f
       -4.6790247 3.5157568 -4.124219 1.5611702
0000c0 55 e2 8b 40 03 45 04 40 3d a1 b8 3e 8b 38 83 c0
       4.3713784 2.0667121 0.36060515 -4.100652
0000d0 b1 06 1a bf 82 c0 c8 3f 50 36 64 bf 33 3a 59 bf
       -0.6016646 1.5683749 -0.89145374 -0.8485443
0000e0 5c c0 56 3f ad 0b 53 40 c1 d0 d3 3f 82 9f 33 c0
       0.8388727 3.2975876 1.6548082 -2.8066106
0000f0 9a d7 3f 40 0d 15 94 c0 7a 69 96 3e 91 95 cd bf
       2.9975343 -4.6275697 0.29377347 -1.6061269
000100 30 b2 63 bf 84 3f 1e c0 7f 0f 67 40 19 56 fb bf
       -0.8894377 -2.4726267 3.6103208 -1.963565
000110 1c c7 8c 40 b4 99 68 40 23 c0 1b 3f 67 eb 1c c0
       4.3993053 3.6343813 0.6084005 -2.4518678
000120 d9 e4 59 bf 66 c0 90 40 07 ac f7 bf 45 db 65 bf
       -0.8511482 4.523486 -1.9349374 -0.89787704
000130 41 4b b1 3e 3e 38 89 c0 ea d4 11 c0 e3 b8 5a bf
       0.34627727 -4.2881155 -2.2786202 -0.85438365
000140 54 c3 b2 c0 cd 42 68 3f e9 17 18 c0 fc 44 ea bf
       -5.586344 0.9072693 -2.3764594 -1.8302302
000150 14 69 f7 3f fb ad 06 c0 18 18 93 40 2b 6e 48 bf
       1.9328942 -2.104369 4.596691 -0.782931
000160 2f 51 70 c0 0e 3d 13 bf d4 0b 60 c0 c2 dd 0a 40
       -3.754955 -0.5751504 -3.500722 2.169785
000170 4a 09 c6 bf 6f a3 f8 40 ee f6 49 3f 2c 25 c5 bf
       -1.5471585 7.7699504 0.7889241 -1.5401969
000180 bc c2 eb bf 88 bc a6 3f 06 b0 88 40 35 40 a9 40
       -1.8418803 1.3026285 4.271487 5.289088
000190 2b 5c 19 bf ac 25 91 3e 9e c8 77 c0 b0 fe 32 c0
       -0.5990626 0.28349054 -3.8716197 -2.796795
0001a0 ac 7e 8b 3f 81 c2 11 3f 09 06 9c 40 9a bd 31 bf
       1.0898032 0.56937414 4.8757367 -0.69429934
0001b0 9b a4 62 c0 15 02 14 bf 9c f8 81 c0 72 cd 53 c0
       -3.5412967 -0.57815677 -4.061598 -3.3094144
0001c0 42 b4 3b 40 80 c8 a2 3f 17 df 20 bf c2 5f 43 bd
       2.932877 1.2717438 -0.6284041 -0.047698744
0001d0 fa 84 f1 3f 2a 33 0d 40 a6 ab 2a c0 e6 e4 6f 3e
       1.8868706 2.2062478 -2.6667266 0.23427162
0001e0 9f 7b 8b 40 ea d8 34 be 98 a8 1a c0 9b 4d 61 c0
       4.3588405 -0.17660871 -2.4165401 -3.5203617
0001f0 7c f6 54 be d9 f4 ac c0 95 d1 ff 3f 70 27 e3 c0
       -0.20797151 -5.4048886 1.9985834 -7.098564
000200 61 29 d2 3f 43 a2 e1 3f da 04 77 3f 3f 0b b5 bf
       1.6418878 1.7627643 0.9649178 -1.4144057
000210 c2 0e 90 c0 e0 a3 88 3f 6a ce 01 c0 e5 d1 0f 40
       -4.5018015 1.0675011 -2.0282235 2.247186
000220 78 b8 ec bf b1 6c da c0 5b 7d ac 3f 17 34 ba c0
       -1.8493795 -6.825768 1.3475755 -5.8188586
000230 75 8e b9 bf 2f c8 81 c0 57 47 2a c0 f7 44 d6 3b
       -1.44966 -4.0556865 -2.6606042 0.006538983
000240 7b 45 a7 40 46 65 a2 3f ea 73 e2 bf 7f c8 3c 40
       5.2272315 1.2687156 -1.7691624 2.9497373
000250 b7 b8 85 3f 7f d3 64 c0 a8 1d 83 c0 8f fe b3 40
       1.0446995 -3.5754087 -4.09737 5.624824
000260 31 de 7e bf 89 6b 14 c0 fa 6f 72 c0 b2 13 8c 3f
       -0.9955779 -2.3190634 -3.7880845 1.094351
000270 c1 bb 7c 3f cf dd 26 40 97 a4 68 bf 36 e8 31 3e
       0.9872399 2.6072881 -0.90876144 0.17373738
000280 18 6c 95 3f d4 c3 97 bf b1 81 ac bf 0e 3e d4 bf
       1.1673613 -1.1856637 -1.3477079 -1.6581438
000290 d3 a9 0a 3f 85 52 31 40 97 fb 94 c0 40 47 2a bf
       0.5416538 2.7706616 -4.6557117 -0.6651497
0002a0 46 2f 54 40 22 4b 02 40 e9 43 2d c0 3c 0a 6a 3f
       3.3153853 2.0358357 -2.70727 0.91421866
0002b0 dc ae 0c 3f 66 cc 17 40 41 25 e0 3f 70 78 19 c0
       0.54954314 2.3718505 1.7511369 -2.397976
0002c0 66 89 55 bd ea e3 ec 3f 4b 40 8e 40 98 1c c6 3f
       -0.052132986 1.8507054 4.4453483 1.5477476
0002d0 4f 23 8e c0 72 e5 50 be 95 3b 2a 40 cc 88 c0 3f
       -4.44181 -0.20400026 2.6598866 1.5041747
0002e0 c8 cc b9 bf 7e 02 ac be cb a8 69 3f 6d 32 0e 40
       -1.4515619 -0.3359565 0.9127318 2.2218277
0002f0 32 5c 04 40 c3 13 64 40 0d 36 03 c0 55 c9 9b 3f
       2.0681272 3.5637062 -2.050174 1.2170817
000300 71 1f e7 bf d7 b8 73 be f6 aa c4 bf e5 33 98 40
       -1.805647 -0.2380098 -1.5364673 4.756335
000310 c2 08 b4 3f 8a 65 98 c0 2c 28 7c bf a7 6e d1 bf
       1.4065173 -4.762395 -0.984988 -1.6361893
000320 60 f5 9c 40 2c da b1 3f 0c 40 47 bf ec 49 09 40
       4.904953 1.3894706 -0.778321 2.1451368
000330 bb 5c 52 3f 83 36 19 40 26 ae 85 3e 93 d5 2f c0
       0.82172745 2.3939521 0.26109427 -2.7474105
000340 d3 78 9f 3f 48 02 9c c0 49 eb 9d 3f ca cd 48 c0
       1.2458748 -4.8752785 1.2337428 -3.1375604
000350 36 31 fa bf 27 44 27 c0 2e e1 b7 40 5a 52 41 bf
       -1.9546268 -2.6135347 5.7462378 -0.75516284
000360 a7 bc a1 40 2d ec 97 be 4f ee 49 3f b7 29 f5 3f
       5.054279 -0.29672375 0.78879255 1.9153355
000370 eb 78 01 c0 64 f8 e0 3f d7 2e 5e c0 f4 12 e4 bf
       -2.0230052 1.7575803 -3.4716089 -1.7818284
000380 eb c1 04 bf b1 c0 0f c0 13 17 4a c0 af 43 48 c0
       -0.51858395 -2.246136 -3.1576583 -3.129131
000390 8b 8b d0 3f 3d e0 11 3c 28 1c 54 be 38 14 33 3f
       1.6292585 0.00890356 -0.20713866 0.69952726
0003a0 ae 48 2a 3e e8 0b 81 c0 20 7f c5 c0 1d 8b 81 c0
       0.16629288 -4.0327034 -6.171768 -4.0482316
0003b0 5b 4c 88 40 8b ec 3f 40 56 d5 b7 bf dc cb a6 3f
       4.2593207 2.9988124 -1.436198 1.3030963
0003c0 f8 46 93 bf 76 eb 14 c0 4d 00 44 40 8b 89 ae be
       -1.1506033 -2.3268714 3.0625184 -0.34089312
0003d0 00 86 e2 3f f1 a2 a4 c0 11 8d b4 3e 86 5f 40 40
       1.7697144 -5.1448903 0.35263875 3.0058303
0003e0 0c f0 d1 be 13 24 0d 40 08 56 c8 3e a6 7f d1 bf
       -0.41003454 2.2053268 0.39128137 -1.636708
0003f0 67 b0 f3 bf 95 62 c5 bf 18 af 92 40 ca 0d 39 3f
       -1.9038209 -1.542071 4.5838737 0.72286665

net.2.bias f4 [32]
000000 5b da 95 c0 32 01 7f 40 42 bb 21 3e 5c 41 d9 3f
       -4.6829047 3.984448 0.1579409 1.6973071
000010 86 77 58 40 a2 e3 7f 3f 7f 82 49 c0 20 a4 13 3e
       3.3822951 0.99956715 -3.1485898 0.14418077
000020 21 aa 37 40 04 30 f8 bf ab fd 4a 40 13 aa 7e c0
       2.8697588 -1.9389653 3.1717327 -3.9791305
000030 d5 9e 80 c0 fd 19 a6 3f 78 b7 a7 40 45 49 d1 3f
       -4.0193887 1.2976681 5.241146 1.6350485
000040 b2 60 42 bc a1 9a a0 c0 57 5d 70 40 c8 2e 0f c0
       -0.011863874 -5.0188756 3.755697 -2.2372303
000050 ec c1 dd bf 9b 7d 8f 3f e0 8d 35 40 6f 7a c9 3d
       -1.7324805 1.1210207 2.8367844 0.098378055
000060 ad 59 86 c0 fa 82 25 c0 8f a9 52 be 30 b1 3e c0
       -4.1984468 -2.5861192 -0.20572494 -2.9795647
000070 15 22 69 40 b7 29 33 be 65 39 1d 3f cf 33 6e 40
       3.6427052 -0.17496382 0.614157 3.7219121

net.4.weight f4 [344, 32]
000000 a2 d0 09 c0 d2 34 c1 c0 08 d7 8b 3f ed 03 3f 3f
       -2.153359 -6.037698 1.0924997 0.74615365
000010 e3 66 91 3e 96 aa 5f c0 45 cc 9b bf 64 18 d5 be
       0.2839881 -3.4947867 -1.2171713 -0.4162017
000020 02 21 12 40 a8 c8 25 40 bb 62 c9 c0 01 ff 42 c0
       2.2832646 2.590372 -6.293302 -3.0468142
000030 b7 5a 4f 40 3a a2 a0 bf 8a bd a7 3f b4 3d c9 bf
       3.2399118 -1.2549508 1.3104718 -1.5721955
000040 8f e5 8d 40 32 cd 55 bf 48 67 90 c0 d5 18 dc c0
       4.4342723 -0.8351623 -4.5126076 -6.8780313
000050 f1 c9 7f 40 4b d2 89 3f d6 06 82 c0 8a 24 26 bf
       3.9967005 1.0767301 -4.0633345 -0.64899504
000060 d9 cb 18 bf d5 bd bc 3f 5d 47 53 c0 9a e0 b1 3f
       -0.59686047 1.4745432 -3.3012307 1.3896668
000070 a2 cf 03 c0 3a 99 76 bf 31 a9 a0 bf 7f d6 42 40
       -2.059548 -0.96327555 -1.2551633 3.0443418
000080 65 3a 93 c0 2a 17 4a 3f ac fa 36 c0 01 03 69 40
       -4.6008782 0.78941596 -2.8590498 3.6408083
000090 81 c2 20 bf e0 e5 b6 3e ad 9a ba bc cf 27 07 40
       -0.6279679 0.35722256 -0.022778833 2.1118047
0000a0 b2 e3 73 bf 29 09 b3 40 51 f9 c5 40 35 1d ae 40
       -0.9526931 5.594868 6.186684 5.4410653
0000b0 25 55 42 c0 e7 a9 05 c1 0b 08 84 c0 3b 7b 0c bf
       -3.0364468 -8.35398 -4.125982 -0.54875535
0000c0 48 0f e1 3e cd 66 7f c0 6d f7 8e bf 6c 30 9e 3d
       0.4395697 -3.9906495 -1.1169258 0.077240795
0000d0 cf a2 c5 40 15 53 b1 3f 26 0a 91 be dc d1 d4 40
       6.176124 1.385348 -0.28328055 6.6506176
0000e0 c7 9a 0d c0 2d 51 88 bd cd ab b1 be e7 32 57 c0
       -2.2125719 -0.06656108 -0.34701386 -3.3624818
0000f0 3b cc bb 40 4f 95 2e 40 b1 ff 7c 40 5f 2d 09 3f
       5.8686805 2.727863 3.9531062 0.53584856
000100 0b 11 50 40 88 a6 8c 3c 06 74 3d 3f 2a b6 d1 c0
       3.2510402 0.017169252 0.7400516 -6.553487
000110 e3 19 20 c0 ba 95 d5 40 46 8e 7d 40 9a a1 53 c0
       -2.50158 6.674527 3.9618087 -3.3067384
000120 06 bf 3d c0 92 2f a4 bf 9b 51 97 3e e0 78 86 3e
       -2.9647841 -1.2827017 0.29554448 0.26264095
000130 94 6a ac 3e 10 63 d1 3f 53 d3 51 40 34 9a 8d 3d
       0.33675063 1.6358356 3.2785232 0.069141775
000140 c3 6b c9 40 69 52 5a 40 21 be d0 3f fe 79 53 40
       6.2944045 3.41128 1.6308023 3.3043208
000150 1c 60 23 bf ae ef 46 3f 9b 03 52 be 32 ad 48 40
       -0.63818526 0.7770947 -0.20509188 3.135571
000160 b3 af 59 c0 ac a6 e2 3f 2a 89 b9 c0 89 d8 b2 c0
       -3.4013488 1.7707114 -5.7979937 -5.5889325
000170 4d f6 1e c0 b2 52 92 3f e0 71 a6 c0 52 f4 4a 40
       -2.483783 1.1431487 -5.2014008 3.1711621
000180 e1 f3 03 40 30 6b 40 40 49 f9 5b 3f 83 3f e1 3f
       2.0617602 3.0065422 0.85927254 1.7597507
000190 f5 ef af 3e 68 db 15 41 cd ac 56 40 12 d4 81 40
       0.3436276 9.366066 3.354297 4.0571375
0001a0 3c 7a 0f 3d 2f f7 bf bf 21 cb a8 bf 67 64 13 c0
       0.03502868 -1.499731 -1.318699 -2.303003
0001b0 a7 48 c2 3f b9 a7 a4 c0 db e2 96 3f 14 13 2f c0
       1.5178422 -5.145474 1.1787981 -2.7355394
0001c0 7b cc 36 3f a6 b8 a5 c0 f6 3d 3e c0 29 52 37 bf
       0.7140576 -5.17879 -2.9725318 -0.7160974
0001d0 f8 55 c8 3f ce be 1f 40 54 46 60 40 54 78 f9 bf
       1.5651236 2.4960208 3.5042925 -1.9489846
0001e0 13 2a 7d c0 f1 ac cd bf b0 20 30 40 d8 59 15 40
       -3.955693 -1.6068403 2.751995 2.3336086
0001f0 bf 22 45 c0 be 8e 4e 40 3d d8 5b bf 7a d8 bd 40
       -3.0802457 3.2274623 -0.8587683 5.9326754
000200 3e c9 f5 bf e8 46 ef bf 7b 16 6e 40 6d 81 86 3f
       -1.9202039 -1.8693514 3.720122 1.0508248
000210 90 0e a2 40 28 57 53 bf 3c f6 cf c0 d2 17 df bf
       5.0642776 -0.82554865 -6.498808 -1.7429144
000220 81 4a 2a 3f bd 03 20 c0 8c c7 d9 3f 6e 61 47 3f
       0.66519934 -2.5002282 1.7014022 0.7788304
000230 0f 50 bd 3c de 3a 3a 40 b3 55 92 bf 8a 96 42 c0
       0.023109464 2.909843 -1.1432403 -3.0404382
000240 fb b2 fc 3f 68 e0 24 40 be 56 fc 3f f2 2c a4 3f
       1.974212 2.5761967 1.9713972 1.2826216
000250 04 1f cd 3d ea e9 11 40 68 90 38 bf bd 3e 7d bf
       0.100156814 2.279902 -0.72095346 -0.98923856
000260 cb fe 0f c0 ac d7 8a c0 76 31 03 bf 30 0b 42 be
       -2.2499263 -4.338827 -0.51247346 -0.1894958
000270 2e 0b f4 3f 0a 72 1f c0 d2 ba 2f 40 80 93 1d 40
       1.9065912 -2.4913354 2.7457776 2.4621277
000280 df f6 c1 40 38 06 ed 3e e7 25 30 40 f5 1c 1c bf
       6.0613856 0.46293807 2.7523134 -0.60981685
000290 8c b4 e2 be 98 1a dd bf b0 83 b8 3f 00 5d 0c 3f
       -0.4427837 -1.7273741 1.4415188 0.54829407
0002a0 ae 02 bb bf fe 6f 17 bf ef ee 69 3f 7e f0 8a c0
       -1.4610193 -0.5915526 0.9138021 -4.341857
0002b0 79 0a b3 3e d5 b1 59 c0 fd f8 4e c0 07 f3 af bf
       0.34968928 -3.401479 -3.233947 -1.3746041
0002c0 b8 d2 55 c0 a6 0c 55 3f 4d fd 8e c0 fd a6 4b c0
       -3.3409863 0.83222425 -4.4684205 -3.1820672
0002d0 01 fb fd bf 07 37 8c c0 1c d5 14 bf 92 47 97 40
       -1.9842225 -4.381717 -0.5813768 4.7274866
0002e0 92 24 b9 40 ac ce 8e 40 38 ba 21 40 59 f5 3c 40
       5.785714 4.4627285 2.526991 2.9524748
0002f0 81 a9 b5 c0 81 6c fb bf 76 d0 10 c0 e2 3f 52 bf
       -5.6769414 -1.9642488 -2.2627234 -0.8212873
000300 a0 4a c5 bf 06 4b d8 3f f0 54 c3 3f 6e 24 81 40
       -1.5413399 1.6897895 1.5260296 4.035697
000310 f6 3f a3 3f 1d af 34 40 9c 25 1e c0 78 8b b1 3f
       1.2753894 2.823188 -2.4710455 1.3870687
000320 c4 a6 88 3f 6b d6 0b be 4d e9 57 c0 f1 93 b5 3f
       1.0675893 -0.13656013 -3.3736145 1.4185773
000330 e1 32 bc 40 12 15 a5 bf 52 52 80 c0 50 b5 90 be
       5.881211 -1.2897055 -4.010049 -0.2826333
000340 6c ef b6 bf 26 1b 8c 3f df 57 09 bf a2 1a 9c c0
       -1.4291816 1.0945785 -0.53649706 -4.878251
000350 fb 43 29 bf 76 e1 13 40 16 73 5e c0 9a 29 83 bf
       -0.66119355 2.310636 -3.4757743 -1.0247071
000360 26 ae 57 40 7e 03 46 c0 05 3c fc c0 50 2e c4 3f
       3.3700042 -3.0939631 -7.8823266 1.5326633
000370 7e fb 48 c0 22 f3 3f c0 65 42 5a c0 a7 82 34 bf
       -3.1403499 -2.9992146 -3.4103024 -0.7051186
000380 d3 f4 4c 40 ab d3 8f 3f 2f 79 dc be e7 b8 25 bd
       3.202443 1.1236471 -0.43061206 -0.04045954
000390 5d 04 76 40 fe b1 02 40 bd db 57 be db 55 48 c0
       3.8440163 2.0421138 -0.21079917 -3.1302402
0003a0 22 b3 9d c0 0a 46 da bf 80 80 67 40 23 bd f6 3f
       -4.928117 -1.7052624 3.617218 1.927647
0003b0 0d e5 8e c0 8c a2 86 40 98 7e 82 c0 f1 69 de bf
       -4.4654603 4.207342 -4.0779533 -1.7376081
0003c0 ee a1 9f bf 43 7e 84 3f 64 0e 5e c0 e7 68 ff bf
       -1.2471292 1.0351032 -3.4696283 -1.9953889
0003d0 a4 af 5d c0 2b 21 f0 40 f9 c5 3b 40 f9 9f 78 3f
       -3.4638453 7.504049 2.9339583 0.971191
0003e0 e0 d0 d5 bf bc e5 3b be ce 57 d6 bf 02 08 7e c0
       -1.6704369 -0.18349355 -1.6745546 -3.9692388
0003f0 35 d0 2d 40 8a f2 3d 40 d3 95 31 c0 02 3f 34 40
       2.715833 2.9679284 -2.7747695 2.8163457

net.4.bias f4 [344]
000000 1d 70 0c bf bf 77 1f c0 3b 49 2d 3e 13 2d 0e 40
       -0.5485857 -2.4916837 0.16922466 2.221501
000010 5a 56 04 40 5d 34 12 3f d6 b8 3b 40 89 e0 66 3e
       2.0677705 0.5711115 2.9331565 0.22546591
000020 59 6a 64 c0 79 39 f9 3e 52 16 56 bd 61 2e 71 c0
       -3.568991 0.4867666 -0.05226738 -3.7684557
000030 0d d6 00 bf 02 a2 85 40 23 81 db bf b6 ac 8d c0
       -0.50326616 4.1760263 -1.7148784 -4.427333
000040 da 46 4f c0 e4 1f 09 c0 ce 66 42 40 0f 98 4d c0
       -3.2386994 -2.1425714 3.0375247 -3.212406
000050 21 1d f7 40 7f f6 ef 3f e3 2f 9b bf 52 a6 3c c0
       7.722306 1.87471 -1.2123989 -2.9476514
000060 d5 73 ad c0 d5 75 af bf 2d 9b cd bf 70 22 ca 3f
       -5.4203897 -1.3707834 -1.6062981 1.579176
000070 3e 03 10 3f 39 16 7b 3f c6 47 95 40 c7 79 62 bf
       0.5625495 0.98080784 4.6650114 -0.8846707
000080 94 f6 56 bf 60 7f bb 40 55 97 3a 40 39 5c 39 40
       -0.8397 5.8592987 2.9154866 2.8962538
000090 42 f1 60 c0 b8 d0 56 40 0d ff 7b 3a 23 e2 11 3f
       -3.5147252 3.3564892 0.00096128957 0.5698568
0000a0 37 f9 1d 40 c6 2f b3 bf f2 67 27 bf bc de 84 bf
       2.4683359 -1.3998954 -0.6539298 -1.0380473
0000b0 e5 d3 f1 3f 80 8b 2d c0 49 2d ad bf 7f cb 29 3f
       1.889279 -2.7116394 -1.3529445 0.66326135
0000c0 0d 23 b2 bf 09 b0 84 c0 eb 79 65 c0 cd 1b 9e c0
       -1.3916947 -4.1464887 -3.5855663 -4.9408937
0000d0 7c 5e ec bf 4a c5 f9 3f b7 5a 0a 3f d0 c0 d8 3e
       -1.8466334 1.9513333 0.5404467 0.42334604
0000e0 be 67 98 40 9a 2b e7 40 3a e3 07 40 2a c0 74 3f
       4.762664 7.2240725 2.1232438 0.9560572
0000f0 23 38 8c bd 90 4a f4 c0 56 40 4c 40 d8 41 98 3e
       -0.06846645 -7.634102 3.1914268 0.29737735
000100 4e 26 0a 3c 4f 4d 86 40 14 de 98 40 93 3a 55 40
       0.008431984 4.196937 4.777109 3.3317
000110 0b e2 ba 3f aa 90 dc 3e 3c 8f 17 c0 40 82 12 3e
       1.4600233 0.4307912 -2.3681173 0.14307499
000120 6e 80 15 40 bd 38 4f 40 07 55 28 bf 4b b2 01 3d
       2.3359637 3.237838 -0.6575474 0.031664174
000130 13 a4 31 bf db 59 0a 41 a5 64 02 c0 b7 2b 82 3f
       -0.6939098 8.646937 -2.0373929 1.0169591
000140 5a e5 18 40 99 bf 8d 3f 9b 8d 12 c0 97 fd 8a 40
       2.3889985 1.1074096 -2.289893 4.343456
000150 68 a1 81 3f c8 21 26 c0 d3 3a e6 3f 46 9d d6 bf
       1.0127382 -2.5958118 1.7986702 -1.6766746
000160 54 0a bb c0 e8 50 94 bf 59 62 33 40 f6 6e 63 3f
       -5.8450108 -1.1587191 2.8028777 0.8884119
000170 70 a8 ea bf 6e 2e 19 3e 93 d1 8d 3e d8 8e 99 bf
       -1.8332653 0.14959118 0.27698955 -1.1996717
000180 7c a6 26 c0 8f 1f c8 bf 1a 3f 0f 40 bb aa 23 c0
       -2.6039114 -1.5634631 2.2382264 -2.5572956
000190 f3 dc df 40 3c bd 7e be 38 01 c4 3f eb d3 73 c0
       6.9957213 -0.24876875 1.5312872 -3.8098094
0001a0 e8 77 5f c0 cd 4b 63 40 18 c4 c2 3e 49 67 f3 3e
       -3.4916935 3.5515015 0.38040233 0.47539738
0001b0 a5 34 7a c0 1c 75 35 be c8 f0 1d 40 60 ad 6d 3f
       -3.9094632 -0.17720455 2.4678211 0.92842674
0001c0 2e 4f 06 40 11 b7 f0 bf 9d 47 60 bf 60 61 9e bf
       2.0985827 -1.8805867 -0.87609273 -1.2373466
0001d0 3c 83 69 c0 28 ec 5e 40 ed 9c b7 3f b9 e4 7d bc
       -3.648635 3.4831638 1.4344765 -0.015496426
0001e0 58 0c 98 bf a1 33 31 40 93 c0 65 3f 58 22 66 bc
       -1.1878767 2.7687762 0.8974697 -0.014046274
0001f0 e8 4f 7c c0 11 92 86 3f 7a 75 08 c0 45 1d 87 c0
       -3.942377 1.0513326 -2.1321702 -4.222323
000200 7c 74 1a c0 23 f2 a8 40 70 10 3d bf 32 63 14 be
       -2.4133596 5.2795577 -0.73853207 -0.14490965
000210 0a 93 df 3e 54 81 7d bf 76 15 52 40 a5 38 8e 40
       0.4366687 -0.99025464 3.2825599 4.4444146
000220 6b 8f 02 40 7e 95 e9 3d 2b d5 fc 3f 09 7f d7 be
       2.0400035 0.114054665 1.9752554 -0.42089108
000230 19 b0 d2 c0 16 f1 2a bf d0 4f 11 c0 0a 3b fc 3e
       -6.5839963 -0.6677412 -2.2704964 0.49263793
000240 a4 22 b7 40 a2 ed a4 3e 57 ce 45 c0 3b 3b 48 40
       5.7229786 0.3221255 -3.090719 3.1286151
000250 34 97 b1 3f 21 24 a6 c0 89 f2 99 40 eb 9e 87 be
       1.3874269 -5.1919103 4.8108563 -0.26488432
000260 21 eb fb bf ce 9a 03 bf 25 04 96 be 90 2d 9c bf
       -1.9681131 -0.5140809 -0.29300037 -1.2201405
000270 07 30 2b 40 35 61 97 40 75 32 10 c0 1a 9b 6f 40
       2.6748064 4.730616 -2.2530797 3.7438416
000280 3e 06 bf 40 4f 77 95 40 cc 4f eb bf 6e 4d 86 c0
       5.969512 4.670814 -1.8383727 -4.196952
000290 30 7d cf 3f 8c 08 bf 3f 8f db df bf e1 8a 4e c0
       1.6210079 1.4924483 -1.7488879 -3.2272265
0002a0 ee 97 29 40 4e 32 d5 be 47 85 b6 c0 a7 f1 3c c0
       2.649898 -0.41639942 -5.703769 -2.9522493
0002b0 62 98 dd 3f c4 e2 0d 3f 21 c5 76 bf 74 74 46 c0
       1.7312129 0.5542414 -0.96394545 -3.1008577
0002c0 0e dd 84 c0 f8 3b 0a c0 3c 9a 6a bf 3a df 9a be
       -4.151984 -2.1599102 -0.9164159 -0.30248433
0002d0 b3 6f d0 bf 7b 7f 96 c0 99 f5 46 40 e7 94 7b bf
       -1.6284088 -4.7030616 3.10874 -0.9827408
0002e0 07 75 13 c0 65 29 8a c0 2d 43 64 40 d2 8b 47 bf
       -2.3040178 -4.317553 3.5666 -0.77947724
0002f0 34 71 79 c0 ce 66 86 3e 4c 39 2c bd a1 3f 3c c0
       -3.8975344 0.2625031 -0.04204683 -2.9413836
000300 d9 c6 52 40 75 39 55 c0 ab 0e 1f 40 fb 8e 38 3f
       3.2933867 -3.331632 2.4852703 0.7209317
000310 4f 4d 2c 40 c6 84 c5 40 63 85 be 3f 11 50 60 40
       2.6922185 6.1724577 1.4884456 3.5048869
000320 4c fa a4 bf 13 6d e1 c0 6c ec 0e c0 28 d7 19 3f
       -1.2888885 -7.0445647 -2.23318 0.6009393
000330 cf b5 93 c0 e4 ab 7e 3f bb a9 81 3e 09 45 22 40
       -4.6159434 0.99481034 0.25324807 2.5354636
000340 01 9e be 3f d0 2d 5c 3e ac 02 09 c0 82 1c 20 c0
       1.4891969 0.21501851 -2.140788 -2.50174
000350 94 12 81 bf 56 0a 72 40 35 81 c6 3d c0 3a e9 3f
       -1.0083795 3.7818809 0.09692613 1.8221054
000360 91 4e 49 40 9a 86 07 c0 7d d3 31 40 89 8a 24 c0
       3.1454203 -2.1175904 2.7785332 -2.5709555
000370 91 d3 dd 3f d6 51 08 c0 31 37 6a 40 f2 30 1b c0
       1.733019 -2.1299949 3.6596186 -2.4248624
000380 38 9c a9 c0 29 6d 37 c0 73 7f af 40 65 49 9b c0
       -5.3003197 -2.8660376 5.484308 -4.8527093
000390 9b f9 88 40 04 93 eb bf cd be 03 41 1b b6 56 3f
       4.2804694 -1.8404241 8.234082 0.8387162
0003a0 dc c2 aa c0 7c e8 c9 40 6b 71 53 3f 38 58 58 40
       -5.3362865 6.3096294 0.8259494 3.3803844
0003b0 18 16 42 40 91 0d ea 3f d1 8b 18 c0 6f e0 49 c0
       3.0325985 1.828539 -2.3835337 -3.1543233
0003c0 37 2e c0 c0 ad 12 79 40 0b 2c 93 c0 8b d3 f3 3f
       -6.0056415 3.8917649 -4.5991263 1.9048933
0003d0 ce 99 8c c0 a1 18 9e 3e af 0d 45 40 8d d3 47 40
       -4.393775 0.30878165 3.0789602 3.122287
0003e0 a0 57 54 c0 ce e0 6b 40 f7 fb 98 c0 20 be 1b c0
       -3.3178482 3.685596 -4.7807574 -2.4334793
0003f0 01 0d 08 bf ad b8 f5 3f a5 65 f9 bd 07 49 bc 3f
       -0.5314484 1.9196984 -0.1217759 1.4709786
