dual/pg_same/es_selfplay/model.pth.tar (torch, 163543 bytes, 6 tensors)

net.0.weight f4 [32, 874]
-2.8141513 2.3569946 -0.5399746 -0.29291904 -3.4868052 -1.436256 0.37191826 -5.625668
3.9185598 -1.7201506 0.9277475 0.6584869 0.7218866 -1.3113492 -0.6737304 2.428258
-3.514754 -0.9828617 -3.4338844 1.012356 -0.46024784 -1.1400104 1.6623741 4.3753066
-0.40325645 2.327071 -2.2678142 -3.2075138 3.0718555 1.5267538 0.012078348 -4.7860837
-0.13086455 2.339459 -3.2591481 -6.6089616 5.2348886 -0.9362157 0.75174403 0.08247655
-5.122626 8.517819 -2.0610816 2.4590209 -2.0575051 -4.6220765 -0.31866148 1.2608453
-0.01385758 1.2011213 1.722469 -0.6551427 5.8006067 -7.970028 -2.3528402 1.0803868
-5.07498 3.0923822 0.48381075 -4.832398 -4.7859654 1.0022602 -6.3362694 0.11360075
1.4934862 -2.1162355 -1.0828636 4.455592 3.2894719 -2.8437111 0.19894566 -0.121587135
-0.7729555 1.4247342 2.6683388 -4.430382 -5.975891 -4.7199373 -6.4193554 1.1322343
-5.6932225 2.205809 0.97515243 4.7415786 -3.006141 -6.94695 -6.380345 -4.4920535
1.0186673 -0.94454086 -0.34988946 3.4572923 0.85709924 -1.9815934 -4.2728353 1.0801624
0.9743909 0.5240059 -0.23173277 5.040683 5.26689 -3.2492824 -0.28558615 3.819011
0.54896075 2.36344 5.421771 0.7071545 1.4236134 -0.84160346 -1.7698854 -3.847564
-6.1279144 0.8833159 -8.822469 -1.5561994 -7.159391 -3.324964 4.645445 -0.9646464
-0.9300813 -2.4524188 -4.131573 1.7042338 -7.1481795 -3.059116 8.256103 -3.3969686
4.39252 3.5213046 -4.155933 6.0043025 1.3960426 1.0142405 -2.613853 0.774227
3.1432683 -3.8533492 4.3658314 5.1206684 3.8268774 4.6824675 3.3897185 -0.73790735
-6.1571846 -3.1736407 5.8867946 3.492591 1.0358458 -3.442423 4.539552 1.9857845
2.5780466 -4.788163 -2.2343173 3.252849 -2.7497497 0.64881897 -2.118415 8.512993
7.0210276 2.1486592 -5.016679 0.09915969 -1.8136891 1.0875331 -4.1085567 1.8209969
1.261977 0.78101814 1.064681 4.015004 3.3404608 0.65686905 2.8769562 0.76128536
5.8051705 -2.1079435 -2.6234066 2.6658766 0.5989468 6.90991 2.4007165 -2.7409692
1.9971393 -1.216626 7.683604 4.3398705 -2.167093 5.4279556 -0.09368443 1.4298456
-2.2847438 1.1844528 4.1450295 2.463907 -2.4706435 -1.1168383 -0.07440304 -0.20045264
1.6848681 1.2322849 -1.3997402 -2.885188 4.2800183 -1.3638043 -2.4454722 4.176783
-2.538997 -1.5916678 2.6885846 3.9169376 -1.1395663 3.219576 -0.37705585 -0.96376055
0.50268155 6.3504643 6.3425174 -1.0203604 -2.1175513 -1.6095998 -1.9780792 -2.4434555
-1.3393902 -5.9651194 0.559573 -1.5204672 -1.3359618 -0.7243527 1.7464128 -0.5415067
1.8293096 -1.9626333 -0.2707773 -1.1527792 -3.7041433 2.4401228 5.249924 -5.0875053
1.451929 -1.678943 -1.5167536 -3.0233188 1.7304776 -2.9445603 1.663733 -1.0542661
0.40483165 -0.95791095 -4.2295866 -1.2293192 1.1051785 -1.9604619 0.45231754 0.13282688
00000000: 0e1b 34c0 00d9 1640 c63b 0abf 7cf9 95be
00000010: d127 5fc0 3dd7 b7bf 126c be3e 7905 b4c0
00000020: afc9 7a40 e52d dcbf dc80 6d3f 9992 283f
00000030: 8fcd 383f 4ada a7bf 9879 2cbf 9468 1b40
00000040: bbf1 60c0 d39c 7bbf c3c4 5bc0 e294 813f
00000050: 9ba5 ebbe dceb 91bf adc8 d43f 8302 8c40
00000060: a177 cebe bbee 1440 de23 11c0 e847 4dc0
00000070: 4899 4440 ab6c c33f 43e4 453c 9927 99c0
00000080: 5b01 06be b2b9 1540 e295 50c0 9d7c d3c0
00000090: 3584 a740 d5ab 6fbf 4c72 403f 77e9 a83d
000000a0: 8dec a3c0 fd48 0841 c3e8 03c0 9960 1d40
000000b0: 2aae 03c0 0de8 93c0 9927 a3be 6163 a13f
000000c0: e70a 63bc 58be 993f dd79 dc3f 6fb7 27bf
000000d0: 929e b940 780a ffc0 ef94 16c0 1d4a 8a3f
000000e0: 3c66 a2c0 97e9 4540 0bb6 f73e 01a3 9ac0
000000f0: a126 99c0 104a 803f b8c2 cac0 83a7 e83d
00000100: 8e2a bf3f 6770 07c0 469b 8abf 3694 8e40
00000110: b586 5240 5dff 35c0 69b8 4b3e ad02 f9bd
00000120: 69e0 45bf b15d b63f 10c6 2a40 b0c5 8dc0
00000130: 803a bfc0 ba09 97c0 5c6b cdc0 0eed 903f
00000140: e12e b6c0 fa2b 0d40 97a3 793f 03bb 9740
00000150: 9d64 40c0 6a4d dec0 c92b ccc0 e7be 8fc0
00000160: b163 823f 6ecd 71bf b624 b3be 4744 5d40
00000170: db6a 5b3f daa4 fdbf 11bb 88c0 c342 8a3f
00000180: af71 793f 4025 063f 5b4b 6dbe 464d a140
00000190: 5d8a a840 3ef4 4fc0 5938 92be ad6a 7440
000001a0: b188 0c3f 9a42 1740 267f ad40 1408 353f
000001b0: f738 b63f 5373 57bf 9b8b e2bf 7d3e 76c0
000001c0: e017 c4c0 fe20 623f d528 0dc1 8b31 c7bf
000001d0: bb19 e5c0 36cc 54c0 7ca7 9440 11f3 76bf
000001e0: cf19 6ebf 6ef4 1cc0 d935 84c0 5524 da3f
000001f0: e3bd e4c0 8ec8 43c0 ff18 0441 ef67 59c0
00000200: 868f 8c40 0e5d 6140 67fd 84c0 3f23 c040
00000210: 86b1 b23f a2d2 813f 5e49 27c0 be33 463f
00000220: 4f2b 4940 469d 76c0 e4b4 8b40 84dc a340
00000230: 8feb 7440 c6d6 9540 26f1 5840 7fe7 3cbf
00000240: a807 c5c0 ee1c 4bc0 9f60 bc40 9c86 5f40
00000250: 9896 843f a950 5cc0 0344 9140 302e fe3f
00000260: b7fe 2440 a238 99c0 0eff 0ec0 ae2e 5040
00000270: e6fb 2fc0 0019 263f 1d94 07c0 3835 0841
00000280: 42ac e040 a283 0940 a288 a0c0 3c14 cb3d
00000290: f726 e8bf 4934 8b3f 4c79 83c0 6d16 e93f
000002a0: 7688 a13f cef0 473f 7847 883f ea7a 8040
000002b0: 1cca 5540 9228 283f 0d20 3840 99e3 423f
000002c0: f5c3 b940 8ce8 06c0 e5e5 27c0 b99d 2a40
000002d0: 9454 193f fc1d dd40 57a5 1940 0a6c 2fc0
000002e0: 43a2 ff3f 67ba 9bbf 15e0 f540 38e0 8a40
000002f0: a7b1 0ac0 d0b1 ad40 9fdd bfbd 2e05 b73f
00000300: 3e39 12c0 269c 973f 15a4 8440 a7b0 1d40
00000310: 061f 1ec0 8ff4 8ebf 9f60 98bd 7543 4dbe
00000320: c2a9 d73f 83bb 9d3f b02a b3bf eca6 38c0
00000330: e9f5 8840 2491 aebf 9e82 1cc0 35a8 8540
00000340: ed7e 22c0 c5bb cbbf c511 2c40 1baf 7a40
00000350: 4fdd 91bf 880d 4e40 770d c1be 03b9 76bf
00000360: bdaf 003f 0137 cb40 e7f5 ca40 2b9b 82bf
00000370: f685 07c0 5e07 cebf b331 fdbf 9361 1cc0
00000380: 2371 abbf 42e2 bec0 2d40 0f3f ab9e c2bf
00000390: cc00 abbf 2e6f 39bf 748a df3f 2fa0 0abf
000003a0: d126 ea3f 9137 fbbf 52a3 8abe 458e 93bf
000003b0: af10 6dc0 f92a 1c40 61ff a740 d8cc a2c0
000003c0: cfd8 b93f 9be7 d6bf fb24 c2bf 0e7e 41c0
000003d0: 4a80 dd3f ad73 3cc0 34f5 d43f 31f2 86bf
000003e0: 1846 cf3e a739 75bf c658 87c0 555a 9dbf
000003f0: 7d76 8d3f 6af0 fabf 2a96 e73e c503 083e

net.0.bias f4 [32]
4.03298 -9.7473345 2.289514 2.5652194 -2.4645982 -3.037078 2.666181 4.3495913
0.79418933 -6.0408893 -6.0610433 -0.787284 3.3384666 -1.163776 -1.5506432 -6.640551
0.6070095 -4.5914273 2.887333 -1.4220632 -7.3152966 3.1066384 5.9261246 -2.356691
6.1389623 1.1392858 -4.4688406 -1.0902299 -0.15876369 -0.44648966 -5.735892 0.633702
00000000: 2c0e 8140 15f5 1bc1 6687 1240 8e2c 2440
00000010: fabb 1dc0 7c5f 42c0 b6a2 2a40 da2f 8b40
00000020: fe4f 4b3f f74e c1c0 11f4 c1c0 728b 49bf
00000030: 70a9 5540 9df6 94bf 7a7b c6bf 657f d4c0
00000040: f964 1b3f f9ec 92c0 10ca 3840 2b06 b6bf
00000050: e916 eac0 2ad3 4640 d0a2 bd40 06d4 16c0
00000060: 6172 c440 1ed4 913f be00 8fc0 a78c 8bbf
00000070: f392 22be 4b9a e4be 6d8c b7c0 4b3a 223f

net.2.weight f4 [32, 32]
1.7848403 2.0206351 0.9865863 -0.12976153 -0.70828867 0.87123305 -1.6375111 0.19593914
6.545044 2.7955668 -5.0585923 -4.9163537 1.4854347 -3.7950454 -6.379061 -1.2238772
3.4806745 6.320943 -3.6797104 0.89150167 -3.7335186 4.2199993 2.3664343 -1.1128726
6.6340494 0.7929512 2.0800757 1.7198452 2.6248548 -4.536952 6.677263 -5.946862
0.6703086 -1.7515533 0.096268654 1.1980405 6.3726387 3.4595861 3.3059206 -1.0054392
2.4637218 1.358281 -1.0869906 -3.0069144 1.936698 0.4113571 -5.894206 0.69162637
2.8233395 3.4443212 -1.6007508 -4.2340345 0.10642235 -8.573562 -1.7176181 -6.5850854
-1.6457846 -1.1694753 -5.505928 0.057435714 -3.2895105 -2.720499 -2.9533346 0.41551915
-7.392514 -1.3350974 2.9032826 -1.7412783 -6.751576 -1.5594851 8.798865 2.348611
5.21194 -6.2946305 -0.21867175 4.6398616 2.8914125 3.9057717 2.090721 -1.2878913
-1.9355639 -1.7019007 4.307885 -1.8309478 5.6594963 0.40605798 -1.3492334 -2.1465638
6.2523465 -2.4730597 -0.6878845 5.785347 -3.9454653 1.1939605 -4.2371426 0.84217393
3.2413325 2.1217628 7.859731 2.185715 5.095814 1.0621083 -0.9872022 5.892009
0.31495193 4.6713243 -1.019392 -0.51334155 2.1525915 -1.9050549 -3.1339061 12.075828
-4.187098 5.521133 1.8150535 -3.5580773 -3.0280273 0.9368574 -5.176213 -1.9761422
3.2442017 8.427953 -1.0953554 -0.91576594 6.3821125 3.5056636 0.62032276 0.18254514
-1.3137609 -2.7778 -1.924827 -2.642758 -2.9528859 -2.2376947 3.4963872 -1.1776766
-5.7078776 -2.9921322 1.5220205 9.215787 0.15845916 -0.30408671 -4.1276364 1.1083919
-7.0437956 7.539966 -4.845734 3.3654711 -8.095248 -0.04164785 3.9029658 -3.0944562
0.5834071 1.4595617 -0.017078165 -4.129936 3.0147457 -0.0865934 -1.8832327 9.8992815
6.7336955 -1.552541 -4.970083 3.9986238 4.175411 -1.5991898 3.9194021 3.6601899
-3.7257462 -4.0915546 2.185335 0.5608791 0.8250528 -0.65017986 3.6090634 -3.5230823
3.460945 -1.8280458 -1.6237353 3.3718972 0.6859739 -1.4994848 -1.1523013 -3.4209118
-2.720772 -2.423098 3.9004493 5.2553177 2.9147968 0.82742524 1.3248142 5.799982
-2.0548828 1.0534744 1.9823637 4.117468 -0.50775033 1.2015297 5.7944236 1.1112266
-2.13426 -1.4644822 3.5247521 4.0933256 -3.097686 -3.3269494 -5.1914997 -0.024000484
-3.2686148 -4.1285276 1.5752398 -2.8689806 -2.5396607 -8.64688 0.9774763 0.47472948
-0.6210944 -1.6816782 -1.003875 4.0534286 1.7454016 -1.9771688 2.768958 -6.003735
4.2069025 0.6972406 2.0807433 -1.0220907 -3.3923662 -3.2629118 -2.2796302 0.71867955
0.6210097 -2.1849504 3.1128528 -1.8619976 0.26981395 -5.205298 -0.3111378 -3.3797846
-2.3983233 -2.5393195 -7.2412667 1.4555596 1.6668168 5.187012 -0.1312624 2.7659643
0.21310416 0.12986684 6.1693444 2.8162422 3.7002792 1.8110182 0.94462746 -1.728551
00000000: a675 e43f 1652 0140 eb90 7c3f 35e0 04be
00000010: 6852 35bf 2109 5f3f f799 d1bf 45a4 483e
00000020: 0071 d140 91ea 3240 fddf a1c0 c552 9dc0
00000030: b922 be3f 06e2 72c0 4521 ccc0 02a8 9cbf
00000040: 5fc3 5e40 2a45 ca40 6080 6bc0 7439 643f
00000050: f8f1 6ec0 3c0a 8740 a973 1740 9c72 8ebf
00000060: 224a d440 dafe 4a3f f61f 0540 e323 dc3f
00000070: 9ffd 2740 b62e 91c0 23ac d540 b24c bec0
00000080: 5899 2b3f e632 e0bf 8028 c53d 6459 993f
00000090: a8ec cb40 dc69 5d40 3494 5340 3bb2 80bf
000000a0: 9ead 1d40 27dc ad3f 8222 8bbf 4971 40c0
000000b0: b8e5 f73f 669d d23e 569d bcc0 6d0e 313f
000000c0: 98b1 3440 c26f 5c40 67e5 ccbf 367d 87c0
000000d0: f6f3 d93d 4f2d 09c1 e9da dbbf 05b9 d2c0
000000e0: 12a9 d2bf 5eb1 95bf 9030 b0c0 b641 6b3d
000000f0: 5787 52c0 a81c 2ec0 6f03 3dc0 edbe d43e
00000100: 7a8f ecc0 79e4 aabf 62cf 3940 35e2 debf
00000110: e90c d8c0 359d c7bf 27c8 0c41 a54f 1640
00000120: 36c8 a640 9d6d c9c0 7deb 5fbe bf79 9440
00000130: e70c 3940 2af8 7940 5fce 0540 9fd9 a4bf
00000140: 8fc0 f7bf e2d7 d9bf 32da 8940 7f5c eabf
00000150: 981a b540 d5e6 cf3e aeb3 acbf 4d61 09c0
00000160: 3913 c840 9c46 1ec0 3319 30bf 9021 b940
00000170: 8182 7cc0 b3d3 983f ac96 87c0 b698 573f
00000180: fe71 4f40 f6ca 0740 eb82 fb40 c1e2 0b40
00000190: e910 a340 2af3 873f 49b9 7cbf 568b bc40
000001a0: 6141 a13e 7d7b 9540 707b 82bf 5a6a 03bf
000001b0: 0fc4 0940 d7d8 f3bf eb91 48c0 9736 4141
000001c0: b5fc 85c0 1fad b040 ac53 e83f 8ab7 63c0
000001d0: 33cb 41c0 e3d5 6f3f 89a3 a5c0 3af2 fcbf
000001e0: 00a1 4f40 e5d8 0641 9b34 8cbf a36f 6abf
000001f0: 443a cc40 cb5c 6040 79cd 1e3f 1ded 3a3e
00000200: 5129 a8bf 7ac7 31c0 bb60 f6bf f222 29c0
00000210: 15fc 3cc0 6436 0fc0 cfc4 5f40 1bbe 96bf
00000220: efa6 b6c0 187f 3fc0 91d1 c23f dd73 1341
00000230: 1e43 223e 41b1 9bbe 9915 84c0 c9df 8d3f
00000240: c666 e1c0 6747 f140 4110 9bc0 e163 5740
00000250: 2386 01c1 f096 2abd 31ca 7940 920b 46c0
00000260: 2b5a 153f ebd2 ba3f 82e7 8bbc 7028 84c0
00000270: 98f1 4040 e157 b1bd c50d f1bf 7563 1e41
00000280: 6f7a d740 aab9 c6bf ec0a 9fc0 74e9 7f40
00000290: f89c 8540 40b2 ccbf 7cd7 7a40 8d40 6a40
000002a0: a072 6ec0 04ee 82c0 87dc 0b40 c695 0f3f
000002b0: a936 533f 3072 26bf e5fa 6640 2e7a 61c0
000002c0: 1f80 5d40 68fd e9bf 8fd6 cfbf 2acd 5740
000002d0: fc9b 2f3f 1eef bfbf 9c7e 93bf 38f0 5ac0
000002e0: 2121 2ec0 0a14 1bc0 f6a0 7940 902b a840
000002f0: 088c 3a40 24d2 533f 8393 a93f 7499 b940
00000300: 3383 03c0 40d8 863f 18be fd3f 4cc2 8340
00000310: edfb 01bf bacb 993f eb6b b940 ac3c 8e3f
00000320: b797 08c0 2774 bbbf 8a95 6140 86fc 8240
00000330: 7d40 46c0 bdec 54c0 c420 a6c0 aa9c c4bc
00000340: fc30 51c0 e61c 84c0 75a1 c93f 619d 37c0
00000350: cd89 22c0 9f59 0ac1 e33b 7a3f be0f f33e
00000360: 0b00 1fbf 3b41 d7bf fa7e 80bf b0b5 8140
00000370: 5269 df3f de13 fdbf 9c36 3140 991e c0c0
00000380: f29e 8640 5c7e 323f e62a 0540 ded3 82bf
00000390: 871c 59c0 8cd3 50c0 76e5 11c0 62fb 373f
000003a0: 7efa 1e3f 3ad6 0bc0 fb38 4740 f055 eebf
000003b0: 0e25 8a3e cd91 a6c0 744d 9fbe 644e 58c0
000003c0: 217e 19c0 3684 22c0 75b8 e7c0 c74f ba3f
000003d0: 415a d53f 01fc a540 a769 06be 8f05 3140
000003e0: fa37 5a3e d0fb 043e 456b c540 503d 3440
000003f0: 60d1 6c40 72cf e73f 1bd3 713f 2941 ddbf

net.2.bias f4 [32]
6.372133 -2.4548783 -2.343219 2.6379478 6.3486023 1.5984349 -2.1827035 2.590604
-1.5657884 -1.2577446 5.9636106 -0.23904504 -0.8291657 3.8001502 0.56685656 -5.079959
5.4498982 4.5770535 -4.989486 -1.6507081 -2.7315423 -4.7982063 -5.727432 -0.68658173
1.450113 -1.2310188 -6.845792 -0.8764745 0.97605705 1.4870992 -0.5943429 -5.5431385
00000000: 83e8 cb40 ba1c 1dc0 4df7 15c0 23d4 2840
00000010: c027 cb40 8499 cc3f 6ab1 0bc0 75cc 2540
00000020: c16b c8bf c6fd a0bf e6d5 be40 39c8 74be
00000030: 3444 54bf a935 7340 831d 113f 068f a2c0
00000040: 9165 ae40 3977 9240 dfa9 9fc0 674a d3bf
00000050: 97d1 2ec0 e88a 99c0 1f47 b7c0 d2c3 2fbf
00000060: 4e9d b93f 0692 9dbf ba10 dbc0 a260 60bf
00000070: e0de 793f 4459 be3f db26 18bf 6461 b1c0

net.4.weight f4 [344, 32]
4.2315035 0.0926558 -0.97199076 0.82815504 -2.5137181 7.316147 2.5749533 -1.2138318
2.4063349 4.055594 0.9221997 -0.580712 4.236437 -2.1951435 -3.4903927 4.7985525
-5.0820746 0.36713675 -3.3026474 -3.1021678 -1.9812319 -6.06217 2.3975575 -3.7844684
-5.1029077 1.5155439 1.3296098 -0.28398088 -9.793228 -0.5978133 1.4805725 0.83587086
-4.7229476 -2.9561417 -2.6142848 0.4492328 3.3248916 2.1368933 -0.12909624 -2.9538968
2.6780639 1.5052345 -1.2124753 -0.899109 -1.057323 2.7034237 2.6990895 3.7615874
-7.111792 -6.678475 -2.880984 2.4051533 -6.6056595 3.6422586 2.9592624 5.167191
-2.8939977 -0.7122812 -1.6855105 -3.0627818 -0.36281535 -2.888682 -4.7534647 -4.1477613
2.4666605 -10.545803 -4.5589457 -0.9676434 -1.7357106 1.8570156 5.4537306 1.7403297
-2.2452564 3.7953413 -8.251537 2.0606441 4.0374074 6.9320407 0.21174774 -1.3594679
0.5169337 -0.06553263 0.29209262 -1.9907539 0.6898637 -5.328747 2.2427754 -0.42212945
2.284752 -3.121314 3.5433536 6.011069 2.666208 -0.85367954 0.010717844 3.4346023
1.4299393 -5.463566 2.331621 -8.43288 -6.2995844 0.91560477 -4.9059997 -2.1769469
-2.8295405 -0.8996267 -0.9886143 -1.947396 0.26784015 -6.350314 -8.59283 3.9089236
2.5893245 -1.8874729 2.0976684 -2.2892108 0.06986688 -0.348291 -0.13665758 1.003309
2.2283118 -0.43287545 -5.191026 1.4782676 0.5800647 -3.6076837 0.44536847 0.25072035
1.0656168 2.7258615 0.12979041 -1.3323859 0.07954181 0.6953238 -1.8113456 4.058409
1.7383275 4.875081 1.1621665 0.51193553 2.5560741 3.8775747 1.1650169 -6.151043
0.5089776 -5.167748 0.7564343 -0.042182703 6.3689857 -8.184514 3.9260948 1.796687
6.109429 -3.3856082 -1.8340541 -1.4130851 -6.6206007 -0.087292224 -0.5842608 5.030028
3.789746 -0.66902477 2.7738502 3.4130638 -2.1001384 2.0520484 0.4981468 7.8352246
0.2620688 -4.36295 1.6683478 4.4712896 -4.8497534 2.4208193 2.4356947 0.2023797
2.4139788 1.2444772 3.8916156 -2.770653 -2.2629113 -4.1324725 -0.44570798 -3.4192064
-2.0705328 2.263061 0.40712777 7.2670717 3.4606836 -1.0171802 -2.150377 -1.7066016
3.1724443 8.627516 1.2996924 -4.0115 -1.0758507 -6.10413 -3.961448 -2.4787679
2.008467 4.435575 0.31853592 -0.07062861 -5.4351735 0.4442394 11.3746605 1.22769
-0.17875989 -0.7880878 2.9205544 2.1624827 2.6781747 -2.0969064 3.0343282 1.0707111
-0.053036183 7.223342 -2.1014733 0.60913974 -2.6575718 -4.1501966 0.12761539 3.63139
0.7651714 -6.355831 -2.1262083 -2.3871727 -5.3881493 3.4774165 2.513534 -2.3508997
1.7783219 1.7439171 5.5447617 -2.293598 2.3016794 -0.7596524 2.2880173 -3.852968
4.1886344 -2.2463534 5.3476124 -5.4466677 -3.6035903 2.7290404 0.84603333 1.0353974
-4.3551764 -1.3032476 0.90105784 -1.3412359 -6.031828 0.83462316 0.32640204 2.244978
00000000: 7a68 8740 53c2 bd3d 63d4 78bf f801 543f
00000010: c2e0 20c0 e01d ea40 09cc 2440 d75e 9bbf
00000020: 6401 1a40 6dc7 8140 4815 6c3f 8ba9 14bf
00000030: e490 8740 3b7d 0cc0 9862 5fc0 be8d 9940
00000040: 5ba0 a2c0 59f9 bb3e 935e 53c0 eb89 46c0
00000050: 0299 fdbf 4cfd c1c0 9571 1940 bb34 72c0
00000060: 054b a3c0 58fd c13f a730 aa3f f165 91be
00000070: 10b1 1cc1 4b0a 19bf 6683 bd3f a2fb 553f
00000080: 6322 97c0 6d31 3dc0 7150 27c0 d701 e63e
00000090: 06cb 5440 dcc2 0840 ce31 04be a50c 3dc0
000000a0: 6665 2b40 86ab c03f 6432 9bbf 022c 66bf
000000b0: 5c56 87bf e504 2d40 e2bd 2c40 d9bd 7040
000000c0: cd93 e3c0 11b6 d5c0 0b62 38c0 08ee 1940
000000d0: 9061 d3c0 c41a 6940 8e64 3d40 a159 a540
000000e0: 4237 39c0 1058 36bf cfbe d7bf 9e04 44c0
000000f0: efc2 b9be 2ae0 38c0 621c 98c0 76ba 84c0
00000100: c4dd 1d40 9cbb 28c1 e2e2 91c0 7ab7 77bf
00000110: c42b debf b0b2 ed3f f684 ae40 20c3 de3f
00000120: 48b2 0fc0 dfe6 7240 4c06 04c1 98e1 0340
00000130: 7132 8140 47d3 dd40 66d4 583e 0b03 aebf
00000140: c455 043f f935 86bd 2a8d 953e 06d1 febf
00000150: e89a 303f 1885 aac0 a289 0f40 5a21 d8be
00000160: 6039 1240 9cc3 47c0 4ec6 6240 ad5a c040
00000170: 27a3 2a40 be8a 5abf e599 2f3c 86d0 5b40
00000180: 4008 b73f 88d5 aec0 4739 1540 14ed 06c1
00000190: 3296 c9c0 1365 6a3f f3fd 9cc0 1953 0bc0
000001a0: 3117 35c0 ef4d 66bf d415 7dbf 4644 f9bf
000001b0: 5822 893e c635 cbc0 3b7c 09c1 ce2b 7a40
000001c0: 7eb7 2540 b698 f1bf 3340 0640 6e82 12c0
000001d0: 5e16 8f3d 3353 b2be f7ef 0bbe 6e6c 803f
000001e0: a99c 0e40 daa1 ddbe e31c a6c0 df37 bd3f
000001f0: 1f7f 143f 4ae4 66c0 5607 e43e 6b5e 803e
00000200: 2266 883f 8474 2e40 c7e7 043e 9f8b aabf
00000210: d1e6 a23d be00 323f 2cda e7bf 7dde 8140
00000220: 8481 de3f aa00 9c40 dfc1 943f 350e 033f
00000230: b896 2340 2f2a 7840 461f 953f 58d5 c4c0
00000240: 5b4c 023f 315e a5c0 aea5 413f c5c7 2cbd
00000250: bbce cb40 c5f3 02c1 2345 7b40 d7f9 e53f
00000260: 7180 c340 cead 58c0 49c2 eabf f9df b4bf
00000270: f6db d3c0 44c6 b2bd 1e92 15bf fdf5 a040
00000280: 338b 7240 3545 2bbf c386 3140 a36f 5a40
00000290: ab68 06c0 c354 0340 190d ff3e 29ba fa40
000002a0: e22d 863e 499d 8bc0 6c8c d53f ce14 8f40
000002b0: 2e31 9bc0 b4ee 1a40 6ce2 1b40 a03c 4f3e
000002c0: a17e 1a40 074b 9f3f 3b10 7940 6152 31c0
000002d0: 8ad3 10c0 373d 84c0 d633 e4be 47d4 5ac0
000002e0: 9c83 04c0 fed5 1040 0d73 d03e da8b e840
000002f0: d77b 5d40 f632 82bf c79f 09c0 ec71 dabf
00000300: 5409 4b40 4e0a 0a41 525c a63f 355e 80c0
00000310: 7ab5 89bf 0855 c3c0 5d88 7dc0 22a4 1ec0
00000320: b98a 0040 3bf0 8d40 2417 a33e bca5 90bd
00000330: f1ec adc0 5973 e33e 9cfe 3541 f224 9d3f
00000340: d50c 37be 1fc0 49bf 5dea 3a40 1e66 0a40
00000350: 3767 2b40 b733 06c0 6f32 4240 100d 893f
00000360: 783c 59bd 9e25 e740 8a7e 06c0 95f0 1b3f
00000370: a815 2ac0 69ce 84c0 9cad 023e b268 6840
00000380: 46e2 433f f862 cbc0 cc13 08c0 70c7 18c0
00000390: b86b acc0 fe8d 5e40 bedd 2040 2475 16c0
000003a0: 0da0 e33f ad38 df3f b06e b140 4fca 12c0
000003b0: b74e 1340 9478 42bf e06e 1240 0797 76c0
000003c0: 4b09 8640 41c4 0fc0 a41f ab40 1a4b aec0
000003d0: 39a1 66c0 99a8 2e40 a495 583f e787 843f
000003e0: 9b5d 8bc0 d1d0 a6bf baab 663f 9ead abbf
000003f0: bc04 c1c0 dda9 553f 2b1e a73e b8ad 0f40

net.4.bias f4 [344]
-0.9875476 0.15575485 2.211994 1.0504769 3.0974033 -0.55100447 1.7664691 2.3799334
1.1410656 4.4855666 2.747853 -0.251202 1.1722912 -4.4351964 -3.0475402 -7.695527
-3.5029526 2.8490658 0.45195505 6.8841596 -1.4156588 0.03557222 0.74750763 1.3447683
2.700682 -1.5926504 -0.3045668 6.327195 5.973887 5.4249477 0.9911238 -1.8412693
-4.453431 -7.456781 -0.50445366 -0.67507696 -4.4967394 -2.3429272 5.5154734 -2.5229661
5.240701 1.8879375 5.463581 2.5200276 -0.82287616 -0.89307815 -8.510549 1.6744177
-1.0921472 4.775817 -5.188231 1.8966277 -4.746103 -3.0924613 4.6515713 2.249758
-0.5948625 2.2693336 0.6119007 -4.155574 0.68336093 3.6040974 -0.35816702 5.2885475
-5.806866 2.2014961 -3.3650804 1.3142503 3.3892357 1.5173309 -1.0808038 5.3209963
1.3253112 1.1055354 -0.20184956 -2.299752 5.423525 -3.0753198 5.0029893 1.3547282
-6.8187037 2.2350402 2.2663858 1.7974982 -1.7089325 1.2627376 2.1238117 6.342786
-2.5864189 -3.3853242 -1.2716931 -1.5549525 2.911438 -4.303327 1.8637017 -0.37016898
-2.0836682 -2.476714 3.853353 2.136023 4.8367844 -3.2639813 -4.5455484 5.05022
0.454909 -1.3054711 6.9698358 0.3574522 0.23022856 3.5553746 3.9003708 4.7360125
3.7372043 -2.3023639 4.35205 1.6712911 3.6603901 -4.724675 2.9718766 3.202087
-4.301402 7.636872 -5.0949826 -2.930409 -2.5339568 -0.106125355 4.412344 2.0175214
-2.438723 -0.92940253 -2.2230916 -0.898652 3.9284604 -1.078326 -3.9793713 -4.016634
-0.997393 -1.5205909 2.3232095 -5.4927382 0.3724673 -6.8621764 2.4670682 4.0132256
2.4497588 -0.43155146 5.893305 1.8384539 2.13439 -1.8826637 6.1502223 1.711431
-0.5583427 -2.5516164 -3.1393988 4.489037 3.2807584 0.30291322 0.9965389 2.2592435
3.3396528 2.5214918 -0.27131456 -2.3458393 -8.875554 -2.131821 -4.6206017 3.0413969
-0.9125898 1.275181 0.45047033 -1.8269258 -5.8507004 -5.876668 -3.4142165 -4.579888
-0.47575778 1.6504759 -9.047059 -3.9974496 1.0053642 -4.166301 4.130052 1.4642367
0.23408699 1.7796499 4.556328 0.47143838 -1.9663545 -2.474343 1.9592922 -3.174083
-3.0387394 2.5954268 -2.9253194 -1.8384135 -5.485259 -0.8195521 -3.6565442 -0.14019401
3.9913955 0.51249236 4.0461335 3.435073 4.1898923 -0.76462454 4.99559 -6.5380597
-4.7030144 0.9582709 -4.4648266 7.750444 -0.60093355 -3.423772 -1.7947962 -1.294157
-4.6821094 4.7366004 3.0613427 5.9419 -1.1985356 -1.0716957 5.9093013 2.9277432
-4.2668595 -0.6222386 3.0725164 2.3815434 -0.95170766 -0.6326757 -0.75629914 2.3863366
0.03789893 -5.733853 1.9071842 -5.556645 -1.7497119 1.018428 2.0375142 -1.1182703
3.745228 -0.20471898 3.4118633 -1.4790741 -2.945119 1.366352 -0.8309051 2.7137506
3.0551987 1.2772616 -0.9627896 0.59360677 -0.67655057 3.971436 5.162008 -2.9710555
00000000: ebcf 7cbf 337e 1f3e 4f91 0d40 0776 863f
00000010: db3b 4640 a10e 0dbf a91b e23f d450 1840
00000020: 700e 923f c389 8f40 d3dc 2f40 8c9d 80be
00000030: a30d 963f 21ed 8dc0 e60a 43c0 c241 f6c0
00000040: 6030 60c0 1857 3640 a766 e73e 094b dc40
00000050: 4f34 b5bf 2db4 113d a95c 3f3f 5e21 ac3f
00000060: f9d7 2c40 f8db cbbf 2ef0 9bbe 6278 ca40
00000070: 152a bf40 2c99 ad40 4aba 7d3f b6ae ebbf
00000080: 8282 8ec0 f39d eec0 e023 01bf d8d1 2cbf
00000090: 4ae5 8fc0 85f2 15c0 c27e b040 4778 21c0
000000a0: d3b3 a740 f0a7 f13f a8d5 ae40 2248 2140
000000b0: 03a8 52bf c5a0 64bf 352b 08c1 5253 d63f
000000c0: 7bcb 8bbf 7ed3 9840 fd05 a6c0 b2c4 f23f
000000d0: 13e0 97c0 e3ea 45c0 acd9 9440 09fc 0f40
000000e0: e948 18bf c33c 1140 86a5 1c3f 76fa 84c0
000000f0: bef0 2e3f 88a9 6640 ab61 b7be c83b a940
00000100: d9d1 b9c0 50e5 0c40 7a5d 57c0 5b39 a83f
00000110: 3de9 5840 e637 c23f c757 8abf 9a45 aa40
00000120: cca3 a93f 2f82 8d3f a7b1 4ebe 232f 13c0
00000130: 848d ad40 0ad2 44c0 7d18 a040 bc67 ad3f
00000140: d232 dac0 e60a 0f40 770c 1140 6c14 e63f
00000150: 4dbe dabf 63a1 a13f 88ec 0740 1af8 ca40
00000160: e387 25c0 27a9 58c0 d7c6 a2bf af08 c7bf
00000170: 0055 3a40 dbb4 89c0 c78d ee3f ca86 bdbe
00000180: d25a 05c0 7b82 1ec0 569d 7640 9ab4 0840
00000190: f0c6 9a40 12e5 50c0 2275 91c0 679b a140
000001a0: d5e9 e83e ad19 a7bf e508 df40 fa03 b73e
000001b0: 09c1 6b3e 428b 6340 ad9f 7940 6a8d 9740
000001c0: 5b2e 6f40 ee59 13c0 fe43 8b40 deec d53f
000001d0: d543 6a40 8a30 97c0 3a33 3e40 feee 4c40
000001e0: 16a5 89c0 4161 f440 190a a3c0 d28b 3bc0
000001f0: 592c 22c0 4058 d9bd ec31 8d40 121f 0140
00000200: 0a14 1cc0 53ed 6dbf 2247 0ec0 0f0e 66bf
00000210: e56b 7b40 9606 8abf 05ae 7ec0 4488 80c0
00000220: 2655 7fbf b9a2 c2bf 77af 1440 83c4 afc0
00000230: 09b4 be3e f396 dbc0 72e4 1d40 586c 8040
00000240: d9c8 1c40 50f4 dcbe f495 bc40 7552 eb3f
00000250: d999 0840 20fb f0bf 9fce c440 2c10 db3f
00000260: 8cef 0ebf af4d 23c0 e9eb 48c0 31a6 8f40
00000270: f2f7 5140 7117 9b3e 2c1d 7f3f 7297 1040
00000280: dfbc 5540 1f60 2140 bee9 8abe 3b22 16c0
00000290: 4502 0ec1 c16f 08c0 f8db 93c0 3fa6 4240
000002a0: 7c9f 69bf 2239 a33f 0ca4 e63e b4d8 e9bf
000002b0: f038 bbc0 aa0d bcc0 8682 5ac0 718e 92c0
000002c0: 8696 f3be cb42 d33f c1c0 10c1 37d6 7fc0
000002d0: c6af 803f 5652 85c0 6329 8440 1c6c bb3f
000002e0: 80b4 6f3e 91cb e33f 70cd 9140 5f60 f13e
000002f0: 81b1 fbbf a35b 1ec0 16ca fa3f 2d24 4bc0
00000300: b57a 42c0 791b 2640 6f38 3bc0 2251 ebbf
00000310: 3e87 afc0 2bce 51bf d204 6ac0 058f 0fbe
00000320: 0673 7f40 b332 033f ed79 8140 3cd8 5b40
00000330: 9913 8640 6fbe 43bf e0db 9f40 c937 d1c0
00000340: 187f 96c0 3e51 753f dcdf 8ec0 a303 f840
00000350: c8d6 19bf 151f 5bc0 e2bb e5bf f0a6 a5bf
00000360: d7d3 95c0 3b92 9740 0aed 4340 0b24 be40
00000370: 9d69 99bf 532d 89bf ff18 bd40 2560 3b40
00000380: 1d8a 88c0 074b 1fbf 1ca4 4440 356b 1840
00000390: 1da3 73bf 09f7 21bf d29c 41bf bdb9 1840
000003a0: e93b 1b3d b97b b7c0 9d1e f43f 09d0 b1c0
000003b0: 8ff6 dfbf d95b 823f a266 0240 7b23 8fbf
000003c0: d1b1 6f40 daa1 51be f85b 5a40 4d52 bdbf
000003d0: d47c 3cc0 9fe4 ae3f 32b6 54bf 17ae 2d40
000003e0: 6088 4340 4f7d a33f 6179 76bf 9df6 173f
000003f0: 6b32 2dbf 022c 7e40 2b2f a540 c625 3ec0
