dual/pg_same/es_selfplay/model.pth.tar (torch, 163543 bytes, 6 tensors)

net.0.weight f4 [32, 874]
000000 48 4a 2a 3f 17 c3 b5 3e c8 dd b1 3d dd 1c bd 3e
       0.66519594 0.35500404 0.086848795 0.36936083
000010 9c 98 31 bf 61 1c 2f 3e b4 25 47 3e c9 ad 05 be
       -0.6937349 0.1710067 0.19447976 -0.13054575
000020 fc f9 dc 3e 5e 68 21 be aa 5e a8 3d 99 67 e2 3d
       0.43159473 -0.15762469 0.08221181 0.11054916
000030 21 d4 13 3e 77 44 ae 3e 28 20 f1 bd f2 46 41 be
       0.1443639 0.3403661 -0.117737114 -0.1887472
000040 96 f2 7b 3e e0 74 20 3e 2f d4 96 be b2 df 04 3f
       0.24604258 0.15669584 -0.29458758 0.5190383
000050 b2 b8 cc 3e 49 42 86 3e f7 6b 03 be 0c ac 16 3f
       0.3998466 0.26222447 -0.12834154 0.5885627
000060 41 95 f6 3c d8 0c f1 3e e5 39 e9 3c 23 fc ea 3d
       0.030100467 0.47080112 0.02846999 0.114738725
000070 75 a6 94 be 77 1b 17 bf ec 14 92 bd 70 0c 11 bf
       -0.29033247 -0.59026283 -0.07132897 -0.56659603
000080 bc 1f 7e 3e 28 dd ef be ca 00 86 bd 9e 94 5c bd
       0.24816793 -0.46848416 -0.06543119 -0.05385267
000090 13 c4 4e 3d a4 c2 23 3e 8c 1b b1 bd 9d bf 83 bd
       0.05047996 0.15992218 -0.08647832 -0.06433032
0000a0 ff 5b 86 be 54 fe 01 3e 1c 35 24 3f 11 64 0f bc
       -0.26242062 0.12694675 0.6414354 -0.008751885
0000b0 71 87 38 be 03 bd 4b 3e fb 2b cb 3d 6e 37 ca 3d
       -0.18020417 0.19896321 0.09920498 0.098738536
0000c0 9a 34 0f bf 37 84 2e 3e e2 5f 9f be 1f b0 e6 be
       -0.5593964 0.17042623 -0.3112784 -0.45056245
0000d0 d6 c2 cf bd 8c a9 fe bd 4a 57 c6 be 73 67 15 3e
       -0.10144584 -0.12434682 -0.3873847 0.14590244
0000e0 22 2f 87 be f9 cb 42 be fd 0f aa 3e e4 c8 c0 3d
       -0.26403147 -0.19023122 0.33215323 0.09413317
0000f0 fa aa a8 be 2e 11 6f be 02 8a fa 3c 6d b9 c6 be
       -0.32942945 -0.23346397 0.030583385 -0.38813344
000100 84 8e 76 3e ed 2f 05 bf 21 43 86 be 57 98 3a 3f
       0.24077803 -0.52026254 -0.2622309 0.728887
000110 64 e1 06 3e bc ee 74 be 01 0a 60 be 01 e6 bc 3d
       0.13171917 -0.23919195 -0.21878816 0.09223557
000120 43 0f d3 3e 0b d2 27 3a 6c b1 14 3f 59 dc ac 3e
       0.4122258 0.0006401843 0.58083224 0.33761862
000130 6f 5f ed 3e 11 df ba be 0d c9 3e 3f 98 91 e0 be
       0.46361873 -0.3649831 0.7452553 -0.4386108
000140 4f d2 e7 3e ef 21 9c 3e 07 a8 30 3e e7 29 e0 3d
       0.4527764 0.3049464 0.17251597 0.10945492
000150 e0 b4 15 3e 0c a4 58 3e c2 ca 46 be 68 24 67 3e
       0.1461978 0.21156329 -0.19413283 0.22572482
000160 fa bb eb 3d e7 f4 5a bc 39 5b e6 3d 55 81 1f bf
       0.11510463 -0.013364053 0.11247868 -0.6230672
000170 53 b3 a4 be b2 b6 18 be ea 92 34 3e fc d5 a7 be
       -0.32168064 -0.14913443 0.17634168 -0.32780445
000180 2c 18 07 3e 33 a9 20 bd 15 bf 1c bf f7 c0 6a 3e
       0.13192815 -0.03922386 -0.6122907 0.22925173
000190 16 37 63 3e 4a d5 28 be c9 e8 d8 bd 22 38 d9 3e
       0.22188982 -0.16487613 -0.10591275 0.42425638
0001a0 a7 45 a1 3e 56 64 b3 3d 25 ea 7e 3e 45 d0 ff bd
       0.31498453 0.08759372 0.24894007 -0.12490896
0001b0 49 86 23 3e 70 5e 0d 3f d4 b8 af 3e 67 e0 46 be
       0.15969194 0.55222225 0.343207 -0.1942154
0001c0 dd 6d 23 3e 63 7f cd 3e 29 6c 42 be 65 4b f8 3e
       0.15959878 0.4013625 -0.18986572 0.4849502
0001d0 ea cd 38 3e cb 1c 42 bd 1e 9f 0c bd db bf cb 3d
       0.180473 -0.04739074 -0.034331433 0.09948703
0001e0 9d f2 96 be e1 74 1c bd ec 48 f8 be af 36 83 bc
       -0.29481974 -0.038197402 -0.48493135 -0.016017286
0001f0 05 89 a0 be dd e8 01 3d de 6c 9e bc 7d 97 71 3d
       -0.31354538 0.031716216 -0.019339021 0.05898236
000200 30 69 98 3e 12 a7 65 be ac ca 16 3e ab 43 02 be
       0.29767752 -0.22427014 0.1472575 -0.12721126
000210 3f 0a 77 be 13 97 82 bd 1e 56 37 be 86 63 6d 3e
       -0.24125002 -0.06376471 -0.17903945 0.23182496
000220 40 58 8e 3d 49 96 76 3e af 5d 29 bf e9 bd f2 bd
       0.06950426 0.24080767 -0.66158575 -0.11852629
000230 ed 4a c8 3d e3 dc 8d bd 98 0a 7a be a9 dd d0 be
       0.09779916 -0.069268964 -0.24418104 -0.40794113
000240 2e f8 03 3f f1 34 91 3d 78 57 eb bd 33 71 7e be
       0.5155057 0.07090176 -0.11491293 -0.2484787
000250 bc 12 bc 3d c5 d0 d4 3d ab 91 92 3d 27 cb 50 bd
       0.09183261 0.10391382 0.0715669 -0.05097499
000260 09 48 89 be a1 64 6a bd e4 2e e7 bd 5d 18 76 be
       -0.2681277 -0.057224873 -0.112882406 -0.24032731
000270 7c 41 80 bd 6d b6 94 3d 57 fb 7f 3e 9a 9f 8f 3e
       -0.0626249 0.072613575 0.24998222 0.28051454
000280 7c 2a 64 be e9 bd 72 3e 85 a5 87 3c b7 0d a7 3e
       -0.22281832 0.23705257 0.016558418 0.3262765
000290 17 18 c2 bd 9a bd 8a 3e 1c 0e e2 bc bc b4 96 3d
       -0.09477251 0.2709778 -0.027594618 0.07358691
0002a0 de 3d a4 3e d2 b7 19 be b9 60 5e 3d eb cc 4f 3d
       0.3207845 -0.15011528 0.05429146 0.050732534
0002b0 66 f6 90 be f5 e9 fb be 78 bd 72 be 11 92 b7 3d
       -0.28312987 -0.49201933 -0.23705089 0.08963407
0002c0 87 c1 eb 3e bb c9 e8 be 9e bb d6 be ed e5 a8 be
       0.46046087 -0.45466408 -0.41940016 -0.3298792
0002d0 c7 d3 e6 3d 3e 18 21 3f fa f3 16 3f f9 5b 04 bf
       0.11270862 0.62927616 0.5896603 -0.5170284
0002e0 1d 4c 25 3d 78 64 93 be 61 4e 42 be 21 65 64 3e
       0.04035579 -0.2878759 -0.18975212 0.22304203
0002f0 ed 70 62 be 8a 33 53 3c 0a d3 9f be d0 a4 72 3e
       -0.2211339 0.012890706 -0.31215698 0.23695683
000300 2a 7d ab be b3 2d bb 3d c5 01 b7 3e e2 92 0c 3d
       -0.3349393 0.09139576 0.35743538 0.034319766
000310 1d 2c a2 3e 38 83 7e 3e 38 b2 85 bc cf a0 af 3d
       0.3167428 0.24854743 -0.016320333 0.08575594
000320 4d 90 95 3d 78 fc 05 be a6 56 ba be da 0e 6b be
       0.07302914 -0.1308459 -0.36394233 -0.22954884
000330 c2 37 8c be d9 40 09 bd df 5c aa 3e a7 bb 83 be
       -0.2738629 -0.03350911 0.3327398 -0.25729105
000340 18 5f 4f be 76 39 8e 3e 41 1c 8b be 0c fb 85 3d
       -0.20251119 0.27778214 -0.27169994 0.06542024
000350 8d f8 49 be 1a 8c f0 bd 99 69 36 be 5f 6a 74 3e
       -0.19723721 -0.11745472 -0.1781372 0.23868702
000360 42 36 28 be 28 18 22 be bd 30 29 3e d3 c8 09 be
       -0.16426948 -0.15829527 0.16522498 -0.13455515
000370 81 a2 b6 bd 6f dc 80 3e 1c bc 16 be c6 04 66 be
       -0.08917714 0.25168177 -0.14720196 -0.22462758
000380 e9 f4 a1 3d c8 a3 26 3e 12 ff 00 bf 5e 45 03 be
       0.07908041 0.16273415 -0.50389206 -0.1281943
000390 05 ab 8a 3d 69 f0 f1 3c 36 c4 1e bf 9f 82 2d be
       0.06770901 0.029533582 -0.62018144 -0.16944359
0003a0 e7 b6 3b 3d 6d 2b 8d 3e 89 50 30 3e 5f c1 c2 3d
       0.045828726 0.27572194 0.17218222 0.09509539
0003b0 23 46 18 3e 4f 7e 70 bd 07 02 a0 be b2 7c fb 3b
       0.14870505 -0.058714207 -0.31251547 0.007674777
0003c0 bd 73 91 be 56 2e 61 be 65 bd 13 be db d3 5e 3e
       -0.28408614 -0.21990332 -0.14427717 0.21760504
0003d0 a8 12 f7 3e c1 98 1c 3e 4b 18 20 be 6f f8 d2 bd
       0.4825642 0.15292646 -0.15634267 -0.10301291
0003e0 6f 6b 81 be ed 32 e4 be 25 82 84 3e 22 75 87 be
       -0.25277278 -0.44570103 0.25880542 -0.26456553
0003f0 b5 83 1e 3d 5d 72 75 bd cc 20 e3 be 97 fc 89 3e
       0.038699824 -0.05992352 -0.4436096 0.26950523

net.0.bias f4 [32]
000000 76 a3 a3 bd cf 8a d2 bd 16 09 04 3e 70 d7 92 3e
       -0.07990162 -0.10280382 0.12894091 0.2867999
000010 26 85 ef bd 72 f3 b2 3d 6f 4a 6f 3d e9 78 d0 3d
       -0.11695318 0.0873784 0.058420595 0.10179312
000020 40 42 ca 3e a7 fa 6c bd d7 10 3f be 06 fe 80 be
       0.3950367 -0.05785623 -0.18658768 -0.25193805
000030 fa ed 3e be a4 ae c8 3e 18 e5 c3 be b4 ec 99 3e
       -0.18645468 0.3919574 -0.38260722 0.30063403
000040 30 94 0e 3f 26 d9 27 3f 00 6b b6 3e de 4b fb be
       0.55694866 0.6556572 0.3562851 -0.4908132
000050 3e 2e e6 3e 98 09 e2 3d 44 43 1c be ae b0 03 be
       0.44957155 0.11036986 -0.15260035 -0.12860367
000060 1b 63 d6 be a1 8c 11 3e a3 f7 95 be 0a 4f d4 bd
       -0.41872486 0.14213802 -0.29290494 -0.10366638
000070 00 c3 92 3e ef 81 ee bd e9 71 ae 3e 7f a3 a5 bd
       0.28664398 -0.116458766 0.34071282 -0.08087825

net.2.weight f4 [32, 32]
000000 c5 28 34 3d 7f c3 13 3d 79 66 63 be ef 45 b9 3e
       0.043984193 0.03607511 -0.22207059 0.36186168
000010 6c 64 37 bf 18 57 f4 3e 4f 22 e3 bc 0f 29 2c 3e
       -0.71637607 0.47722697 -0.02772632 0.16812538
000020 75 4e 50 3e 35 6d 2e bf 6a 91 aa 3e dc d3 f6 3e
       0.20342429 -0.68135387 0.33314067 0.4820851
000030 84 36 82 3e 5b 99 05 3f 08 ac 97 3e 3e d8 36 bd
       0.25432217 0.52187127 0.29623437 -0.04463982
000040 22 61 e2 3e e2 5e 0c bf 02 ee 01 bd 6f ae 25 be
       0.4421473 -0.5483228 -0.031721123 -0.16179822
000050 38 a0 f2 bd 9c f1 de 3d b9 00 b3 3e 8f b9 c1 bb
       -0.118469656 0.10885927 0.3496149 -0.005912013
000060 63 9e 9a 3e bc 60 7d 3e 21 2f c1 be ca 46 00 bf
       0.30198964 0.24743932 -0.3773127 -0.50108016
000070 a7 7e 6f 3e 7a d4 10 bf 9d 10 09 3d 21 6a 20 be
       0.23388158 -0.56574214 0.03346311 -0.15665485
000080 ce 8d 43 bd 08 04 a6 be ea b2 a7 bd a9 ca 59 3e
       -0.047742657 -0.3242495 -0.08188422 0.21268715
000090 ae ca f4 3c 94 d7 bf 3d 22 8f 7e 3d b4 fb e5 bd
       0.029881801 0.0936729 0.06214822 -0.11229649
0000a0 9e aa bb be 92 23 73 bd 5f 9b 5d 3e f3 09 1e 3f
       -0.36653608 -0.059360094 0.216413 0.6173393
0000b0 8e 8f 81 be 61 fb 3b bc c6 e7 5e 3e 77 35 04 be
       -0.25304836 -0.011473508 0.21768102 -0.1291102
0000c0 f2 d8 b6 bc 1f e6 58 3e 98 be 0a 3e c5 05 7c 3e
       -0.022320244 0.21181534 0.13549268 0.24611576
0000d0 fa 4a 9d 3c e5 d3 d3 be 80 e4 1d bf 3a 8d 96 be
       0.01920079 -0.413726 -0.6167679 -0.29404622
0000e0 65 c2 92 be ec 9e 60 bc c6 86 07 be 10 61 92 bd
       -0.28663936 -0.013709765 -0.13235006 -0.071474195
0000f0 95 92 c6 3c db 33 f7 3e 83 ae b7 3d 72 42 aa bd
       0.024239818 0.4828175 0.08968832 -0.08313455
000100 28 3e f0 3c e5 c8 8b be 4c 18 39 be 4e e4 dd be
       0.029326513 -0.27301708 -0.18075675 -0.43338245
000110 25 a4 e4 3d c5 7a 97 be a8 4f b0 be 2f 34 84 3e
       0.111641206 -0.29585853 -0.34435773 0.25821063
000120 d1 d0 fd 3c dd 6b 91 be 6f ac 2f 3e 67 7b ac bd
       0.03098336 -0.28402606 0.17155622 -0.08421975
000130 78 96 ab bd cb 55 99 3e 3e a0 9f 3d 2c 87 84 3e
       -0.08378309 0.29948267 0.07794236 0.25884378
000140 0c 29 03 bf 61 95 c2 3d e1 b6 1e 3e be 8e 13 bf
       -0.5123451 0.09501148 0.1549945 -0.5763968
000150 36 b0 31 bf 5f ff d7 be 3f 87 b9 bd 5d 4a 0b 3f
       -0.694095 -0.4218702 -0.09058999 0.54410344
000160 fc 08 1b bd e9 c9 22 be 31 22 3c 3e 32 61 b4 be
       -0.037850365 -0.15897335 0.18372418 -0.35230404
000170 90 d0 2b 3f de 09 71 be f5 a8 8a be 46 d5 a4 3d
       0.67115116 -0.2353892 -0.2708203 0.08048491
000180 8f 2a bb be ac 11 40 3e 40 8b a3 3c 99 0c 3c 3f
       -0.36555907 0.18756741 0.01996386 0.7345672
000190 ed e2 a9 be 36 02 03 3e ec 46 94 be 5b 9f 2a bd
       -0.33180943 0.12793812 -0.2896036 -0.04165588
0001a0 17 ff 9c bc 5d 28 9d be 61 58 6f 3d ab 38 89 be
       -0.019164605 -0.30694857 0.058433894 -0.26801047
0001b0 e4 51 b0 be 53 85 39 3f 89 c2 8a be 2f 01 ae be
       -0.34437478 0.7246906 -0.27101544 -0.33985278
0001c0 47 3a 9b 3c 85 96 5b be 07 7a b4 3c f6 73 90 3e
       0.018948687 -0.21444137 0.022030843 0.2821347
0001d0 cb d6 0b bd 7b 9c 1a be 63 98 83 be df bf b4 3e
       -0.03414039 -0.15098755 -0.257022 0.35302636
0001e0 b4 34 ad be f8 ed 5f bb 5e 36 72 be 5a a0 70 3f
       -0.33829272 -0.003416894 -0.23653552 0.9399468
0001f0 57 da d2 3c 18 84 2f 3f a5 27 12 3e 39 04 18 3f
       0.025738878 0.68560934 0.14272936 0.59381443
000200 69 65 09 be 4a 4b 3e bd 3e d4 95 3e 5d 97 8b 3e
       -0.13417591 -0.04645852 0.2926349 0.2726392
000210 97 da bd be 1d 2e c8 be c0 6c 8e 3d 9a 39 8d bd
       -0.37080833 -0.39097682 0.06954336 -0.06895752
000220 25 21 04 3d 79 ca 57 be 36 be 20 be 77 a2 d6 3e
       0.03225817 -0.21073331 -0.1569756 0.41920826
000230 7f 71 a1 bd 29 c8 fc 3e f8 f0 83 be a6 13 10 3d
       -0.07882976 0.4937146 -0.25769782 0.03517499
000240 42 ef b4 be bd be 93 be 68 d8 5d 3e b5 ea c9 3e
       -0.3533879 -0.2885646 0.21664584 0.3943688
000250 bf eb 92 3c f0 07 6a 3d 8c 97 03 bd a9 39 d1 3d
       0.017934678 0.057136476 -0.03212695 0.10216076
000260 18 4b 8e be 7d fa db be 39 e4 e1 be 20 ec 21 bf
       -0.27791667 -0.42964545 -0.44119433 -0.63250923
000270 b6 b0 3b 3e 8c e3 2d bf f8 ee 40 be 87 0d 90 3e
       0.18329129 -0.67925334 -0.1884116 0.2813532
000280 f3 dd 12 3e 5d fc 95 be 66 02 9a 3d ed 89 70 3d
       0.1434248 -0.292941 0.07519989 0.058725286
000290 90 bb 3f 3e 46 d4 ae 3d 3d b6 9b bc 34 84 94 be
       0.18723893 0.08536582 -0.019007796 -0.29007113
0002a0 62 48 0a be b1 06 78 be 30 eb c8 3e 8e ea 24 3e
       -0.13504174 -0.24221303 0.39241934 0.161051
0002b0 39 54 bb bd f0 ac 08 3d e7 84 8c be 80 fa 48 bc
       -0.091469236 0.03336805 -0.27445146 -0.012266755
0002c0 ac 7e 92 bd ea 24 01 3e c8 3f c9 be 9c 91 07 3f
       -0.07153067 0.12611738 -0.39306474 0.5295656
0002d0 e4 09 59 be 64 28 bf 3e ca e0 28 be e3 13 14 3e
       -0.21195179 0.37335503 -0.16492 0.14460711
0002e0 bb 1a b0 bd bb 93 12 3e b7 54 15 be 80 d6 09 be
       -0.085988484 0.14314167 -0.14583097 -0.13460732
0002f0 44 7d ed bd c1 84 c5 be 39 af b6 be 54 3e 87 3e
       -0.11596158 -0.38577846 -0.3568056 0.2641474
000300 3d ab 35 3c 12 dd 85 3d c3 51 c9 3e f2 5e e3 bd
       0.01108819 0.065363064 0.39320192 -0.11102094
000310 18 37 1c 3e 5e 72 f7 bd 76 12 81 3d 62 98 27 3f
       0.15255392 -0.12082361 0.06302349 0.6546689
000320 be 3c e4 3e 3b 60 a6 3c e3 f4 fe 3e e3 d2 22 be
       0.44577593 0.020309558 0.4979621 -0.1590076
000330 f9 01 22 be 45 af 2d be 69 c4 fc bc c4 6f 99 3e
       -0.15821065 -0.16961391 -0.030855374 0.29968083
000340 6e 10 e6 be 71 d4 28 be 68 c6 13 be 93 0a 95 be
       -0.4493441 -0.1648729 -0.14431155 -0.2910963
000350 3e df 07 be 10 f6 68 be b9 bb e2 bd d2 95 d0 bd
       -0.13268754 -0.22750115 -0.110709615 -0.10184826
000360 e9 a9 58 3e 1e fa 17 3d 30 99 6f be b1 61 fd bc
       0.21158566 0.037103765 -0.2339828 -0.030930372
000370 25 61 87 bd ec d5 9f 3d 6e 20 ee be cb 52 4c 3e
       -0.06610326 0.07804474 -0.46509117 0.19953458
000380 cc 28 b1 3d e0 c4 b0 bd 13 14 0a 3c 02 38 74 be
       0.086503595 -0.08631301 0.008427638 -0.2384949
000390 c8 70 ab 3e 22 ea 8c be 31 d5 40 3e 22 cf 09 bf
       0.33484483 -0.2752238 0.18831326 -0.53831685
0003a0 de 0e 34 be bd e5 68 bd 34 20 61 3e ca 06 15 be
       -0.17583796 -0.05685972 0.21984941 -0.14553371
0003b0 31 99 37 3e 1f f2 9c be 96 d4 ad 3d 36 9d 9c 3e
       0.17929532 -0.30653474 0.08487813 0.30588692
0003c0 7f d7 9a be 7e 68 72 be 9a 73 a7 3e a9 a3 d8 be
       -0.30242535 -0.23672673 0.32705384 -0.42312363
0003d0 8c 0d 12 3e 43 99 95 be c4 f7 1a be f7 c8 e8 3e
       0.1426298 -0.29218492 -0.15133578 0.45465824
0003e0 bf ed a7 3d 14 b2 e1 bd 70 6c a5 be a8 f6 cc be
       0.08199643 -0.11020294 -0.32309294 -0.40031934
0003f0 0e bb 43 be e6 e3 95 be 23 83 87 bd 54 db 69 bd
       -0.19114324 -0.29275435 -0.06616809 -0.057093933

net.2.bias f4 [32]
000000 64 49 0f 3d 1f 30 e9 bd 2a af 42 3f 86 6c f0 be
       0.0349821 -0.113861315 0.7604853 -0.46957797
000010 7a 1f 06 ba d1 43 c3 be d4 58 3b 3e de 79 50 be
       -0.0005116385 -0.38137677 0.18295604 -0.20358989
000020 77 5b 1f 3e 4e 16 40 3e a6 7b 3c 3d 9a ae db be
       0.15562235 0.18758509 0.046016358 -0.42906648
000030 76 3f 90 bc c6 04 2f bf c0 eb 93 bd c3 f1 19 3f
       -0.017608386 -0.6836666 -0.072227 0.60134524
000040 66 34 2e 3e 92 e5 35 bd 91 4d c9 3d 12 af 19 3f
       0.17012176 -0.04440839 0.09829248 0.6003276
000050 bd 08 a3 bd 13 1f b2 be 62 00 73 bc 9e 56 a7 be
       -0.07960651 -0.34789333 -0.014831634 -0.3268327
000060 31 12 c6 3e f3 aa ef 3c d2 9d 40 bd 50 0b 1a be
       0.38685754 0.02925632 -0.04702551 -0.15043378
000070 a0 ae 56 bc 0e 3d f0 be ee c8 01 bf 34 d2 cb bd
       -0.013103157 -0.4692158 -0.5069722 -0.099522024

net.4.weight f4 [344, 32]
000000 b1 a2 1d 3e 8e 3c 28 3b 45 12 a6 3e b5 36 b9 be
       0.15394093 0.002567086 0.32435814 -0.3617455
000010 81 d0 43 3f f2 19 20 3e 58 5d d7 bd 08 2d 1e be
       0.76490027 0.15634897 -0.10515851 -0.15446866
000020 1d 2e 08 bf 4f 07 48 3e fc 8a 93 3e 8c 23 1d bf
       -0.53195363 0.19534038 0.28816974 -0.61382365
000030 b5 93 47 be a8 72 8b 3e 78 28 35 be 08 d1 0a 3e
       -0.1948994 0.27235913 -0.17691219 0.13556302
000040 2c d2 99 bd 7b 0a a9 3d 23 53 77 bd 02 0b 10 bf
       -0.0751079 0.08253952 -0.06038202 -0.56266797
000050 76 f1 20 3e e4 d9 32 3d 7d 3f 2a bd 19 b6 50 be
       0.1571711 0.043664828 -0.041564453 -0.20381965
000060 14 34 54 bd f0 fe 8a be 0f 49 3d bd 81 b8 d9 bd
       -0.051807478 -0.27147627 -0.046212252 -0.106308945
000070 a5 f8 16 be 75 e0 8f be 1a 6e c5 be dc 67 8c be
       -0.14743288 -0.28100935 -0.38560563 -0.27422988
000080 69 a0 96 3d 69 2c 28 3e 8b 19 34 bf 02 70 13 bf
       0.073548146 0.16423191 -0.70351475 -0.57592785
000090 4e be ac be 21 84 c3 be 36 5c 15 3f 00 c6 a7 be
       -0.3373894 -0.38186744 0.5834383 -0.3276825
0000a0 86 39 22 be 40 ba f9 3e b0 1e 40 3f c6 47 56 3e
       -0.15842256 0.4877491 0.75046825 0.20925817
0000b0 95 03 b2 3e 27 7a 09 3e 50 05 99 be 01 bf ed be
       0.34768358 0.13425504 -0.29886866 -0.46434787
0000c0 d8 d1 17 bf df f5 43 3e ba 1f 7c be e0 f2 37 3e
       -0.5930457 0.19136761 -0.24621478 0.17963743
0000d0 0a c8 4b 3e d4 c4 cd 3c 8b fd a9 be 90 0f 0d 3f
       0.19900528 0.025118269 -0.3320125 0.5510187
0000e0 23 1e 0a 3f e8 73 2b 3e 41 a2 15 3f 2f b9 20 be
       0.53952235 0.16743433 0.58450705 -0.15695642
0000f0 58 40 52 bc 12 81 29 3d 03 bd 70 be 78 f1 9a bd
       -0.012832724 0.041382857 -0.23509602 -0.07565588
000100 78 49 ef 3c 05 23 7d 3b 31 e4 ae be d1 59 4a bf
       0.029209837 0.003862561 -0.3415847 -0.790433
000110 67 4a 6f 3e 1a 84 01 bf 16 e9 21 3f 26 51 3d be
       0.23368226 -0.50592196 0.63246286 -0.18487987
000120 a4 2e 0e bf bd 67 1a 3f 97 bc bd be 60 3f 2a be
       -0.5553992 0.6031454 -0.37057945 -0.16625738
000130 d2 4f 6d 3e ae 1f 88 3e 87 e9 80 3e 91 01 07 bd
       0.2317498 0.2658667 0.25178167 -0.03296048
000140 65 f2 49 3d e7 7e 0e be b7 ed ab be ce 0d b9 3d
       0.04930343 -0.13915597 -0.335798 0.09035836
000150 83 62 03 bd c9 c9 97 bd 69 f6 f9 3e 09 9e 81 3e
       -0.03207637 -0.07411534 0.4882081 0.25315884
000160 41 c5 4b bd 77 30 10 be 23 47 68 3e b5 45 cc be
       -0.049748663 -0.14080988 0.22683387 -0.39896932
000170 a1 70 56 3d 99 a0 65 bd aa 95 f5 3d d4 5e 83 3e
       0.052353505 -0.05606136 0.11991437 0.25658286
000180 8e 89 40 be f2 18 66 be 80 7e 80 bd db 9b 33 be
       -0.18802473 -0.22470453 -0.06274128 -0.17539923
000190 45 f8 81 bd ea 2e 12 be 26 8e 1f 3e 93 d5 19 bd
       -0.06346182 -0.14275709 0.15581569 -0.037557196
0001a0 e4 93 a6 3e 31 f4 d4 3d 01 ce ed 3d e6 c9 d5 3e
       0.32534707 0.10398138 0.11611558 0.417556
0001b0 4c d9 68 be dd 1f aa 3e 99 0d ae 3e d8 d2 b7 3d
       -0.22739142 0.33227435 0.3399475 0.08975762
0001c0 77 ed 35 be 2b 72 e7 3e e8 6c 2e 3f 69 0a 6c be
       -0.17766367 0.4520429 0.6813493 -0.23050846
0001d0 53 d0 9f 3e b6 bf ff 3d d2 39 7a be 49 c0 5e be
       0.31213626 0.12487738 -0.24436119 -0.21753038
0001e0 b8 5e 92 3e cd 2d f8 3e 00 9f 0e 3f 1b 2e 95 3d
       0.2858789 0.48472443 0.55711365 0.072841845
0001f0 c4 7d 73 be 29 ba 86 3e 79 91 f9 bc f1 48 f4 be
       -0.23778445 0.26313904 -0.030464875 -0.477119
000200 84 38 4f 3d 51 91 ad bd 82 d3 2d be bd f8 03 3e
       0.050591007 -0.084749825 -0.16975215 0.12887855
000210 c3 48 95 3e 3f 27 c4 be fc d2 3e 3f 06 22 f3 3e
       0.29157075 -0.38311192 0.74540687 0.47486895
000220 9f 75 a7 3d 86 22 65 3e 4b 33 5a bf 61 f8 42 3d
       0.08176731 0.22376451 -0.85234517 0.047600154
000230 bc 16 aa 3e e1 ad d1 bd 82 ed 35 3f 34 a7 15 be
       0.3322047 -0.10238243 0.71065533 -0.14614564
000240 88 48 c2 3e 65 ea 78 bd 40 73 ad be e1 47 3b 3e
       0.37945962 -0.06077041 -0.3387699 0.18289138
000250 07 25 03 be 4a d1 77 3e 15 b6 bb 3c 79 0e ee 3d
       -0.12807094 0.24200931 0.022913972 0.11623854
000260 df d8 3c be 57 e1 1a 3e 64 ed cb 3e 12 8e 3c be
       -0.18442105 0.15125023 0.39829552 -0.1841357
000270 8e 57 df bc 8c 1b a7 3e 5f 45 c6 be 2a 62 e1 3e
       -0.027263429 0.32638204 -0.387248 0.44020206
000280 68 d2 0a be d6 71 a4 3d 89 40 a6 3e 80 6b 87 3e
       -0.13556826 0.08029525 0.3247111 0.26449203
000290 c2 1b ce bd ed f1 0a 3e 8a 57 8e be eb b5 d9 3e
       -0.10063888 0.1356885 -0.27801162 0.42521605
0002a0 5d a3 1c bf a8 13 ac 3d d6 da bf ba ba 79 2f 3f
       -0.6118677 0.08402187 -0.0014637362 0.68545115
0002b0 6c 9e 4d bd 63 b7 00 be 84 73 ca 3c 17 4e 4c be
       -0.05019991 -0.12569956 0.024713285 -0.19951664
0002c0 f8 cb e4 be 67 60 3a be 75 5d 55 3e 7d 1c a5 be
       -0.44686866 -0.18200837 0.20836432 -0.32248297
0002d0 fd 0c b3 be 9d 34 c3 3e 2f 44 01 bd 8a e9 14 bf
       -0.34970847 0.38126078 -0.031559166 -0.5816885
0002e0 01 2f cf 3d 3e 5d 8f 3d 38 82 2e 3e c7 63 1a 3f
       0.10116387 0.070002064 0.17041862 0.603085
0002f0 bc 2b d4 be ab 23 46 3f 76 54 c9 3e 08 a5 86 3e
       -0.41439617 0.77398175 0.3932225 0.26297784
000300 3f a4 5b bd 6c f5 21 bc 86 2d f3 3e 44 98 c8 3e
       -0.053623434 -0.009885173 0.4749567 0.3917867
000310 21 f9 1f 3f da 21 6d bd a9 03 41 bd fe ea 90 3e
       0.62489516 -0.05789361 -0.04712263 0.28304285
000320 78 ff 69 3e 5c 3e 10 3d 90 ee f1 be d3 e1 aa be
       0.2285136 0.03521572 -0.4725232 -0.33375415
000330 8c 4b 0a be 00 a7 87 bd f3 ab 6b be 5d f5 a4 3c
       -0.13505381 -0.066236496 -0.23014812 0.02013653
000340 f6 ab a2 3d 5e 5d ae be 3c 57 1d 3f 84 a5 cc be
       0.07942955 -0.3405561 0.61461234 -0.39970028
000350 a7 0f b3 3e 5a 8f 0c bf 76 db 77 3e 10 7b 68 be
       0.3497288 -0.5490624 0.24204811 -0.22703195
000360 08 00 15 be de 80 93 be a4 b6 d1 3d 1b 5f 85 be
       -0.14550793 -0.28809255 0.10239914 -0.26049122
000370 94 69 36 be 9b 1a b0 3e 49 42 1c bd fa 75 e5 3e
       -0.17813712 0.34395298 -0.038149152 0.4481657
000380 b0 7f a2 3e 6a 64 27 be d2 7f 10 3f 3f b7 15 3e
       0.31738043 -0.16346899 0.5644504 0.14620684
000390 88 7b ac be db f6 c4 bd 87 39 0e be 85 4f ba be
       -0.33687997 -0.096173964 -0.13889132 -0.36388794
0003a0 81 4c 48 bf 65 67 44 be 18 e1 dd 3d 2f 4a 4d 3d
       -0.78241736 -0.19180067 0.10833949 0.050119575
0003b0 ba 6a e8 3e ab 76 ac 3c b9 d1 21 be 57 fa b1 bd
       0.45393926 0.021052679 -0.15802659 -0.08690327
0003c0 e7 8b 00 3d 49 92 a2 3c dd 3b 34 bf b3 af 38 be
       0.03138342 0.019845145 -0.70403844 -0.18035774
0003d0 05 a4 2b 3f 25 cd c0 3e 03 27 b0 3b d6 26 ae 3e
       0.6704715 0.37656513 0.0053757443 0.34014004
0003e0 e0 46 0b be 0d e8 81 be 68 34 bb 3d 27 63 b9 be
       -0.13601255 -0.25372353 0.09140855 -0.3620846
0003f0 05 7b 99 3e 21 47 31 bd ef 79 61 3e e4 27 4e be
       0.2997667 -0.043280724 0.2201917 -0.20132405

net.4.bias f4 [344]
000000 11 b0 76 3d 5c d1 66 3d 9a 51 ec 3c c5 1c fc be
       0.060226504 0.056352004 0.028847504 -0.492407
000010 6e b4 8c bc f8 71 a0 bc 4e 9f 8c 3d fb d1 95 bd
       -0.01717588 -0.019585595 0.068663225 -0.07315441
000020 46 d1 fc be fe 57 3a 3d 27 3c c7 be 6f 20 49 be
       -0.49378413 0.045494072 -0.3891308 -0.19641279
000030 86 ec ca be 4d b7 27 bd 96 27 1c 3e 29 34 f1 3d
       -0.39633578 -0.040946294 0.15249476 0.11777527
000040 81 5c b5 be 71 b3 b4 bd 90 4e 19 3e c0 7c 7a be
       -0.35422137 -0.08823288 0.14971375 -0.24461651
000050 6e 11 ee 3e d1 c5 08 be d2 3e 85 3e ee 81 3e 3e
       0.46497673 -0.13356711 0.2602449 0.18604252
000060 0c a8 ca 3e ff 38 65 3d 0d b5 d8 bd e8 96 d0 3e
       0.39581335 0.05596256 -0.10581408 0.40740132
000070 ea a5 ce be 4e 51 08 3d eb a0 44 be ee fc 4e bd
       -0.40360957 0.033280663 -0.1920201 -0.05053418
000080 d2 9e a4 3e ae 49 9f be a6 e2 92 3e 69 ef 98 3e
       0.3215242 -0.311109 0.28688544 0.29870155
000090 37 c9 ca bd 7d b0 7c be bd f8 43 3e 22 94 c2 3d
       -0.0990166 -0.246767 0.19137855 0.0950091
0000a0 06 9f 11 3e 19 72 ae bc b3 be de 3e ae 40 a2 3e
       0.14220819 -0.02129464 0.43504867 0.31689972
0000b0 c6 77 51 bc 07 ae 93 3e da 0c c9 be 63 3e de be
       -0.012784904 0.2884371 -0.39267617 -0.43406972
0000c0 14 9a 61 be cf b4 1f be db 0a 0f 3e 4f c8 34 be
       -0.22031432 -0.15596317 0.13968985 -0.17654537
0000d0 4e 7c 91 3e 8d 19 d3 be a6 6f 1f 3e 67 b4 e5 3e
       0.2841515 -0.4123043 0.15569934 0.448642
0000e0 d3 2a 18 be 06 7e a6 be 45 90 0f bf 8e fc 98 be
       -0.14860086 -0.32518023 -0.5607951 -0.29880184
0000f0 12 04 33 3e fe d1 07 3f d1 31 26 bf 22 c5 2c be
       0.17482021 0.530548 -0.64919764 -0.16872075
000100 26 8c 26 be 1d 29 c6 be 99 1a e8 3e 04 71 12 3f
       -0.162644 -0.38703242 0.45332792 0.572037
000110 36 d0 ec 3d 80 85 ab 3e 23 46 af 3e aa 5e f9 3e
       0.115631506 0.3350029 0.34233198 0.48705035
000120 ff d9 2a 3f 37 cc fc bb 3e c1 41 3e bf 22 af 3d
       0.66738886 -0.007714774 0.18921372 0.08551549
000130 ca 8f af 3e b9 03 f3 bd 77 3e 8b bd 95 eb 86 be
       0.3428939 -0.118659444 -0.067990236 -0.2635161
000140 e1 94 dd be d7 17 4e bd d8 06 e0 3d c7 be 1a 3e
       -0.43277648 -0.050315704 0.10938805 0.15111838
000150 3c 41 04 be 64 43 28 3f 23 fa 2b 3e 17 ae 1c be
       -0.1291551 0.6572783 0.16794638 -0.15300785
000160 4c b7 52 3f 24 3c 95 3d 88 f2 10 bf 45 da aa be
       0.8231094 0.072868615 -0.56620073 -0.3336965
000170 dc 80 02 bf ec ca 08 bf 4c e4 c3 3d 19 59 85 be
       -0.50977874 -0.53434634 0.095650285 -0.2604454
000180 26 39 e9 3e 9d 8d 89 be ba ff 3d bd ba 3f c5 3d
       0.45551413 -0.26865855 -0.046386458 0.096312955
000190 54 e4 dd 3e d5 2b 8c bd 53 b9 c7 3d 65 92 8a 3c
       0.43338263 -0.06844298 0.09752145 0.01691551
0001a0 c4 a5 af be 81 e0 1c bd 98 6b 17 bf 35 ca 4d be
       -0.34306157 -0.03830004 -0.5914855 -0.20096667
0001b0 10 74 52 3e 9a 0b ca 3e 75 76 84 be 18 8d c4 be
       0.20552087 0.39461976 -0.25871626 -0.38388896
0001c0 f8 d8 87 be 41 50 80 3e 76 81 96 be e1 c5 37 be
       -0.26532722 0.2506123 -0.29395646 -0.17946579
0001d0 3b 99 9f 3e 01 17 56 3e b5 11 d5 bc 1e 99 20 3e
       0.31171593 0.20907213 -0.02600942 0.1568341
0001e0 dc e7 06 be 82 13 e6 3e 95 63 0a bf d4 76 88 bd
       -0.13174385 0.44936758 -0.540582 -0.0666329
0001f0 c3 a2 ba be 21 18 58 be 41 55 95 3e a6 52 d5 be
       -0.36452302 -0.21102954 0.29166606 -0.41664618
000200 c7 3b d6 3e d0 50 95 be 3d 33 22 3e b9 c1 07 bf
       0.41842481 -0.29163218 0.15839858 -0.5302997
000210 c1 5d b8 be 2e 9b 73 3e 29 30 12 3f bf c1 48 be
       -0.3600903 0.23789665 0.57104737 -0.19605158
000220 fc f3 2d be aa 23 aa be 7a 41 0a 3e e8 f1 46 3e
       -0.16987604 -0.33230335 0.1350154 0.19428217
000230 ff 57 26 be 58 6f 10 be 2e 73 31 bd dc 26 98 bd
       -0.16244505 -0.14104974 -0.043322735 -0.07429287
000240 4b 62 6a 3e c2 cc 4f be 82 4a c4 be 18 80 18 be
       0.22889058 -0.20292953 -0.38338095 -0.14892614
000250 ec 67 2a be 54 bb c2 3e 0e db 9f bc 4f 39 ae 3e
       -0.16641206 0.38033545 -0.019513633 0.34028098
000260 cf 9d 02 bf 23 f0 14 bf 03 dd a5 be 5c 7c 80 3e
       -0.51022047 -0.5817892 -0.3239518 0.2509488
000270 67 9f b7 3d cd 7f f2 3c e4 ba 0d bd 9a e6 15 3f
       0.089659505 0.029601956 -0.03460206 0.58554995
000280 29 83 2a 3e 44 0e 31 be 4e fd f2 3c c6 90 02 bf
       0.16651596 -0.17290598 0.0296618 -0.51002157
000290 d7 c1 a4 3e df cd 5f 3e be 03 54 3e e8 b9 d0 3d
       0.32179138 0.21855877 0.20704553 0.10191709
0002a0 ac 7c f9 3e 6b 2c 7c 3e 63 b2 3c 3d a1 ac df be
       0.4872793 0.24626319 0.04606856 -0.43686393
0002b0 be 29 c9 bd 74 50 af 3e cf 2b 84 be 83 1c 2a 3f
       -0.09822415 0.34241068 -0.25814673 0.66449755
0002c0 36 f8 d0 3e af 7c c9 be 65 8e 78 3d 50 c8 24 be
       0.4081437 -0.3935294 0.060682673 -0.16092038
0002d0 ac 15 df 3d af 82 ad be 0b 9b 01 3f ad ae 83 3e
       0.108928055 -0.33888766 0.506272 0.25719205
0002e0 d9 ff bb 3e 38 0f 8c bc 31 df 51 3e 61 da b4 bb
       0.36718634 -0.0170971 0.20495297 -0.005519197
0002f0 ee ad 80 3e ae 08 21 bf 7f 71 0a bf d6 7a 90 3c
       0.25132698 -0.6290387 -0.5407943 0.017636698
000300 bb 0c 13 bf b0 cf 52 be 1f b8 76 be 09 48 cc 3e
       -0.574413 -0.20587039 -0.24093674 0.39898708
000310 e3 fc b7 3e de 38 4c 3e ec fe b9 3e e0 4e e5 3e
       0.35935125 0.19943568 0.36327302 0.4478674
000320 74 01 46 be db ca 04 bf c3 7f 03 3f 95 b6 e6 3c
       -0.19336492 -0.5187203 0.51366824 0.028163234
000330 04 cc 24 3e 4a f2 5a be 66 1b c7 be ee 4a ec 3d
       0.16093451 -0.21381488 -0.3888809 0.11537729
000340 fb 3c 6a 3d 4c 42 3f be 57 16 34 3f 1a ba cb 3e
       0.05718706 -0.18677634 0.7034659 0.39790422
000350 97 b0 c2 be 52 1b 3f be f6 5f 3f 3e 04 85 1a 3e
       -0.38025352 -0.18662766 0.1868895 0.15089804
000360 11 6b cc be 25 4b 0f 3f 8b f2 31 bf 54 58 45 3e
       -0.39925435 0.55974036 -0.69510716 0.19271976
000370 51 1b 05 3f 1c 5d 84 be 6b 0a 98 3d 65 a6 ba 3d
       0.51994807 -0.25852287 0.07423862 0.091137685
000380 77 d7 64 bc 54 36 32 3f 68 11 0d bf 73 21 9a bb
       -0.013967386 0.6961415 -0.55104685 -0.0047036945
000390 94 68 f3 be 59 bb c2 3e 5a 5f 43 be 8f c1 12 3d
       -0.47540724 0.3803356 -0.19079342 0.035829123
0003a0 41 be 62 3e e9 04 b2 3d b8 84 c2 be e0 db bb be
       0.22142889 0.08692343 -0.3799188 -0.3669119
0003b0 55 7e 20 3f 30 a6 6b be 89 1c 1b bc 55 41 94 3e
       0.6269277 -0.23012614 -0.0094672525 0.28956094
0003c0 99 4d 03 bf 3a 02 f5 3c 06 8e 2d be c4 b5 83 be
       -0.5129028 0.029908288 -0.16948709 -0.25724614
0003d0 b6 47 36 bd 75 32 1d be a4 1d cf bd 4e 2d 43 3b
       -0.044501983 -0.15351279 -0.101130754 0.0029781642
0003e0 3c cd 7d 3d 52 a8 10 3d bc 57 c9 bc 3c ea 97 3e
       0.061963305 0.035316773 -0.024577968 0.29670894
0003f0 a1 3f 09 bf 63 aa 08 be 73 c8 20 3e a1 31 9c be
       -0.53612715 -0.13346247 0.15701465 -0.30506614
