dual/pg_info/es_selfplay_model.pth.tar (torch, 163543 bytes, 6 tensors)

net.0.weight f4 [32, 874]
4.3342223 2.5399325 0.5974649 2.679427 4.878008 1.4839312 3.4852417 0.7755275
1.7491369 8.544068 -3.2175498 -3.2570565 -6.753734 -0.85466427 2.2591436 -3.0351305
-0.59645915 -0.6257913 -0.18085329 1.5439358 1.889099 -1.5391914 1.8511235 -1.3339676
0.39905077 0.6158189 0.35533112 -5.9962773 -4.7759595 -0.20716697 -0.055152804 1.135182
-1.871655 -3.4314315 1.7755183 1.9815621 -4.378379 0.51040494 -4.122115 -5.650192
-0.9566448 -3.1411262 -3.4725664 1.5257438 1.6016853 2.624885 1.3984969 -1.2723069
0.27537665 0.045983396 -4.2480483 -0.06918962 -0.20374478 -2.2047458 -2.26011 1.7311304
0.0776144 -4.273091 1.571202 -1.8625607 1.4448813 4.6137137 -0.784276 4.5648794
-3.514838 2.50109 -4.564305 -1.2409897 -3.9122937 -4.4101906 -2.4589877 0.8007194
0.31594342 -1.2197914 -1.4273424 -1.7003402 -2.4471798 -3.0185359 -0.25173 1.7496091
3.3189824 0.3869879 -0.5308706 0.005865399 4.6143436 -1.9937034 -3.381505 0.2686324
6.195003 -1.025735 0.026185652 -1.3834165 -0.039560124 1.9471022 0.6670117 -1.3654542
-2.7621882 -1.3755893 -1.9878666 2.9145648 -0.41185856 -0.92099494 -0.50100005 -3.2926953
-5.447801 3.317242 3.1165938 1.9557136 -0.6873743 -4.51477 1.4065396 -0.5386621
1.2156466 5.3457494 -3.7178617 3.1934657 -0.83612174 -2.5143833 -4.9877286 3.1181633
-1.1756345 1.2928034 -0.5928152 -2.4037895 0.061075304 2.3228703 -4.1526895 2.8850064
0.46491665 -2.612195 -0.5142005 2.896942 1.1383542 -0.47836876 0.94743437 -2.5449374
-6.4672365 0.5707065 4.7501016 4.236951 -3.0034668 0.9018865 3.0616503 1.4808288
6.292119 -3.8023078 -0.16857913 -2.9901888 -1.7769142 -0.85739404 -2.6295865 0.33554074
6.6713076 3.6908088 -0.74888855 -4.284513 -2.4139266 -1.6518162 -2.7026613 -2.3660762
4.076997 2.6075814 1.7302341 1.1043772 -2.5984442 -4.14187 3.9926639 -4.9215355
1.5393165 -1.3542238 1.8114612 3.8488016 -0.80229557 -2.8895388 2.2200613 -1.2594733
-1.2085003 -3.4069686 1.51064 4.3617125 5.186845 -1.2427112 0.6733174 0.074567325
-2.07851 -4.4019175 -2.895263 1.7208449 -2.4967277 -1.4459971 1.946492 -1.3048702
-1.0983806 -0.81834567 -2.2849336 -0.2530677 2.8846498 -0.8470169 -0.58301854 2.5510356
-1.4029987 1.0239654 2.3173714 -1.6389797 -5.2781806 -0.7586115 -2.7259927 -5.2472887
5.8582835 3.137087 0.37641016 -0.64159185 1.3960342 1.1975219 0.7266101 -0.5888585
-2.7234104 1.87994 1.1886379 3.6141381 -0.44501328 -1.6482459 2.0424564 1.2405821
4.18604 5.061571 2.204794 -0.5529452 1.4425931 -5.403458 -0.9568813 0.3838601
3.4110184 -1.2126025 2.4548883 -5.015206 -2.438475 -2.2017343 -1.1293981 3.2716851
-1.50774 -2.2815585 1.7752794 2.3054543 0.735429 -3.9553146 9.374395 3.593743
-2.120183 -0.034848202 4.8816185 4.956388 -2.3555942 -4.0795264 4.5690966 2.0525322
00000000: f3b1 8a40 418e 2240 76f3 183f bb7b 2b40
00000010: a418 9c40 75f1 bd3f 330e 5f40 f888 463f
00000020: b8e3 df3f 81b4 0841 56ec 4dc0 9d73 50c0
00000030: 971e d8c0 47cb 5abf cf95 1040 943f 42c0
00000040: 8cb1 18bf dc33 20bf 9b31 39be b09f c53f
00000050: ffcd f13f 3904 c5bf 9df1 ec3f 73bf aabf
00000060: 6250 cc3e 4fa6 1d3f f6ed b53e 81e1 bfc0
00000070: a9d4 98c0 9423 54be e8e7 61bd a54d 913f
00000080: 6492 efbf 939c 5bc0 2f44 e33f d4a3 fd3f
00000090: ae1b 8cc0 e6a9 023f 5ee8 83c0 5fce b4c0
000000a0: ace6 74bf 3608 49c0 873e 5ec0 934b c33f
000000b0: 0604 cd3f 1efe 2740 f201 b33f f4da a2bf
000000c0: 2bfe 8c3e 1659 3c3d 03f0 87c0 4ab3 8dbd
000000d0: 79a2 50be 8e1a 0dc0 a4a5 10c0 ae95 dd3f
000000e0: 4cf4 9e3d 29bd 88c0 261d c93f 6468 eebf
000000f0: dff1 b83f 8ba3 9340 50c6 48bf 7e13 9240
00000100: 1bf3 60c0 dc11 2040 c90e 92c0 c0d8 9ebf
00000110: 0563 7ac0 4820 8dc0 0e60 1dc0 f2fb 4c3f
00000120: 56c3 a13e 2022 9cbf 28b3 b6bf bfa4 d9bf
00000130: 989e 1cc0 b12f 41c0 c1e2 80be 31f3 df3f
00000140: 356a 5440 4723 c63e 23e7 07bf 8832 c03b
00000150: b4a8 9340 ac31 ffbf 946a 58c0 308a 893e
00000160: 773d c640 494b 83bf 4b83 d63c cb13 b1bf
00000170: cc09 22bd a53a f93f 47c1 2a3f 34c7 aebf
00000180: b1c7 30c0 4f13 b0bf 6a72 febf 3b88 3a40
00000190: 20df d2be 53c6 6bbf 8a41 00bf 85bb 52c0
000001a0: 6354 aec0 b14d 5440 4676 4740 d354 fa3f
000001b0: c3f7 2fbf ff78 90c0 7d09 b43f c2e5 09bf
000001c0: 4f9a 9b3f 6110 ab40 72f1 6dc0 be61 4c40
000001d0: 130c 56bf a8eb 20c0 799b 9fc0 fd8f 4740
000001e0: 317b 96bf 957a a53f bdc2 17bf b0d7 19c0
000001f0: 192a 7a3d e8a9 1440 d5e2 84c0 f2a3 3840
00000200: 8e09 ee3e 342e 27c0 a5a2 03bf 7f67 3940
00000210: 97b5 913f c0ec f4be 0f8b 723f 41e0 22c0
00000220: 9af3 cec0 d219 123f d500 9840 1a95 8740
00000230: cd38 40c0 09e2 663f 14f2 4340 cc8b bd3f
00000240: 0a59 c940 0359 73c0 02a0 2cbe 415f 3fc0
00000250: ed71 e3bf 2d7e 5bbf 254b 28c0 ffcb ab3e
00000260: 5a7b d540 3636 6c40 29b7 3fbf bb1a 89c0
00000270: c67d 1ac0 b76e d3bf 67f8 2cc0 cb6d 17c0
00000280: c276 8240 9de2 2640 5078 dd3f 3b5c 8d3f
00000290: e94c 26c0 338a 84c0 ce87 7f40 387d 9dc0
000002a0: 5308 c53f 3557 adbf f6dd e73f c452 7640
000002b0: 3e63 4dbf 34ee 38c0 7c15 0e40 6c36 a1bf
000002c0: 23b0 9abf c60b 5ac0 a75c c13f 2693 8b40
000002d0: a2fa a540 2911 9fbf 875e 2c3f c1b6 983d
000002e0: 4f06 05c0 82dc 8cc0 fd4b 39c0 a544 dc3f
000002f0: 63ca 1fc0 6f16 b9bf a626 f93f fd05 a7bf
00000300: bc97 8cbf 1a7f 51bf 5a3c 12c0 1792 81be
00000310: 1a9e 3840 19d6 58bf b440 15bf 2b44 2340
00000320: 7695 b3bf 4c11 833f d04f 1440 16ca d1bf
00000330: dbe6 a8c0 5d34 42bf aa76 2ec0 cae9 a7c0
00000340: 0f77 bb40 09c6 4840 d5b8 c03e 5d3f 24bf
00000350: 40b1 b23f 6648 993f 1f03 3a3f 6ebf 16bf
00000360: 5b4c 2ec0 e0a1 f03f 4925 983f 0a4e 6740
00000370: c8d8 e3be b9f9 d2bf 9bb7 0240 65cb 9e3f
00000380: 0af4 8540 64f8 a140 581b 0d40 d18d 0dbf
00000390: e4a6 b83f 21e9 acc0 2cf6 74bf 5089 c43e
000003a0: 204e 5a40 8f36 9bbf e41c 1d40 917c a0c0
000003b0: f90f 1cc0 37e9 0cc0 1e90 90bf 4a63 5140
000003c0: a0fd c0bf 0e05 12c0 5b3c e33f 908c 1340
000003d0: 1345 3c3f e023 7dc0 86fd 1541 e3ff 6540
000003e0: 14b1 07c0 fdbc 0ebd 3836 9c40 bb9a 9e40
000003f0: 0ec2 16c0 7b8b 82c0 0a36 9240 b05c 0340

net.0.bias f4 [32]
3.9543657 -1.9457064 5.149615 3.379227 -1.8463296 -1.2975427 -1.2469876 0.46577948
0.29387498 2.108566 -3.5971406 1.188091 -0.75372857 0.21111597 1.2088394 -0.13204692
2.5414808 -1.7238747 -1.2868769 -5.883609 1.2916269 -0.71729356 -4.7316933 -1.0402212
1.2618237 -2.7671704 1.3497245 5.6817465 0.6550969 -2.197131 -0.758905 -2.6891494
00000000: 5414 7d40 e80c f9bf a5c9 a440 4145 5840
00000010: 8754 ecbf e115 a6bf 4a9d 9fbf a67a ee3e
00000020: c876 963e bff2 0640 8d37 66c0 5e13 983f
00000030: 5bf4 40bf c92e 583e 40bb 9a3f 4f37 07be
00000040: 9fa7 2240 eda7 dcbf 62b8 a4bf 8646 bcc0
00000050: 0854 a53f 8da0 37bf 086a 97c0 f825 85bf
00000060: 7083 a13f 5219 31c0 c6c3 ac3f ded0 b540
00000070: 6eb4 273f cb9d 0cc0 9947 42bf 061b 2cc0

net.2.weight f4 [32, 32]
-3.7503567 -1.2478446 0.36933902 -0.29279104 1.1640049 6.038496 -2.4237723 -1.5840116
-6.294572 -3.6245732 4.271735 5.263506 -0.88981074 -4.5790553 7.6033225 0.9742688
-1.2228961 -1.3372228 1.5580441 0.52815014 -0.16285788 -5.2041507 0.69800305 -1.863085
1.6226348 -4.550865 -1.9469553 5.0990663 -3.866872 0.24094084 -0.057143494 -4.6066933
0.6654655 3.071144 -9.239092 -2.8059728 -0.50300497 -3.951803 -2.7522924 -1.9519714
-0.123354465 -5.6842914 2.608015 -3.2223356 -2.7223334 5.31113 -0.50359875 2.1617482
4.172491 1.2650774 -0.513139 -3.3987844 -3.0452576 -0.33978772 -4.4480424 -2.2358308
-4.770271 -1.5072627 -2.6176965 1.4621787 1.6803111 -1.6939337 0.9378528 5.0345635
-1.0443633 -2.5478957 -2.5235825 3.603581 0.031555362 0.14098288 -1.6312585 0.27548495
2.0885508 1.797659 -0.014854247 4.7585907 -0.52603424 0.7203142 1.1408297 1.985373
-4.3943944 0.97844803 1.7189528 -1.8405771 0.4544333 0.958832 -3.0017965 -2.287692
0.33905 -1.077332 1.0802512 -1.8872942 -0.5111125 0.15611522 -2.5132291 1.255536
-4.580134 3.2273355 2.0974445 -1.6912742 1.0647061 2.315178 -3.217815 -0.19693507
8.126945 -3.4892068 -0.17896448 -1.8458886 -3.591787 3.3474543 3.4982867 0.7489272
-2.2544005 4.152944 -0.06406229 -0.1987176 -0.68353665 0.7660797 0.8837009 -2.1288164
1.3470535 1.7832056 0.91513824 2.5223613 3.2915294 -4.1733484 -0.7498498 -2.02609
-1.3123264 1.0777186 1.0030301 8.53095 -1.4757589 1.8568896 -4.370419 0.919524
3.5670767 1.778435 3.06741 -1.3130486 -1.2693169 1.0929897 -2.2391796 1.3199475
0.26952937 -2.5714345 -2.3607652 -2.7784228 4.62755 -1.6217467 0.7685804 0.95464224
4.334369 -1.1508429 -0.21114242 -1.1848223 -1.6505481 2.6590638 -2.5134606 1.4279034
-1.9658916 0.8380687 -0.79918575 -1.1659459 -1.3493794 -2.0410206 -4.807745 1.5814362
2.4975865 1.1203487 -6.1643915 -1.8701487 -4.461112 -0.23867036 -0.61705816 6.958253
0.39701074 -0.468669 -4.1798835 -1.5350424 1.9065511 -5.0113897 3.2702231 -2.2435687
2.4001765 -0.24641423 -2.3174403 2.8531191 -6.4008307 -0.8902434 1.1024648 1.4195887
3.6599164 -1.5182892 2.6338108 -0.015755305 2.0790434 -0.77367777 2.5504267 -2.9969263
1.652702 2.2245843 1.8086766 -5.462504 0.4147379 -6.5943613 2.793195 -0.7945479
0.9387511 -1.1408806 -2.944435 2.0138726 1.8760836 1.2609614 -4.7852907 -0.6555951
0.43129045 -1.2670794 0.4649457 2.1720247 1.8642926 -2.4604335 0.5215341 -3.1966963
-0.9833658 1.5055497 1.145966 -1.2122115 1.2025675 2.6461892 -0.93397737 -1.1004846
2.014303 -2.1033447 0.39973056 -2.6400063 -2.297884 1.3031588 0.66216224 1.2994754
4.6960015 1.1169797 1.3973812 -0.35930312 4.3161254 0.76500785 -2.7268708 2.6226695
-5.091947 2.5030856 -1.470459 3.611378 -5.7981434 -0.11575518 -1.3907435 1.2469258
00000000: d805 70c0 5fb9 9fbf 011a bd3e b5e8 95be
00000010: 1dfe 943f 5c3b c140 161f 1bc0 e4c0 cabf
00000020: 226d c9c0 02f9 67c0 0eb2 8840 a46e a840
00000030: a3ca 63bf 9f87 92c0 6b4e f340 ae69 793f
00000040: dc87 9cbf 1e2a abbf fd6d c73f d934 073f
00000050: 37c4 26be 6788 a6c0 54b0 323f 9279 eebf
00000060: 7fb2 cf3f b0a0 91c0 d535 f9bf 8d2b a340
00000070: d57a 77c0 32b9 763e 4c0f 6abd 086a 93c0
00000080: f25b 2a3f a08d 4440 52d3 13c1 0f95 33c0
00000090: efc4 00bf 57ea 7cc0 8f25 30c0 33da f9bf
000000a0: 44a1 fcbd b7e5 b5c0 b8e9 2640 bf3a 4ec0
000000b0: b63a 2ec0 c7f4 a940 d9eb 00bf 155a 0a40
000000c0: 0c85 8540 0eee a13f 145d 03bf af85 59c0
000000d0: 80e5 42c0 a8f8 adbe 5d56 8ec0 da17 0fc0
000000e0: 0fa6 98c0 fced c0bf 5788 27c0 ac28 bb3f
000000f0: 6f14 d73f d2d2 d8bf 1f17 703f 251b a140
00000100: b2ad 85bf b910 23c0 6082 21c0 12a1 6640
00000110: 3240 013d d15d 103e 14cd d0bf 5d0c 8d3e
00000120: d1aa 0540 b119 e63f 3a5f 73bc 6046 9840
00000130: 2eaa 06bf 8366 383f b506 923f b420 fe3f
00000140: e19e 8cc0 927b 7a3f a506 dc3f 0898 ebbf
00000150: 7bab e83e 0476 753f 6f1d 40c0 8c69 12c0
00000160: f697 ad3e 04e6 89bf ac45 8a3f db92 f1bf
00000170: 45d8 02bf abdc 1f3e bfd8 20c0 67b5 a03f
00000180: 7590 92c0 aa8c 4e40 883c 0640 ac7b d8bf
00000190: 4a48 883f e02b 1440 aef0 4dc0 59a9 49be
000001a0: f707 0241 2a4f 5fc0 7742 37be 1446 ecbf
000001b0: d7df 65c0 b13c 5640 eee3 5f40 b1b9 3f3f
000001c0: 1948 10c0 ebe4 8440 1733 83bd a07c 4bbe
000001d0: 42fc 2ebf cd1d 443f 393a 623f 873e 08c0
000001e0: 406c ac3f 1540 e43f 8046 6a3f 5e6e 2140
000001f0: 6ba8 5240 128c 85c0 28f6 3fbf 75ab 01c0
00000200: 50fa a7bf aff2 893f 4a63 803f c57e 0841
00000210: abe5 bcbf 8fae ed3f 79da 8bc0 ed65 6b3f
00000220: fc4a 6440 c2a3 e33f 7250 4440 fa11 a8bf
00000230: fa78 a2bf 16e7 8b3f b84e 0fc0 0af4 a83f
00000240: c1ff 893e 6292 24c0 c716 17c0 aed1 31c0
00000250: e414 9440 6595 cfbf afc1 443f 6f63 743f
00000260: 27b3 8a40 d24e 93bf b835 58be 42a8 97bf
00000270: 2945 d3bf 1a2e 2a40 8adc 20c0 8ac5 b63f
00000280: 56a2 fbbf ac8b 563f 7097 4cbf b73d 95bf
00000290: 77b8 acbf 15a0 02c0 0cd9 99c0 806c ca3f
000002a0: 75d8 1f40 9667 8f3f b242 c5c0 0861 efbf
000002b0: 6ec1 8ec0 0166 74be 86f7 1dbf 02aa de40
000002c0: fe44 cb3e 62f5 efbe 9bc1 85c0 457c c4bf
000002d0: de09 f43f 4e5d a0c0 564b 5140 a196 0fc0
000002e0: 7e9c 1940 0354 7cbe f150 14c0 8199 3640
000002f0: 9bd3 ccc0 fee6 63bf 911d 8d3f 15b5 b53f
00000300: 123c 6a40 4d57 c2bf 5b90 2840 4511 81bc
00000310: 0c0f 0540 bf0f 46bf 313a 2340 a4cd 3fc0
00000320: bd8b d33f 975f 0e40 b782 e73f d5cc aec0
00000330: 8758 d43e 0205 d3c0 b5c3 3240 7e67 4bbf
00000340: fe51 703f 6008 92bf 9f71 3cc0 4ae3 0040
00000350: 8223 f03f 2f67 a13f 1a21 99c0 15d5 27bf
00000360: 1ad2 dc3e a82f a2bf 5d0d ee3e 7402 0b40
00000370: 24a1 ee3f be77 1dc0 4283 053f ac96 4cc0
00000380: dcbd 7bbf dab5 c03f 04af 923f bf29 9bbf
00000390: bbed 993f 2a5b 2940 2419 6fbf aedc 8cbf
000003a0: 57ea 0040 339d 06c0 7ca9 cc3e ddf5 28c0
000003b0: 8810 13c0 e8cd a63f 7783 293f 3655 a63f
000003c0: a545 9640 31f9 8e3f 63dd b23f 94f6 b7be
000003d0: b31d 8a40 8ed7 433f 0d85 2ec0 d1d9 2740
000003e0: 3bf1 a2c0 8e32 2040 0038 bcbf d120 6740
000003f0: 648a b9c0 0d11 edbd e203 b2bf 449b 9f3f

net.2.bias f4 [32]
-1.2546027 1.6602896 -2.7691503 -1.7290986 3.134662 0.46683764 -0.9794038 1.8286511
-0.50035745 1.2764819 -2.3499959 2.1941028 0.4583426 -3.368298 3.5251706 2.9871058
2.1231623 -0.9874049 -1.051537 -4.6286945 -3.3281379 3.5709946 -5.2082634 0.5565541
4.050235 -0.41868237 -2.0496159 -1.9933159 -0.35128048 3.2757688 2.1811063 -2.6787162
00000000: d296 a0bf 5f84 d43f c239 31c0 1a53 ddbf
00000010: 4d9e 4840 5805 ef3e 35ba 7abf 3d11 ea3f
00000020: 6d17 00bf c263 a33f 5566 16c0 2e6c 0c40
00000030: e2ab ea3e 3292 57c0 659c 6140 be2c 3f40
00000040: e4e1 0740 91c6 7cbf c498 86bf 441e 94c0
00000050: 3600 55c0 2d8b 6440 18aa a6c0 547a 0e3f
00000060: 869b 8140 895d d6be e82c 03c0 fa24 ffbf
00000070: 09db b3be 32a6 5140 3f97 0b40 1670 2bc0

net.4.weight f4 [344, 32]
-0.63497657 4.127286 -2.985054 -1.1756724 0.11501368 1.1776431 3.279245 -0.15092728
-0.97936237 -9.815044 -1.7895163 -2.4430056 -2.786954 -2.3174942 -0.79373235 -0.15195489
0.37007606 -2.2589252 -1.5757961 -1.0302645 1.2494646 3.8748746 1.7679046 -5.0553875
3.8974407 1.418668 0.78039473 -2.605668 -2.537293 -1.2245388 0.9061903 0.5505195
-2.9938028 5.1985826 0.022899784 1.9247944 2.5908601 1.9067056 -3.9159396 -0.97548884
-0.46319357 2.7415714 -1.9923718 1.439291 1.9110302 5.0141525 -1.3277601 3.9951808
3.618272 -1.0487882 3.6458864 0.6243339 -2.5787055 -1.8456618 -0.14332825 3.1058958
-5.9831076 -0.8044914 3.1337054 0.383198 -0.095183864 0.46290323 3.4305832 -0.9117457
-2.493728 0.21402106 0.0052259928 -1.9444563 1.2723637 3.079196 -2.86908 0.23921725
-0.950419 0.3906926 1.0502864 -2.0188715 -2.8275619 -0.3366109 -5.19095 -1.5521497
3.5609777 -1.335525 -3.3606677 -4.1930265 -0.5785361 -3.502846 -1.3046621 -6.842471
-1.3178551 -2.4407268 0.37136412 1.4811399 -1.8354034 -0.6321149 1.8086466 -4.5643063
-0.18529528 5.504509 -2.2093356 -6.6299067 -2.9941332 -0.20467424 -1.2780522 -1.5787445
1.1419281 4.493876 -4.3191366 -1.6938198 1.0174408 1.7043574 1.923698 -0.6128215
-3.1630657 -5.125929 -1.5140247 3.979616 -0.16625462 -5.468523 1.5325657 4.246233
-2.7838073 4.2272334 1.3148482 -0.706169 -0.73216045 2.2696686 0.709787 -2.14176
4.5209374 -3.3484104 0.57201046 -0.93997777 2.6573737 -1.552885 -5.325421 -6.607715
-0.41422814 -0.20892799 -2.9968603 0.24824567 1.8892301 -2.7187066 -10.199521 3.9348104
-4.020947 -0.14554428 0.23667681 -3.8389919 0.91103745 -4.2667527 -4.9648542 -1.9615653
2.854896 -0.020709412 -1.9386119 -0.42781544 1.9573693 -3.1543407 5.5056486 2.228977
-2.0967581 4.122201 1.1920533 0.73590416 4.8179636 4.1802325 -2.0174766 5.1302304
-3.0627546 1.8875972 -3.3324761 0.95419127 2.5938678 -4.337727 0.5171336 2.6350374
2.7100246 -1.2549275 -4.1933727 -0.22713813 1.2927251 2.1899185 0.71613824 0.36932355
-2.5315535 -1.6122851 3.6179974 2.2869852 -1.2266117 -0.6424373 -1.4619888 -2.169045
2.1013958 -3.8189802 1.7442092 -2.1382954 -4.8180327 1.2485085 1.836738 -1.9462621
-1.4840602 4.478994 -4.078674 -4.185 -4.1053534 0.58824503 -1.5718678 -6.7162642
0.07233088 0.3718267 1.055257 3.436328 -2.3624818 1.280623 1.0958152 -0.94894975
-2.6423235 -3.0638402 -3.1212711 1.5899789 0.3350534 -1.3663739 0.90827304 -2.120264
-1.1080357 -5.559402 -3.2018554 4.435162 0.5343884 -4.2200036 -0.75955164 -1.2943676
-3.2401817 -1.5883176 0.05046069 -0.8659586 0.38306192 2.3996508 3.9266512 2.7951615
4.035876 1.1123406 1.661765 -3.2346709 -4.8092837 2.4482155 -1.0813184 0.3737231
1.5733378 5.5168314 -3.167983 -3.6728923 1.6027304 3.1198175 0.45513126 -3.3036916
00000000: d38d 22bf ba12 8440 200b 3fc0 6f7c 96bf
00000010: 4b8c eb3d 02bd 963f 26df 5140 ae8c 1abe
00000020: 7eb7 7abf 6c0a 1dc1 df0e e5bf 345a 1cc0
00000030: 745d 32c0 d351 14c0 0b32 4bbf 109a 1bbe
00000040: 9c7a bd3e 3b92 10c0 b0b3 c9bf b5df 83bf
00000050: 75ee 9f3f f2fd 7740 b34a e23f bcc5 a1c0
00000060: ab6f 7940 ea96 b53f f3c7 473f 44c3 26c0
00000070: 0263 22c0 b0bd 9cbf 16fc 673f d9ee 0c3f
00000080: 779a 3fc0 ca5a a640 5498 bb3c aa5f f63f
00000090: a7d0 2540 ee0e f43f c19e 7ac0 a3b9 79bf
000000a0: b527 edbe e875 2f40 0a06 ffbf b03a b83f
000000b0: a39c f43f f073 a040 0bf4 a9bf 0bb1 7f40
000000c0: c591 6740 b13e 86bf 3456 6940 59d4 1f3f
000000d0: 8309 25c0 a53e ecbf a4c4 12be ffc6 4640
000000e0: 9e75 bfc0 26f3 4dbf a18e 4840 8732 c43e
000000f0: c2ef c2bd a701 ed3e ad8e 5b40 2b68 69bf
00000100: 3d99 1fc0 5628 5b3e ce3e ab3b f2e3 f8bf
00000110: d0dc a23f 8c11 4540 029f 37c0 5ef5 743e
00000120: a94e 73bf dc08 c83e c96f 863f 3135 01c0
00000130: c6f6 34c0 4458 acbe 431c a6c0 d7ac c6bf
00000140: 0fe7 6340 7cf2 aabf 2e15 57c0 462d 86c0
00000150: f11a 14bf a12e 60c0 2bff a6bf 86f5 dac0
00000160: 7aaf a8bf de34 1cc0 7023 be3e fe95 bd3f
00000170: 80ee eabf 48d2 21bf bb81 e73f cc0e 92c0
00000180: 0cbe 3dbe f024 b040 c165 0dc0 3228 d4c0
00000190: e19f 3fc0 2096 51be 3797 a3bf 4d14 cabf
000001a0: b32a 923f d5cd 8f40 5e36 8ac0 16cf d8bf
000001b0: 803b 823f 6228 da3f bc3b f63f dfe1 1cbf
000001c0: ab6f 4ac0 9c07 a4c0 90cb c1bf 07b2 7e40
000001d0: a73e 2abe 24fe aec0 1d2b c43f 24e1 8740
000001e0: e629 32c0 7f45 8740 f24c a83f 7ec7 34bf
000001f0: de6e 3bbf 4042 1140 9ab4 353f 9912 09c0
00000200: 85ab 9040 5b4c 56c0 476f 123f 62a2 70bf
00000210: 6912 2a40 f0c4 c6bf d969 aac0 6772 d3c0
00000220: b615 d4be 38f1 55be 8fcc 3fc0 1d34 7e3e
00000230: 4bd2 f13f 4aff 2dc0 3d31 23c1 efd3 7b40
00000240: 99ab 80c0 8f09 15be 685b 723e 0bb2 75c0
00000250: c039 693f 3d89 88c0 16e0 9ec0 9214 fbbf
00000260: 9eb6 3640 c9a6 a9bc 6f24 f8bf a00a dbbe
00000270: 148b fa3f b8e0 49c0 462e b040 8fa7 0e40
00000280: 4931 06c0 12e9 8340 3495 983f 3764 3c3f
00000290: c22c 9a40 77c4 8540 561e 01c0 d92a a440
000002a0: 2c04 44c0 c99c f13f 4a47 55c0 e145 743f
000002b0: ee01 2640 a9ce 8ac0 de62 043f 74a4 2840
000002c0: 0b71 2d40 77a1 a0bf 1c30 86c0 e696 68be
000002d0: 0478 a53f a027 0c40 d654 373f fa17 bd3e
000002e0: f904 22c0 5c5f cebf 458d 6740 f75d 1240
000002f0: 9d01 9dbf c576 24bf 7322 bbbf a2d1 0ac0
00000300: 457d 0640 2c6a 74c0 3f42 df3f d5d9 08c0
00000310: 532d 9ac0 20cf 9f3f 3b1a eb3f 1e1f f9bf
00000320: aff5 bdbf eb53 8f40 7f84 82c0 85eb 85c0
00000330: 0e5f 83c0 3a97 163f f732 c9bf a3eb d6c0
00000340: 3622 943d 1260 be3e a912 873f ccec 5b40
00000350: e732 17c0 74eb a33f ac43 8c3f 5fee 72bf
00000360: d41b 29c0 f515 44c0 e8c2 47c0 6e84 cb3f
00000370: 1f8c ab3e 57e5 aebf 9584 683f 68b2 07c0
00000380: 1dd4 8dbf 9fe6 b1c0 33eb 4cc0 d9ec 8d40
00000390: aecd 083f 450a 87c0 fa71 42bf d6ad a5bf
000003a0: 235f 4fc0 fe4d cbbf deaf 4e3d 76af 5dbf
000003b0: b120 c43e e193 1940 414e 7b40 ede3 3240
000003c0: e525 8140 2d61 8e3f b7b4 d43f d904 4fc0
000003d0: a7e5 99c0 90af 1c40 a468 8abf a258 bf3e
000003e0: 2263 c93f e289 b040 3cc0 4ac0 ab10 6bc0
000003f0: 4526 cd3f 17ab 4740 f706 e93e af6f 53c0

net.4.bias f4 [344]
-0.38942266 -4.4313745 -4.837386 -1.6698624 -2.8894033 -4.3768735 0.3742628 0.10890488
2.2468045 -2.358458 -4.42121 -0.3817112 -1.383901 -0.1774318 0.097560965 6.9249983
-3.789057 0.8008873 0.43277445 -0.5765079 -0.8453254 2.4919994 0.45891553 -1.4156305
1.9265866 -0.118167125 -1.248809 3.9193785 -3.0273137 1.8646258 4.0168424 4.1401315
-4.439066 0.7007914 -1.1585404 -2.8291478 -0.7487988 -4.818888 2.5059888 -2.1386104
0.56331736 0.76998717 3.9389658 -1.7945106 0.107609704 2.3867807 1.6365671 1.3589698
1.0142959 1.812414 0.2913222 1.6965842 3.789474 2.3853133 0.04390426 -2.1031823
1.4300743 3.3889608 -2.1482284 -4.0228033 -1.6097528 1.934089 -1.3932885 3.840627
0.18571451 -1.392442 0.12037142 -0.7053015 -5.7010083 -0.12087942 0.15889515 -4.21874
1.3318106 5.733014 2.0022824 -0.45893446 -0.7352564 3.4365785 -2.0695562 -2.4822922
3.883273 -4.5668845 0.43741444 -2.2250543 -2.9523444 -4.48564 -1.7884102 -0.092198305
-1.0226426 -0.58498657 -1.5353173 4.036773 4.1666436 0.3605088 1.2269356 1.7905905
1.611676 -3.0748394 3.4164488 -3.2821634 2.0990772 1.7166129 -2.232028 3.3229892
-2.7726562 4.0180435 1.1455672 -4.7163935 -4.7290397 -4.268634 2.0128984 -1.5366601
-10.699745 -2.6721425 1.1057781 2.1408486 -2.083425 0.7393955 4.6195955 1.9912673
2.731401 4.4098783 0.32798898 8.482415 -2.1321242 -4.9008493 4.421218 -2.9826624
-0.2683236 3.252485 5.057462 -2.0518985 -0.40444553 -2.3593009 1.3687196 -2.0231996
4.7567134 -0.26845628 1.6774364 -4.1078467 3.7572048 -2.1020465 2.1076598 -0.84140915
6.968345 -2.5165672 -5.693085 2.1812148 -1.6993955 -0.8900794 -1.827009 5.8156004
1.7413784 -3.9716482 0.16880028 -0.6488392 -3.1208227 4.656612 -1.8570385 -0.5537139
-5.643162 0.57982093 2.034698 1.5625981 2.20767 -3.8445466 2.2547362 -0.7784146
2.460317 3.0933464 2.7956624 -4.02376 1.6249124 1.3222015 1.1656848 1.2547019
0.33559358 0.3675811 -4.3292704 -0.23211652 0.7296009 -1.1541663 -1.3358455 1.9498789
6.7073793 2.2547204 -0.716662 4.708607 -2.2307715 -3.6660352 2.1331325 1.9015508
2.5080647 0.2090373 3.9070303 -0.29214525 -4.0390487 0.5225496 -1.2471439 5.4959793
-0.8465795 3.419193 -3.5759482 2.4578907 2.753893 -7.5318966 -1.3325561 -2.4239504
-5.736311 2.2851405 8.389761 -1.4713936 -0.18100993 -5.7714477 -3.697815 -0.80619925
-4.888963 -6.357977 -3.0197082 0.8385643 7.7326293 -4.1528363 2.8255677 -3.0103815
4.556429 4.6087103 0.30803648 0.45825028 0.5020662 -0.64650995 1.442608 -0.64766693
-1.7734556 1.6255887 -7.4906635 3.730665 -6.6659875 -1.8026482 7.27216 0.8481945
-2.6286585 1.6648686 0.22756839 -1.8286592 -1.2071279 -1.2221491 -0.3765027 0.8349552
-3.6217325 -0.81303114 -1.5867084 -2.312867 2.7130451 -2.8138592 -0.96102226 3.3120239
00000000: 6862 c7be d2cd 8dc0 decb 9ac0 0dbe d5bf
00000010: fceb 38c0 590f 8cc0 609f bf3e 8609 df3d
00000020: a5cb 0f40 faf0 16c0 8d7a 8dc0 a76f c3be
00000030: ab23 b1bf afb0 35be 0bce c73d 9699 dd40
00000040: e97f 72c0 f306 4d3f 9d94 dd3e 0696 13bf
00000050: 3f67 58bf eb7c 1f40 faf6 ea3e 6133 b5bf
00000060: 649a f63f 9b01 f2bd f9d8 9fbf 19d7 7a40
00000070: 82bf 41c0 0fac ee3f f989 8040 f57b 8440
00000080: d40c 8ec0 1167 333f 0d4b 94bf c210 35c0
00000090: 47b1 3fbf 5534 9ac0 1f62 2040 fede 08c0
000000a0: 9135 103f e11d 453f 0418 7c40 86b2 e5bf
000000b0: 7a62 dc3d 04c1 1840 087b d13f b9f2 ad3f
000000c0: 73d4 813f 2ffd e73f 2f28 953e ac29 d93f
000000d0: be86 7240 f9a8 1840 f4d4 333d 8a9a 06c0
000000e0: ad0c b73f bce4 5840 937c 09c0 ceba 80c0
000000f0: 610c cebf 3a90 f73f 4757 b2bf d5cc 7540
00000100: f22b 3e3e 8a3b b2bf 4b85 f63d a48e 34bf
00000110: a96e b6c0 a18f f7bd 69b5 223e ebff 86c0
00000120: c578 aa3f da74 b740 6525 0040 75f9 eabe
00000130: c339 3cbf e7f0 5b40 9c73 04c0 e0dd 1ec0
00000140: 8b87 7840 eb23 92c0 c9f4 df3e 4a67 0ec0
00000150: 36f3 3cc0 5d8a 8fc0 a0ea e4bf 77d2 bcbd
00000160: f4e5 82bf aec1 15bf 4785 c4bf 3f2d 8140
00000170: 2555 8540 9c94 b83e 3a0c 9d3f 1232 e53f
00000180: 664b ce3f 2bca 44c0 19a7 5a40 f70e 52c0
00000190: 4857 0640 f9b9 db3f 8cd9 0ec0 dbab 5440
000001a0: 3373 31c0 d093 8040 f2a1 923f b2ec 96c0
000001b0: 4b54 97c0 a698 88c0 54d3 0040 47b1 c4bf
000001c0: 2832 2bc1 6204 2bc0 238a 8d3f aa03 0940
000001d0: d656 05c0 0649 3d3f bad3 9340 d9e1 fe3f
000001e0: 46cf 2e40 b91d 8d40 2cee a73e f9b7 0741
000001f0: b974 08c0 c2d3 9cc0 9e7a 8d40 f1e3 3ec0
00000200: b661 89be b728 5040 bbd6 a140 4e52 03c0
00000210: 7c13 cfbe c9fe 16c0 3432 af3f 1a7c 01c0
00000220: ff36 9840 1a73 89be 3cb6 d63f 7b73 83c0
00000230: 0b76 7040 ee87 06c0 e6e3 0640 9766 57bf
00000240: affc de40 700f 21c0 c12d b6c0 0699 0b40
00000250: cb85 d9bf 3edc 63bf 6edb e9bf 6619 ba40
00000260: 7de5 de3f 7c2f 7ec0 fbd9 2c3e 531a 26bf
00000270: 8fbb 47c0 f702 9540 70b3 edbf 32c0 0dbf
00000280: c894 b4c0 256f 143f 7e38 0240 3703 c83f
00000290: 774a 0d40 0d0d 76c0 994d 1040 2e46 47bf
000002a0: d575 1d40 63f9 4540 22ec 3240 a4c2 80c0
000002b0: 21fd cf3f e63d a93f 2935 953f 129a a03f
000002c0: ecd2 ab3e 9733 bc3e 6289 8ac0 f4af 6dbe
000002d0: 20c7 3a3f b9bb 93bf fcfc aabf a295 f93f
000002e0: daa2 d640 574d 1040 2977 37bf e9ac 9640
000002f0: f6c4 0ec0 52a0 6ac0 3e85 0840 0466 f33f
00000300: 2284 2040 e00d 563e c90c 7a40 1094 95be
00000310: e33f 81c0 d0c5 053f 69a2 9fbf 10df af40
00000320: 6fb9 58bf 0fd4 5a40 56dc 64c0 154e 1d40
00000330: c83f 3040 4c05 f1c0 3391 aabf 0122 1bc0
00000340: dc8f b7c0 be3f 1240 763c 0641 a056 bcbf
00000350: ab5a 39be b3af b8c0 00a9 6cc0 1363 4ebf
00000360: 6372 9cc0 8c74 cbc0 e642 41c0 26ac 563f
00000370: b371 f740 09e4 84c0 1ad6 3440 17aa 40c0
00000380: 44ce 9140 8e7a 9340 f5b6 9d3e c89f ea3e
00000390: 6987 003f ad81 25bf 61a7 b83f 80cd 25bf
000003a0: 9800 e3bf 4a13 d03f 84b3 efc0 37c3 6e40
000003b0: c54f d5c0 2dbd e6bf 89b5 e840 4623 593f
000003c0: f13b 28c0 6a1a d53f b007 693e 8111 eabf
000003d0: 2b83 9abf 626f 9cbf f6c4 c0be a0bf 553f
000003e0: 77ca 67c0 cf22 50bf 4319 cbbf 0306 14c0
000003f0: 88a2 2d40 4516 34c0 8e05 76bf 33f8 5340
