dual/pg_info/es_supervised_model.pth.tar (torch, 163543 bytes, 6 tensors)

net.0.weight f4 [32, 874]
-3.7392206 4.2979383 -0.88836604 -0.4163937 -1.8194817 -2.1314647 3.3172266 1.6138754
0.8372389 1.0941851 2.111486 4.557182 -1.4851483 -4.357164 0.284767 0.3771515
-0.45863047 -0.8392945 3.5625107 -1.4095061 2.3999307 -2.674632 3.669734 1.1032661
-0.76781 -4.9958854 1.197916 1.0134526 2.5974207 3.8551657 0.7194836 -0.41874152
0.6275618 -2.3452547 -1.589231 -0.41095316 -0.9930242 1.6215184 2.2899053 -0.9091893
2.7519858 2.810188 -2.0336328 0.6728873 -1.8962574 1.3202692 -0.13078538 -3.2069502
0.22419366 0.8277559 1.0509249 -1.6335245 -5.06404 -2.7102506 -5.1721044 5.548876
2.4555907 1.336743 -2.9941869 2.1803627 -3.2292063 -1.5750781 2.4877732 3.9160976
-4.095114 -0.5229223 -1.2553613 4.9817533 -0.3331938 1.6048723 -3.001698 3.7049677
-1.5675098 0.16100328 1.4661746 -1.3214699 -5.226563 -3.4839957 -2.8201728 -1.274106
1.5245124 2.6226218 -2.2600086 2.7774024 -2.4866705 -3.2082388 4.072126 3.1096761
0.048046745 0.33463258 -1.12546 -4.527115 3.66506 -0.41971025 2.4258335 -4.658538
-3.6255314 4.2925544 -3.9326973 1.1610932 -3.1874094 -2.4031014 1.4844027 -3.905004
-0.48198935 -2.6922178 0.83782065 -2.2379937 2.6196363 0.51085687 3.0231547 -1.4524064
1.7152486 -4.7828774 0.56204224 -4.3782916 -3.1897302 -4.0250187 -3.5087428 -0.04445978
-0.055202026 2.8472567 -1.6081482 -4.539813 1.0359054 -1.0317442 -1.4624336 -2.6653414
-5.3791757 0.9516233 2.6362474 -1.4308574 -3.0427334 -1.5506293 4.695816 -1.2659967
3.8475568 5.1184425 -2.3849747 -0.19806215 1.2164639 3.4613602 -0.3660739 2.6190727
-1.8738035 1.5788276 -4.27907 -3.8954048 -0.2896052 3.3320715 -4.6343117 -4.0438128
-1.3719794 -4.3708873 -5.6831403 0.81440043 -5.2047896 -1.5155219 -1.7540352 -0.026379488
-3.674179 2.4651594 -4.388403 3.1306612 -0.13801858 -3.6748042 1.335664 0.78409165
-0.54872227 -0.62652147 2.3835797 4.229831 -0.46863136 4.259368 2.5806012 -3.020855
-3.4560297 -0.88865495 -4.019198 3.581517 2.2436893 5.336455 -3.2568996 5.6468706
-2.1938589 2.8231695 -0.6351565 1.6368064 3.0310287 -1.0976429 5.2880573 -0.11742385
-4.5984054 2.221938 3.7855773 -2.5285492 -0.90907025 5.6366043 -2.4035985 -0.17197953
-2.0303032 3.3875263 0.057818852 -2.8047254 -1.9524703 -2.4201906 -1.341307 -5.451504
-0.94871014 0.7289121 -3.321229 0.7176678 -5.2103205 -4.4483647 1.8648516 3.6842313
-1.3300582 -3.087093 1.4913114 -0.20527716 0.5327319 -2.615398 -1.2671688 1.3851453
3.2415261 -1.208834 -0.8358809 -3.3962643 -2.0324664 3.1398563 0.1064736 -1.0075685
-4.0389013 -3.5039618 -0.09018077 -1.6246634 3.438398 -0.94023436 2.6965783 -0.8055289
2.8284173 2.126048 -1.5700431 4.362204 2.2907584 -1.2201264 3.4404716 -0.5705974
-0.92066985 -2.9874418 3.3807156 3.532957 -2.6145175 -1.7305083 -1.284518 -2.280408
00000000: 644f 6fc0 b688 8940 f56b 63bf 8e31 d5be
00000010: c7e4 e8bf eb69 08c0 714d 5440 7893 ce3f
00000020: 4a55 563f 420e 8c3f 9622 0740 6fd4 9140
00000030: 5719 bebf e36d 8bc0 fbcc 913e 001a c13e
00000040: 9dd1 eabe 01dc 56bf 2d00 6440 b26a b4bf
00000050: 7798 1940 2c2d 2bc0 ecdc 6a40 d337 8d3f
00000060: 328f 44bf 4bde 9fc0 5055 993f d1b8 813f
00000070: 243c 2640 09bb 7640 1430 383f 4a65 d6be
00000080: e4a7 203f a718 16c0 ec6b cbbf 7468 d2be
00000090: d536 7ebf ea8d cf3f cf8d 1240 a1c0 68bf
000000a0: 8920 3040 1fda 3340 0a27 02c0 5842 2c3f
000000b0: 90b8 f2bf 95fe a83f 9aec 05be ac3e 4dc0
000000c0: 0693 653e d0e7 533f b584 863f 5517 d1bf
000000d0: 9e0c a2c0 bf74 2dc0 e181 a5c0 6490 b140
000000e0: 6628 1d40 651a ab3f c2a0 3fc0 108b 0b40
000000f0: 51ab 4ec0 299c c9bf ad37 1f40 58a1 7a40
00000100: 2d0b 83c0 3cde 05bf aeaf a0bf 866a 9f40
00000110: 6198 aabe 756c cd3f d21b 40c0 311e 6d40
00000120: 29a4 c8bf 0bde 243e 9cab bb3f ed25 a9bf
00000130: 0140 a7c0 c9f9 5ec0 b67d 34c0 e815 a3bf
00000140: 3923 c33f 09d9 2740 fba3 10c0 f6c0 3140
00000150: 9c25 1fc0 c953 4dc0 db4e 8240 ef04 4740
00000160: aacc 443d f654 ab3e 130f 90bf 20de 90c0
00000170: 5890 6a40 43e4 d6be db40 1b40 be12 95c0
00000180: b508 68c0 9b5c 8940 50b1 7bc0 b49e 943f
00000190: 84fe 4bc0 6acc 19c0 e800 be3f 96eb 79c0
000001a0: 4fc7 f6be 4c4d 2cc0 6a7b 563f 4a3b 0fc0
000001b0: 1fa8 2740 84c7 023f 5e7b 4140 74e8 b9bf
000001c0: 448d db3f 550d 99c0 00e2 0f3f f71a 8cc0
000001d0: 8a24 4cc0 f4cc 80c0 3e8f 60c0 751b 36bd
000001e0: 851b 62bd 7439 3640 cdd7 cdbf 2646 91c0
000001f0: 8c98 843f 3210 84bf 0631 bbbf f494 2ac0
00000200: 3522 acc0 969d 733f 47b8 2840 5626 b7bf
00000210: 25bc 42c0 057b c6bf 2044 9640 2e0c a2bf
00000220: 5f3e 7640 48ca a340 6da3 18c0 ced0 4abe
00000230: 17b5 9b3f ed86 5d40 0a6e bbbe e39e 2740
00000240: cbd8 efbf 0617 ca3f 24ee 88c0 504e 79c0
00000250: 2247 94be a940 5540 484c 94c0 ea66 81c0
00000260: 059d afbf 4fde 8bc0 49dc b5c0 8c7c 503f
00000270: a38d a6c0 9ffc c1bf 3a84 e0bf cc19 d8bc
00000280: c025 6bc0 2cc5 1d40 cc6d 8cc0 c15c 4840
00000290: be54 0dbe fe2f 6bc0 0af7 aa3f 3bba 483f
000002a0: 1079 0cbf b663 20bf 928c 1840 c75a 8740
000002b0: 73f0 efbe be4c 8840 9228 2540 b055 41c0
000002c0: 972f 5dc0 e47e 63bf 459d 80c0 9337 6540
000002d0: 9b98 0f40 3dc4 aa40 0b71 50c0 2ab3 b440
000002e0: 2f68 0cc0 cfae 3440 9e99 22bf df82 d13f
000002f0: 60fc 4140 907f 8cbf c437 a940 ea7b f0bd
00000300: 2326 93c0 3b34 0e40 e646 7240 c0d3 21c0
00000310: d4b8 68bf 105f b440 8fd4 19c0 671b 30be
00000320: 7df0 01c0 3bcd 5840 76d3 6c3d 9f80 33c0
00000330: 8cea f9bf 67e4 1ac0 f3af abbf b972 aec0
00000340: abde 72bf fc99 3a3f 048f 54c0 14b9 373f
00000350: f2ba a6c0 0159 8ec0 75b3 ee3f 72ca 6b40
00000360: 593f aabf ef92 45c0 4be3 be3f 2d34 52be
00000370: 1e61 083f ae62 27c0 9632 a2bf 714c b13f
00000380: 2a75 4f40 13bb 9abf 4afc 55bf 655c 59c0
00000390: ee13 02c0 68f3 4840 d50e da3d 01f8 80bf
000003a0: ae3e 81c0 e940 60c0 b2b0 b8bd f8f4 cfbf
000003b0: b60e 5c40 33b3 70bf bd94 2c40 2437 4ebf
000003c0: ca04 3540 2c11 0840 2cf7 c8bf 2d97 8b40
000003d0: c99b 1240 1a2d 9cbf b030 5c40 ac12 12bf
000003e0: 05b1 6bbf 3f32 3fc0 a55d 5840 f81b 6240
000003f0: 4154 27c0 4c81 ddbf 166b a4bf 34f2 11c0

net.0.bias f4 [32]
4.9628744 -2.0830483 -0.30044302 3.7981958 -3.505163 -0.5062721 -0.8465234 0.31730935
-0.38226983 0.26839536 -2.586309 5.6221566 -1.5275397 -1.4559569 6.5577054 2.5240948
1.110155 5.0036707 2.1909723 1.8215421 2.7468042 -6.107544 -1.7834325 2.382732
-1.587897 -1.1186324 -2.5699093 0.2018994 0.20091864 0.028707294 -6.191331 0.5826701
00000000: decf 9e40 aa50 05c0 abd3 99be a415 7340
00000010: 9754 60c0 0c9b 01bf c2b5 58bf 5f76 a23e
00000020: dfb8 c3be 1e6b 893e 1686 25c0 b5e8 b340
00000030: 6c86 c3bf cc5c babf b9d8 d140 c58a 2140
00000040: 8f19 8e3f 121e a040 e438 0c40 4b28 e93f
00000050: a4cb 2f40 0071 c3c0 8447 e4bf ae7e 1840
00000060: 3540 cbbf 592f 8fbf 6579 24c0 b7be 4e3e
00000070: 9ebd 4d3e 8f2b eb3c 621f c6c0 de29 153f

net.2.weight f4 [32, 32]
0.696877 0.93919045 -4.114192 0.22358356 1.0557349 5.2445717 -4.223761 1.9526117
-0.4716 -0.89705926 -1.5308888 0.45243856 -2.4232905 -1.6209365 2.5109153 -1.2655867
-1.5302547 -0.65107745 0.8327272 1.2960341 -3.0510917 3.5034242 -4.1082716 -0.14587387
1.3770167 0.08113971 0.5050728 -0.3002644 -0.020248683 -1.5197206 -4.950552 2.8193939
0.87612194 1.1029955 0.87081623 -6.9825435 -1.0847071 6.8817368 0.14153671 2.0928078
0.33306772 2.4143646 -2.045181 -5.2912016 -2.422693 -2.387579 -3.506707 5.3731947
-4.301459 -1.1829077 -2.6205595 -0.24070337 -0.6967557 -4.4377975 -3.1419992 -3.1808717
-1.2482454 -1.1541376 -1.570487 3.350124 2.3126726 -2.32312 -2.2924817 3.0940063
3.2801723 -0.39130172 1.0940536 -1.1903772 0.37029588 2.1777956 -2.7970653 -5.62412
-1.3017862 2.1933477 -0.66187143 1.3243302 1.9723059 -2.3551211 -0.86320084 1.7563556
0.85383654 3.2054179 -0.61094254 0.34143844 -0.17823412 -1.9514383 -1.552648 -0.69487023
-2.8680623 2.4559464 -0.49161404 2.0397978 -1.7634315 1.860161 2.9939892 -3.6248376
-3.2237537 5.226438 0.8738063 -2.261205 -1.8747606 -5.0389943 0.069659196 -2.7946362
0.5273304 -4.7230434 -3.8527367 0.55153376 -0.58006316 -2.5830693 -2.378453 -0.4757315
-2.1607518 -1.2111617 -0.7580001 3.7752151 -0.6205546 0.765905 -2.887651 4.0576806
1.423467 3.9191644 1.38468 3.5679379 1.3013839 -2.7283354 3.685301 0.7833012
0.05289307 2.3662434 1.0949419 -0.8135081 -1.8488579 1.5123271 3.111216 3.8872988
1.0259982 -1.9505466 3.6002545 -4.4855137 2.8934462 -2.2590237 0.16753858 4.1254687
3.9946115 -0.1397138 3.2486935 1.7062054 -3.7065072 1.6864291 -0.08441326 -3.0743625
-4.194133 0.9796285 -3.381975 1.3687389 -0.5623402 0.013715046 -0.208842 -2.7123544
0.6211284 1.9218168 -1.4474171 1.9249439 0.8522909 0.5307417 -0.08767333 4.0260725
1.2033138 3.135596 -2.6388316 -0.89380115 2.365941 -0.95346606 1.9634898 -0.24437232
3.1096559 3.6113997 1.869853 0.4397046 -1.3781278 0.39227077 2.3691165 1.1797897
-1.6306274 -3.9140935 1.356681 -4.2602496 -4.650459 -0.07640191 2.6435704 -3.6155202
-0.97668225 -1.2346451 1.6372198 0.7112517 -0.89080024 0.7946984 -3.540061 -2.3846433
-1.2986857 0.8207389 0.08983872 0.09689993 3.8313396 0.32062596 -1.8707926 -0.5177931
-4.463972 -2.4613419 -5.947941 0.68221796 -5.487917 -0.79778993 -3.9219081 -0.44035465
0.69299453 -2.2780406 -4.5256305 1.1869253 2.1808116 1.7933512 0.3906888 -2.3022444
6.966949 4.879993 0.13911812 1.7385596 -0.11609801 3.9248245 -5.4324775 -0.06718694
0.98322123 0.20175135 0.85873115 -1.7925568 0.79289806 4.448401 -2.2956235 -4.5480905
3.2857816 -3.1636415 -0.9648614 -3.9793692 1.7105784 1.9691082 -0.6905359 0.2282379
-4.0071 -1.8359915 -1.6466427 -1.1641693 3.2069778 -7.1111217 -2.9291573 -6.2061143
00000000: 8866 323f c96e 703f 76a7 83c0 17f3 643e
00000010: 5222 873f 88d3 a740 0d29 87c0 2eef f93f
00000020: 8e75 f1be ada5 65bf 2af4 c3bf 07a6 e73e
00000030: 3117 1bc0 d97a cfbf d6b2 2040 bffe a1bf
00000040: 63df c3bf 03ad 26bf 9c2d 553f 72e4 a53f
00000050: 1645 43c0 1a38 6040 f676 83c0 f65f 15be
00000060: 1542 b03f 942c a63d 734c 013f 41bc 99be
00000070: 91e0 a5bc 3486 c2bf ec6a 9ec0 f370 3440
00000080: 8749 603f f52e 8d3f d0ed 5e3f ff70 dfc0
00000090: afd7 8abf 3037 dc40 00ef 103e 90f0 0540
000000a0: da87 aa3e f384 1a40 3fe4 02c0 8651 a9c0
000000b0: 670d 1bc0 18ce 18c0 e36d 60c0 36f1 ab40
000000c0: 8da5 89c0 8569 97bf 3fb7 27c0 f27a 76be
000000d0: 955e 32bf 7002 8ec0 8416 49c0 6793 4bc0
000000e0: 81c6 9fbf c8ba 93bf b805 c9bf 6e68 5640
000000f0: d402 1440 00ae 14c0 05b8 12c0 3304 4640
00000100: 58ee 5140 b358 c8be f309 8c3f 485e 98bf
00000110: 6c97 bd3e 0161 0b40 1e03 33c0 cbf8 b3c0
00000120: eea0 a6bf cf5f 0c40 6870 29bf a783 a93f
00000130: 8574 fc3f 4eba 16c0 bbfa 5cbf 43d0 e03f
00000140: 0895 5a3f 9125 4d40 bb66 1cbf 05d1 ae3e
00000150: 0183 36be bbc8 f9bf 2bbd c6bf 04e3 31bf
00000160: 558e 37c0 3a2e 1d40 d6b4 fbbe 0c8c 0240
00000170: 20b8 e1bf c119 ee3f 859d 3f40 57fd 67c0
00000180: fb51 4ec0 fb3e a740 c5b1 5f3f 95b7 10c0
00000190: 28f8 efbf 713f a1c0 7ba9 8e3d 52db 32c0
000001a0: 20ff 063f 2c23 97c0 3d93 76c0 5131 0d3f
000001b0: 057f 14bf 0251 25c0 9338 18c0 1493 f3be
000001c0: c249 0ac0 5907 9bbf 4b0c 42bf 209d 7140
000001d0: abdc 1ebf 5a12 443f 46cf 38c0 85d8 8140
000001e0: 2b34 b63f 97d3 7a40 323d b13f 1859 6440
000001f0: bf93 a63f 0c9d 2ec0 f9db 6b40 6d86 483f
00000200: 67a6 583d 8870 1740 0e27 8c3f 1142 50bf
00000210: 60a7 ecbf ef93 c13f 2a1e 4740 81c9 7840
00000220: e953 833f 83ab f9bf 926a 6640 5489 8fc0
00000230: 392e 3940 d893 10c0 3c8f 2b3e d703 8440
00000240: b7a7 7f40 2211 0fbe 98ea 4f40 f064 da3f
00000250: 6a37 6dc0 e9dc d73f dce0 acbd 5bc2 44c0
00000260: 5636 86c0 efc8 7a3f 4772 58c0 d632 af3f
00000270: 87f5 0fbf 13b5 603c adda 55be 3797 2dc0
00000280: 4502 1f3f 18fe f53f f744 b9bf 9064 f63f
00000290: bd2f 5a3f b0de 073f 138e b3bd 96d5 8040
000002a0: 3006 9a3f 9bad 4840 9ee2 28c0 27d0 64bf
000002b0: 946b 1740 5a16 74bf a253 fb3f bd3c 7abe
000002c0: 9a04 4740 2c21 6740 5857 ef3f f620 e13e
000002d0: 7e66 b0bf b7d7 c83e 9b9f 1740 5903 973f
000002e0: 66b8 d0bf 8280 7ac0 b9a7 ad3f f753 88c0
000002f0: 8fd0 94c0 9b78 9cbd 4230 2940 af64 67c0
00000300: d907 7abf da08 9ebf 6b90 d13f 9714 363f
00000310: 7c0b 64bf 5b71 4b3f 5c90 62c0 ff9d 18c0
00000320: 553b a6bf f21b 523f 5dfd b73d 7873 c63d
00000330: ab34 7540 1629 a43e 2276 efbf 178e 04bf
00000340: dcd8 8ec0 a086 1dc0 8855 bec0 d6a5 2e3f
00000350: 049d afc0 f63b 4cbf 8b00 7bc0 2a76 e1be
00000360: 1768 313f 6bcb 11c0 f7d1 90c0 2bed 973f
00000370: 6b92 0b40 888c e53f 5d08 c83e f957 13c0
00000380: 3ff1 de40 e728 9c40 fb74 0e3e 1f89 de3f
00000390: cbc4 edbd 5330 7b40 dbd6 adc0 4e99 89bd
000003a0: 63b4 7b3f e897 4e3e ced5 5b3f 8072 e5bf
000003b0: 5efb 4a3f 4d59 8e40 7feb 12c0 f589 91c0
000003c0: 3f4a 5240 1a79 4ac0 2801 77bf fcad 7ec0
000003d0: 3cf4 da3f bd0b fc3f f6c6 30bf 32b7 693e
000003e0: 2a3a 80c0 c501 ebbf 30c5 d2bf 8003 95bf
000003f0: 203f 4d40 4f8e e3c0 5077 3bc0 7d98 c6c0

net.2.bias f4 [32]
-1.6922357 -0.88875616 0.5817365 -2.5677807 -0.76312184 2.8804717 -2.1101944 -4.701272
-5.717415 -0.30554166 0.03465582 -1.2350888 -0.7636646 -1.3657835 1.3144205 2.456561
-1.7725778 -1.4974877 0.08774117 -6.4254794 -3.195393 -4.5754867 5.3130617 -0.16191709
1.4049103 1.1276888 2.3117225 4.020683 -1.9471532 -0.66283596 -0.05128071 0.9620994
00000000: 2e9b d8bf 8685 63bf afec 143f 8556 24c0
00000010: f45b 43bf a659 3840 6d0d 07c0 d270 96c0
00000020: 10f5 b6c0 f56f 9cbe 43f3 0d3d 6417 9ebf
00000030: 867f 43bf fed1 aebf ee3e a83f 4c38 1d40
00000040: d4e3 e2bf adad bfbf a4b1 b33d 879d cdc0
00000050: 5281 4cc0 636a 92c0 9a04 aa40 98cd 25be
00000060: 1ad4 b33f 1b58 903f 43f3 1340 6fa9 8040
00000070: 513c f9bf 9eaf 29bf b90b 52bd 254c 763f

net.4.weight f4 [344, 32]
-4.5856576 1.6011847 3.460524 1.703662 -0.8495079 -3.2118773 2.4664547 -1.1547819
2.762366 0.9588644 0.45609954 -2.9365392 -6.404924 4.022238 3.541358 1.0665423
0.69123507 0.8324713 0.79851145 0.30376706 3.5257363 -1.3678988 1.9339865 1.7054287
2.5487282 -1.1832751 3.4940164 3.3665552 -2.5479794 1.3398235 2.0051582 5.164008
0.7143828 2.358026 -0.03702024 -0.96578836 -0.416237 3.3411248 -4.7163596 1.4121877
-0.42083654 0.26112872 0.551833 4.750095 -0.88823324 0.814057 1.0830861 1.7098008
-1.5748533 -0.6295444 -0.36739734 1.9847343 0.14575432 -4.938492 -1.1440976 -1.5137199
0.26170442 -2.703937 1.5352212 1.986139 -0.123274475 -3.0095544 -2.6507266 -1.4135582
-0.16132429 5.0353045 -1.8142809 2.750695 -0.12239036 2.1328306 -1.9633602 2.5261586
1.1981564 -5.484986 2.3661692 1.9860097 3.480294 3.3111203 0.9058787 -2.1715677
-1.6050795 2.4965248 -0.32780394 -2.7515938 0.30194953 0.55321217 3.136794 1.7074765
2.459058 5.051479 -2.9639342 2.8984375 1.4303557 1.8700615 2.8454013 -0.1757031
-2.2457848 4.3317857 1.0770111 -4.1653066 -3.3188126 2.6274176 -3.3505864 -2.6485941
-1.9798933 2.434801 3.0389705 -0.051617034 -5.09963 -5.9426217 -4.142879 2.2619061
0.73594284 0.57605 -2.1769338 0.07579491 1.9005214 -5.522352 -1.2154461 1.3005027
4.1716237 -0.22483155 0.2702687 0.1931268 3.1837683 1.9304118 -2.1911278 1.6597195
1.3874941 4.7235813 1.359767 -2.7048943 -2.0398157 3.001195 -0.20942888 -0.4784106
5.564101 -1.3862987 -0.080100276 -0.732223 2.8828223 0.20217608 0.23621319 -2.1954508
2.029229 0.7691628 -1.1103508 -0.29768586 6.878394 1.9238502 4.931049 -0.3421896
-2.1186366 -0.17967258 -1.8885398 1.0602741 0.59717304 -1.6285789 0.84888357 1.7373134
-1.5276728 -3.1303487 2.8854754 -0.17582469 -1.4359821 -0.5739633 -0.50846815 -6.241737
-4.1962767 -3.4533696 1.3167806 2.3491232 3.1963582 -4.4844747 -5.5899944 0.71190727
4.6917777 2.5118701 1.2772918 0.691832 -4.455318 1.550852 5.1613803 2.0538216
3.7959945 7.3356223 -4.2191133 1.0776113 2.509863 -0.25366116 -3.9591272 1.8130661
-1.470782 0.34109068 1.7676823 4.6450033 -0.15617196 -0.58060735 0.5278492 0.32275668
-4.7425847 1.0420179 0.07521318 -2.5559657 -2.2718127 2.5444946 4.1865096 -3.5354047
-0.3289382 -0.8745068 0.78325003 -4.559876 -1.257597 -0.80553484 2.964171 -1.0338498
0.75692695 -1.1680354 -0.5341764 -6.396721 -4.4589095 -2.1594243 -1.0235679 -2.0046868
-2.7246144 -1.6968969 -2.720737 3.0939329 -3.8700473 -1.3484805 1.4259703 -3.5743086
0.58934355 -0.9766841 1.3830695 7.2422247 1.2696108 1.6855174 1.71053 0.68274945
-1.227243 -0.8403555 1.436888 2.4366624 -3.3091936 1.8982817 0.45570862 -2.6439114
-1.8678035 2.0380018 1.6074231 -4.5023537 1.8853252 -0.79018074 -3.0850666 -5.816023
00000000: b5bd 92c0 9ff3 cc3f 3a79 5d40 9911 da3f
00000010: 5a79 59bf 668f 4dc0 65da 1d40 e5cf 93bf
00000020: 9bca 3040 2378 753f e185 e93e 42f0 3bc0
00000030: 23f5 ccc0 2cb6 8040 9ca5 6240 7584 883f
00000040: c8f4 303f d71c 553f 3f6b 4c3f 5b87 9b3e
00000050: aaa5 6140 4f17 afbf df8c f73f 7d4b da3f
00000060: 5d1e 2340 8f75 97bf f79d 5f40 a475 5740
00000070: 1812 23c0 567f ab3f 8354 0040 8e3f a540
00000080: cbe1 363f e6e9 1640 89a2 17bd e83d 77bf
00000090: 041d d5be fdd4 5540 6bec 96c0 91c2 b43f
000000a0: e377 d7be aab2 853e ed44 0d3f c700 9840
000000b0: 4163 63bf 0a66 503f 91a2 8a3f c1da da3f
000000c0: cb94 c9bf d229 21bf 811b bcbe c60b fe3f
000000d0: 9f40 153e 2008 9ec0 ca71 92bf 93c1 c1bf
000000e0: 1ffe 853e 4e0d 2dc0 2182 c43f ce39 fe3f
000000f0: 5477 fcbd 8a9c 40c0 81a5 29c0 7aef b4bf
00000100: 3232 25be 3721 a140 5b3a e8bf 630b 3040
00000110: cca7 fabd 4c80 0840 634f fbbf 95ac 2140
00000120: 305d 993f 0185 afc0 516f 1740 9135 fe3f
00000130: 23bd 5e40 65e9 5340 abe7 673f f7fa 0ac0
00000140: 3f73 cdbf 10c7 1f40 ebd5 a7be 1d1a 30c0
00000150: 2199 9a3e 509f 0d3f 3cc1 4840 978e da3f
00000160: 3561 1d40 b7a5 a140 19b1 3dc0 0080 3940
00000170: e515 b73f 2d5e ef3f 0e1b 3640 83eb 33be
00000180: f0ba 0fc0 fd9d 8a40 80db 893f 314a 85c0
00000190: 6d67 54c0 9c27 2840 0270 56c0 9182 29c0
000001a0: 256d fdbf c8d3 1b40 7e7e 4240 626c 53bd
000001b0: 2b30 a3c0 f529 bec0 7792 84c0 12c3 1040
000001c0: c066 3c3f 0378 133f e252 0bc0 5d3a 9b3d
000001d0: 4944 f33f 1cb7 b0c0 bd93 9bbf df76 a63f
000001e0: f17d 8540 3e3a 66be a960 8a3e 08c3 453e
000001f0: dcc2 4b40 bc17 f73f 703b 0cc0 b071 d43f
00000200: 6899 b13f 9427 9740 d80c ae3f fd1c 2dc0
00000210: 578c 02c0 9413 4040 8674 56be 3cf2 f4be
00000220: 1e0d b240 3c72 b1bf 9d0b a4bd f772 3bbf
00000230: 2980 3840 3f07 4f3e dfe1 713e 4482 0cc0
00000240: e3de 0140 dae7 443f fa1f 8ebf 486a 98be
00000250: ce1b dc40 b940 f63f 27cb 9d40 7a33 afbe
00000260: be97 07c0 17fc 37be acbb f1bf 10b7 873f
00000270: 55e0 183f 4675 d0bf 6f50 593f 4960 de3f
00000280: c88a c3bf a257 48c0 a1ab 3840 630b 34be
00000290: 43ce b7bf 42ef 12bf f82a 02bf 4fbc c7c0
000002a0: e647 86c0 0204 5dc0 448c a83f 0958 1640
000002b0: 2291 4c40 d180 8fc0 3ce1 b2c0 8e3f 363f
000002c0: 0b23 9640 7bc2 2040 4c7e a33f e71b 313f
000002d0: f791 8ec0 5182 c63f 072a a540 d071 0340
000002e0: 93f1 7240 6bbd ea40 fa02 87c0 2bef 893f
000002f0: 98a1 2040 e0df 81be 5762 7dc0 8d12 e83f
00000300: 9642 bcbf 70a3 ae3e 6a43 e23f dea3 9440
00000310: 8beb 1fbe afa2 14bf 2021 073f 5d40 a53e
00000320: 41c3 97c0 d860 853f 5e09 9a3d f194 23c0
00000330: 6165 11c0 00d9 2240 e3f7 8540 1244 62c0
00000340: 966a a8be addf 5fbf 1383 483f 81ea 91c0
00000350: f0f8 a0bf 8837 4ebf fab4 3d40 3155 84bf
00000360: f7c5 413f 2f82 95bf c9bf 08bf f0b1 ccc0
00000370: 63af 8ec0 0234 0ac0 4604 83bf ca4c 00c0
00000380: 1560 2ec0 eb33 d9bf 8e20 2ec0 ff02 4640
00000390: dbae 77c0 029b acbf 3286 b63f 79c1 64c0
000003a0: 38df 163f f807 7abf 6c08 b13f 4ec0 e740
000003b0: 9b82 a23f 09bf d73f a6f2 da3f abc8 2e3f
000003c0: 4c16 9dbf 8a21 57bf f2eb b73f 47f2 1b40
000003d0: d4c9 53c0 e5fa f23f a452 e93e d835 29c0
000003e0: 2f14 efbf 9f6e 0240 0ac0 cd3f 4813 90c0
000003f0: 5652 f13f 4949 4abf bb71 45c0 dc1c bac0

net.4.bias f4 [344]
2.667589 -1.9018474 -3.1829205 -1.4910936 1.0640322 0.54006726 2.0646598 -2.368561
5.0022426 -1.6615117 3.2102454 0.77842295 3.8388054 -2.0022867 2.0259817 -1.8188245
0.34098172 0.40915132 -5.2976885 -1.0424412 -0.8656256 -1.016901 -4.3232512 0.083967574
-1.0274378 -3.0123763 0.16737463 -6.1593156 -1.8269331 -2.4845297 -3.6323252 1.7055656
-1.1676905 6.6578217 1.9532648 3.3059976 2.7567196 4.2763205 -3.4787261 -3.3309765
-0.89228606 -3.0529313 -2.685525 4.663774 0.17806143 -3.4843242 1.4553744 -1.7092128
1.8123342 1.1716743 -2.4966366 2.8083637 2.0194275 1.5721514 2.0973134 3.209819
2.3026292 3.0454326 -1.5903068 -4.04689 3.1625173 4.6122837 2.0673072 3.5720081
-0.06807861 -2.706096 -7.56638 0.5569967 -2.8353925 1.6846759 -3.5824554 -2.149031
4.5196 0.16923268 0.46685982 -1.1068403 -1.6673075 1.9153125 -1.9560386 -0.12887308
3.3649144 1.4475821 -2.7571235 -2.5873976 0.0810591 4.0399046 2.9285119 -0.12780467
-1.6435131 3.624317 -0.33831146 4.9369993 -2.6443958 -1.3851446 -3.3452482 3.6588247
-2.9607642 -0.28567988 0.89141595 1.4370737 -1.9413497 -0.5107297 -7.1329226 0.5241203
7.632176 0.68926513 -0.65928155 0.32131317 5.0614543 5.3167863 2.7051473 -0.214527
-0.23082109 2.2814288 -3.273247 3.043365 0.755122 1.3535813 -2.0337174 -1.1137475
4.6216803 0.8222633 -3.778717 -5.012879 -1.244713 -2.4614718 -0.18955974 -4.986821
-3.0170493 -1.818792 -6.7705007 1.448006 0.75536734 3.772209 -3.816974 2.2799454
-3.5078878 -3.0171018 6.3523116 -0.829533 0.72408783 -3.1960351 0.06831614 -3.2551408
-2.2390144 3.5981932 -1.9356271 1.9898986 4.6120954 -4.4427342 3.6113071 0.20317496
3.2565799 2.2387455 -1.535238 2.1591692 -3.3526285 1.5523405 -0.43167132 -4.818749
-2.959316 -1.7068983 -0.6897633 4.856294 5.4868307 -5.1759195 2.4991982 -0.20503023
0.563018 -0.7163388 -3.2805328 -1.0999649 0.96253854 -0.8608765 -3.7125416 3.9196246
1.1764389 -1.4490033 -2.178136 -1.6527054 2.7542121 1.5429413 3.2053986 -2.8536005
2.8204832 -2.7982972 -1.0017054 1.6399819 -0.0021236623 0.74639434 0.23742738 2.0140595
-1.561 3.5222235 2.7517095 -2.3270023 -2.971693 3.0456831 -0.23507145 0.5059726
-0.4402352 -0.38043982 2.184526 -2.491778 -1.6564319 2.220326 2.5247006 -0.37457025
-4.531306 -0.49237043 -1.2109919 1.1949769 2.2216747 -5.613614 -0.37690544 0.62182057
0.79302734 -4.935039 -8.326462 1.5682229 -0.80313426 -3.4319804 1.5352652 -2.4257166
-3.5185273 -0.6654535 -0.44061828 1.4529037 -6.149046 0.91820645 2.9652197 1.1570437
-4.4462166 1.6471791 0.54025084 -3.983457 -3.1463568 0.736607 -1.7710092 0.21721822
1.6811403 0.14378776 -2.164994 -4.7216315 -0.19431189 -2.6425498 -2.6092129 -0.4376596
-1.636314 5.154233 -2.2919698 -0.7347451 -3.4134152 -3.0751781 0.3319288 -1.4589493
00000000: c7b9 2a40 bc6f f3bf f8b4 4bc0 28dc bebf
00000010: 3532 883f d941 0a3f 6323 0440 8196 17c0
00000020: 5f12 a040 6aac d4bf a974 4d40 ba46 473f
00000030: fdae 7540 7725 00c0 afa9 0140 3ecf e8bf
00000040: 2895 ae3e 487c d13e aa86 a9c0 b76e 85bf
00000050: a499 5dbf d029 82bf 1358 8ac0 31f7 ab3d
00000060: 1583 83bf c6ca 40c0 4164 2b3e 1d19 c5c0
00000070: f2d8 e9bf 8902 1fc0 0478 68c0 f94f da3f
00000080: e276 95bf e00c d540 9504 fa3f 7795 5340
00000090: 186e 3040 9ed7 8840 73a3 5ec0 b82e 55c0
000000a0: dc6c 64bf 3a63 43c0 a4df 2bc0 a33d 9540
000000b0: bc55 363e 2bff 5ec0 b549 ba3f 7cc7 dabf
000000c0: 91fa e73f 6cf9 953f e5c8 1fc0 3bbc 3340
000000d0: 4d3e 0140 423c c93f 623a 0640 ad6d 4d40
000000e0: 475e 1340 5ee8 4240 2c8f cbbf 1f80 81c0
000000f0: af66 4a40 d497 9340 c34e 0440 c89b 6440
00000100: cc6c 8bbd ad30 2dc0 c91f f2c0 5697 0e3f
00000110: 1277 35c0 76a3 d73f f346 65c0 b989 09c0
00000120: 90a0 9040 554b 2d3e 4008 ef3e f1ac 8dbf
00000130: 556a d5bf f628 f53f 795f fabf 4ef7 03be
00000140: c25a 5740 5f4a b93f b674 30c0 ec97 25c0
00000150: 5002 a63d e646 8140 bd6c 3b40 3adf 02be
00000160: a35e d2bf cff4 6740 2937 adbe e6fb 9d40
00000170: c83d 29c0 6b4c b1bf 8c18 56c0 2f2a 6a40
00000180: 297d 3dc0 a244 92be d633 643f 08f2 b73f
00000190: 267e f8bf 2ebf 02bf e740 e4c0 bf2c 063f
000001a0: c93a f440 ae73 303f adc6 28bf 2983 a43e
000001b0: 6ff7 a140 1d23 aa40 2221 2d40 f7ac 5bbe
000001c0: 5d5c 6cbe ee02 1240 e17c 51c0 7ec6 4240
000001d0: ad4f 413f 2742 ad3f 6d28 02c0 478f 8ebf
000001e0: cee4 9340 d97f 523f 80d6 71c0 8169 a0c0
000001f0: c152 9fbf c188 1dc0 f31b 42be 0a94 9fc0
00000200: 5617 41c0 2dce e8bf f1a7 d8c0 4358 b93f
00000210: c15f 413f df6b 7140 4d49 74c0 a0ea 1140
00000220: 3c81 60c0 3218 41c0 2346 cb40 465c 54bf
00000230: d25d 393f d78b 4cc0 55e9 8b3d 3a54 50c0
00000240: 034c 0fc0 cc48 6640 a1c2 f7bf ffb4 fe3f
00000250: 4996 9340 e12a 8ec0 a81f 6740 190d 503e
00000260: ce6b 5040 9b47 0f40 ae82 c4bf d42f 0a40
00000270: 7791 56c0 18b3 c63f 0604 ddbe 3133 9ac0
00000280: 6f65 3dc0 a57b dabf 5494 30bf c366 9b40
00000290: 1e94 af40 22a1 a5c0 ddf2 1f40 72f3 51be
000002a0: f321 103f fb61 37bf 40f4 51c0 a6cb 8cbf
000002b0: ed68 763f 6762 5cbf 489a 6dc0 21db 7a40
000002c0: 8d95 963f f178 b9bf 9566 0bc0 da8b d3bf
000002d0: 0345 3040 1a7f c53f 4025 4d40 64a1 36c0
000002e0: cc82 3440 4d17 33c0 e237 80bf edea d13f
000002f0: 242d 0bbb b313 3f3f 2a20 733e 5ae6 0040
00000300: d9ce c7bf 1c6c 6140 021c 3040 9bed 14c0
00000310: 3830 3ec0 79ec 4240 92b6 70be 6c87 013f
00000320: 8266 e1be 02c9 c2be 46cf 0b40 4a79 1fc0
00000330: f605 d4bf d219 0e40 b294 2140 acc7 bfbe
00000340: 7500 91c0 fa17 fcbe c801 9bbf 01f5 983f
00000350: eb2f 0e40 baa2 b3c0 c0f9 c0be a22f 1f3f
00000360: d703 4b3f d7eb 9dc0 3039 05c1 87bb c83f
00000370: 359a 4dbf 91a5 5bc0 9283 c43f f13e 1bc0
00000380: 8d2f 61c0 295b 2abf b898 e1be c0f8 b93f
00000390: fcc4 c4c0 940f 6b3f 29c6 3d40 021a 943f
000003a0: 6847 8ec0 c4d6 d23f e14d 0a3f f6f0 7ec0
000003b0: e95d 49c0 4792 3c3f 6eb0 e2bf 746e 5e3e
000003c0: 9b2f d73f 193d 133e 438f 0ac0 9b17 97c0
000003d0: b2f9 46be 891f 29c0 58fd 26c0 eb14 e0be
000003e0: bd72 d1bf 7aef a440 a2af 12c0 4118 3cbf
000003f0: 6575 5ac0 b8cf 44c0 92f2 a93e dabe babf
