dual/pg_info/selfplay_model.pth.tar (torch, 163543 bytes, 6 tensors)

net.0.weight f4 [32, 874]
0	0x3cd7722c	0.026299559
1	0x3ccbf090	0.024894983
2	0x3c32ecd8	0.010920726
3	0x3aed30e0	0.0018096231
4	0x3c05af1c	0.008159425
5	0xbc09963a	-0.008397633
6	0xbc93e256	-0.018052261
7	0xbc2570e6	-0.010097718
8	0x3c57466c	0.0131393485
9	0xba94da0f	-0.001135649
10	0xbb32f308	-0.0027305502
11	0x3aa946c0	0.0012914762
12	0x3ca7ff8e	0.0205076
13	0xbc86db4b	-0.016461989
14	0xbccb98cf	-0.024853138
15	0x3c45aea4	0.012065563
16	0x3cfb2c22	0.030660693
17	0xbc90ff46	-0.017699849
18	0xbcf926a2	-0.03041393
19	0x3ca0d330	0.019631952
20	0x3bd12c40	0.006383449
21	0xbcf37b51	-0.029721888
22	0x3d00a077	0.03140303
23	0xbc46dc71	-0.012137518
24	0x3c774540	0.015092194
25	0x3b41fd00	0.0029600263
26	0x3c60f830	0.0137310475
27	0x3cf1eaaa	0.029530842
28	0xba99b4a0	-0.0011726804
29	0x3cdf4b68	0.027257636
30	0xbbd432c0	-0.0064757764
31	0xbb5e8e40	-0.00339593
32	0x3c850126	0.0162359
33	0xbc94bb90	-0.018155843
34	0xbbfbdfb4	-0.0076865796
35	0xbccce292	-0.02501038
36	0xbcf5c524	-0.03000123
37	0xbc3973e4	-0.011319134
38	0xbc9e0734	-0.019290544
39	0x3cc3d48e	0.023905065
40	0x3d099121	0.03358567
41	0xbd0a6a92	-0.03379304
42	0xbcee3bb1	-0.029081197
43	0xbce40bee	-0.02783772
44	0xbbf853dc	-0.007578356
45	0xbb481d10	-0.00305349
46	0x3ca2c2d4	0.019868292
47	0xbbd3d8c4	-0.0064650495
48	0xbc58dd50	-0.013236359
49	0xbcfb6681	-0.030688526
50	0x3cc620fe	0.024185654
51	0xbcb6a9fc	-0.022297852
52	0xbcc60bce	-0.02417555
53	0x3b197db0	0.0023420863
54	0x3b5dda40	0.003385201
55	0xbce252fd	-0.027627463
56	0xbccf50ad	-0.025307024
57	0x3c88c624	0.016696043
58	0x3c2fb018	0.010723136
59	0x3b9df900	0.004820943
60	0x3ce32844	0.027729161
61	0x3d039af1	0.032130186
62	0xbcd30eb0	-0.02576384
63	0x3d028e8f	0.031874236
64	0xbc949d3d	-0.018141383
65	0x3cd057f6	0.025432568
66	0xbc21d1ba	-0.009876663
67	0xbbee5d50	-0.0072743073
68	0xbcd7f9b3	-0.026364183
69	0x3d03ede8	0.032209307
70	0x3c7f68a0	0.015588909
71	0x3cf82f8a	0.030296106
72	0x3ae14160	0.0017185621
73	0x3ca7d15a	0.020485569
74	0x3d00c243	0.031435262
75	0x3c9bf9f6	0.01904009
76	0x3cd2a2a6	0.025712322
77	0xbc115e40	-0.008872569
78	0x3beda964	0.007252859
79	0xbd4dbe98	-0.050230592
80	0x3ca98edc	0.020698003
81	0x3cd169d6	0.025563162
82	0xba96e460	-0.0011512153
83	0x3c081b34	0.008307267
84	0x3c791c8c	0.01520456
85	0xbc45d95a	-0.012075746
86	0xbbf5a1e4	-0.0074961055
87	0xbce0e64d	-0.027453566
88	0x3ccd678a	0.025073785
89	0x3ca0e4e8	0.019640401
90	0x3cbac5f8	0.022799477
91	0xbcfab304	-0.03060294
92	0xbc8b7cae	-0.017027225
93	0xbcfe6dee	-0.031058278
94	0xbcf538fa	-0.029934395
95	0xbaf2c540	-0.001852192
96	0x3b96e870	0.0046053454
97	0x3c19ea64	0.009394262
98	0x3cc668be	0.024219867
99	0xbc203184	-0.00977743
100	0x3b1b2000	0.0023670197
101	0x3ce10cc4	0.027471907
102	0xbce0c7a5	-0.027438948
103	0xbc3d4630	-0.011552379
104	0x3cd518be	0.026012775
105	0xb984f580	-0.00025359914
106	0xbcefbdfa	-0.029265393
107	0xbb8afb30	-0.0042413697
108	0x3d0234a3	0.03178848
109	0x3c135a3c	0.0089936815
110	0xbc843956	-0.016140621
111	0xbc8b179a	-0.016979028
112	0xbc604e14	-0.01369049
113	0x3ceb8796	0.028751176
114	0xbd069e9a	-0.032866098
115	0x3cf29386	0.02961136
116	0x3ce858d0	0.028362662
117	0x3bc0a3c8	0.0058788992
118	0xbc21914e	-0.0098613035
119	0xbc4f3fb6	-0.012649467
120	0xbc620e6a	-0.013797382
121	0xbc0817ee	-0.0083064865
122	0x3cd345a2	0.02579004
123	0x3cab5a50	0.020917088
124	0x3cb9cb36	0.022679906
125	0xbc7a3068	-0.01527033
126	0x3ccb3712	0.024806533
127	0x3c64732c	0.013943475
128	0xbcf8c2db	-0.030366352
129	0xbd27e319	-0.04098806
130	0xbcd0f340	-0.025506616
131	0xbc5a46e4	-0.013322566
132	0x3cb281dc	0.021790437
133	0xbcecb142	-0.028893117
134	0x3c9826d4	0.018573202
135	0xbcad8dc0	-0.021185756
136	0x3c3b4ab8	0.011431389
137	0x3ccedf06	0.02525283
138	0xbc44a31e	-0.012001781
139	0xbc9ad070	-0.018898219
140	0xbc3f3214	-0.011669654
141	0xba3a6d00	-0.0007111579
142	0x3bca5218	0.006174337
143	0xbcf89d81	-0.030348541
144	0xbb72b460	-0.0037033781
145	0xbb4e4280	-0.0031472743
146	0xbcf4c180	-0.029877424
147	0x3c804f3c	0.015662782
148	0x3b093770	0.0020937584
149	0x3cd8a5e6	0.026446294
150	0xbc5c816c	-0.013458591
151	0x3be7e358	0.007076662
152	0x3c66f100	0.014095545
153	0x3c89195a	0.016735721
154	0x3d07668d	0.033056784
155	0x3ab0cc20	0.0013488568
156	0xbc6b6206	-0.014366632
157	0xbc0428e6	-0.008066392
158	0xba466f80	-0.00075697154
159	0xbc29a7d8	-0.0103549585
160	0xbc0ebf22	-0.008712562
161	0x3b30fe90	0.00270072
162	0x37ba6800	2.2221357e-05
163	0xbc8c1696	-0.017100614
164	0x3cf1291a	0.029438544
165	0x3a83b160	0.0010047369
166	0x3c287d6c	0.010283809
167	0x3ce59e8e	0.028029706
168	0x3c9b536c	0.018960677
169	0x3c61b6fc	0.013776537
170	0x3ccf46d2	0.025302324
171	0x3c63d988	0.013906844
172	0x3d012ab9	0.031534884
173	0x3b30f100	0.0026999116
174	0xbc5d18c6	-0.013494676
175	0x3cd83e14	0.026396789
176	0x3cddcc68	0.027075008
177	0x3b2a0f40	0.002594903
178	0x3ca63202	0.020287517
179	0x3c5fc4c7	0.013657755
180	0x3bafe9d0	0.005368449
181	0xbba63710	-0.005072482
182	0xbcbe59e5	-0.023236224
183	0x3cc73c38	0.024320707
184	0xbd03a430	-0.032139003
185	0x3c82296c	0.015888892
186	0x3d16984e	0.036766343
187	0xbc695114	-0.014240522
188	0x3bf8c189	0.0075914306
189	0xbc3630a2	-0.011119993
190	0xbd010be1	-0.03150547
191	0x3cc17d00	0.023619175
192	0xbc965088	-0.018348947
193	0x3a957460	0.001140248
194	0xbc957fc8	-0.018249407
195	0x3c9dc166	0.019257259
196	0xbc7fb0bc	-0.015606102
197	0xbc8e68d8	-0.017383978
198	0x3c4ee590	0.012627974
199	0xbce70a3b	-0.02820312
200	0xbcc1be59	-0.023650335
201	0x3ca0dad2	0.019635592
202	0x3ca25250	0.01981464
203	0xbca7349f	-0.020410834
204	0x3c00a530	0.007851884
205	0xbca4723e	-0.020074006
206	0x3cab4256	0.020905655
207	0xbc9e0dfe	-0.019293781
208	0x3c9651da	0.018349577
209	0xbc30d308	-0.010792501
210	0xbc9ac504	-0.018892772
211	0xbc724858	-0.014787756
212	0x3bd48850	0.0064859763
213	0x3cafa2fa	0.021440018
214	0x3cf47cd6	0.029844683
215	0x3c852cc4	0.016256697
216	0xbcad15b2	-0.02112851
217	0x3cde1c8c	0.027113222
218	0xbb75cf28	-0.0037507508
219	0xbcd24692	-0.025668416
220	0xbcd6f798	-0.026241109
221	0x3b7ce820	0.0038590506
222	0x3b055970	0.0020347498
223	0xbc58ffba	-0.013244564
224	0x390cf000	0.00013440847
225	0x3cae3f4a	0.021270413
226	0x3cba59ae	0.02274784
227	0x3b885090	0.0041599944
228	0xbbf5acb4	-0.0074973945
229	0x3cb39a3c	0.02192413
230	0x3c156ee4	0.009120677
231	0xbcbe70a2	-0.023247067
232	0xbd09401f	-0.033508416
233	0xbc247f6c	-0.010040145
234	0x3ce17ceb	0.027525386
235	0x3d09c407	0.033634212
236	0xbcce5db5	-0.025191167
237	0x3c0ab95b	0.008467044
238	0x3cf134d6	0.02944414
239	0xbbd0b434	-0.006369138
240	0x3ce4b162	0.027916614
241	0x3d095121	0.033524636
242	0x3a1796c0	0.00057826564
243	0x3c0f4bf4	0.008746136
244	0xbca0492a	-0.019566137
245	0x39197a00	0.00014636666
246	0xbc75216a	-0.01496158
247	0x3cc5efaa	0.024162132
248	0x3c84ba80	0.016202211
249	0x3bf00f80	0.0073260665
250	0x3c4e5a54	0.012594778
251	0x3c2d1bbc	0.010565694
252	0x3cd156ee	0.025554147
253	0xbae591a0	-0.0017514713
254	0xbcf7d4cf	-0.030252842
255	0x3c61b450	0.0137759

net.0.bias f4 [32]
0	0xbc7709b6	-0.015077999
1	0x3e2233b2	0.15840033
2	0x3dea930a	0.11453827
3	0xbd115f2f	-0.035491165
4	0x3dc25a36	0.094898626
5	0xbc0d5444	-0.0086260475
6	0xbc5796f1	-0.013158546
7	0xbc2733cb	-0.0102052195
8	0x3e02a4dd	0.12758203
9	0x3df059cd	0.11735878
10	0x3d9a04dd	0.07520459
11	0x3e18d9ce	0.14926836
12	0x3dbfdc47	0.093681864
13	0x3d2ac37a	0.041690327
14	0x3e19a335	0.15003665
15	0x3daf3ec3	0.08556893
16	0x3db3a3c4	0.0877147
17	0x3df0297f	0.11726665
18	0x3d5cee93	0.05393846
19	0x3d9ca819	0.076492496
20	0x3e1edc41	0.15513708
21	0x3e006012	0.12536648
22	0xbd0cd45a	-0.0343822
23	0x3c9fb07a	0.01949333
24	0x3d04a010	0.03237921
25	0x3e09cc02	0.13456729
26	0x3dcf557c	0.10123727
27	0xbc8cc955	-0.017185846
28	0x3e1f59b8	0.15561569
29	0xbc2cb74e	-0.01054175
30	0x3d053e8f	0.032530364
31	0x3d8af3a5	0.06784753

net.2.weight f4 [32, 32]
0	0xbdad0f8d	-0.08450232
1	0x3dad8904	0.08473399
2	0xbcb3d22d	-0.021950806
3	0x3c165f82	0.009178044
4	0x3e3694dd	0.17830224
5	0xbdbf4b80	-0.09340572
6	0x3ce16572	0.027514193
7	0x3cba7230	0.022759527
8	0xbb7284f0	-0.0037005506
9	0x3ddc0102	0.1074238
10	0xbe14d400	-0.14533997
11	0x3e0daf23	0.1383634
12	0xbdd78b6d	-0.1052464
13	0x3ce7a870	0.02827856
14	0xbde28c01	-0.1106186
15	0xbd97dd3d	-0.07415245
16	0x3d53277c	0.051551327
17	0x3de2faf6	0.11083023
18	0x3d7884e0	0.060673594
19	0x3e013617	0.1261829
20	0xbe28830b	-0.16456239
21	0x3e266944	0.16251093
22	0xbde57997	-0.11204832
23	0xbdc716fa	-0.09721179
24	0xbd0ed3b9	-0.034869883
25	0x3e33f567	0.17574082
26	0xbdb42ce6	-0.08797626
27	0x3df49ab5	0.119435705
28	0xbc17ec0c	-0.009272587
29	0xbd87fb89	-0.066397734
30	0x3d726be5	0.059184927
31	0x3e1b0217	0.15137516
32	0xbe3086fa	-0.1723899
33	0xbde072ca	-0.10959394
34	0xbe241ec2	-0.16027358
35	0x3da3fbb6	0.080069944
36	0xbd5416fe	-0.05177974
37	0xbd0cf174	-0.034409955
38	0xbe2a3766	-0.16622695
39	0x3d99149a	0.074746326
40	0xbe1795a6	-0.1480318
41	0xbd10985c	-0.03530155
42	0xbd48c810	-0.04901892
43	0xbdf87c32	-0.121330634
44	0xbe035167	-0.12824021
45	0xbe0b78c8	-0.13620293
46	0x3c281590	0.010259047
47	0xbde5a7da	-0.11213656
48	0xbe207c3b	-0.1567239
49	0xbdb916c6	-0.09037547
50	0xbe0d4e56	-0.13799414
51	0xbe2bbc46	-0.1677104
52	0x3db1ee4a	0.08688028
53	0x3c940b30	0.01807174
54	0xbe178ff4	-0.14801008
55	0x3e1054cb	0.14094846
56	0xbd9cbadd	-0.07652829
57	0x3e00873d	0.1255159
58	0xbde407d1	-0.11134303
59	0xbcafa758	-0.0214421
60	0x3d1bc938	0.038033694
61	0xbe337bdc	-0.17527717
62	0xbc055850	-0.008138731
63	0xbd0761dc	-0.03305231
64	0x3dae6556	0.08515422
65	0xbde0c8de	-0.109758124
66	0xbcef7b68	-0.02923365
67	0x3dbc24c2	0.091866985
68	0x3e20663b	0.15663998
69	0x3e10d365	0.1414314
70	0xbe214c31	-0.15751721
71	0x3dc02e3e	0.0938382
72	0xbdd5fcab	-0.10448583
73	0x3d2437ec	0.040092394
74	0x3db7850a	0.08960922
75	0x3adb0e00	0.0016712546
76	0x3d457de8	0.048215777
77	0xbd8552c6	-0.065099284
78	0xbd688c00	-0.05677414
79	0xbe07b56c	-0.132528
80	0xbda590ee	-0.08084284
81	0xbd073ed8	-0.033018917
82	0x3bcda4a0	0.0062757283
83	0xbe0378d2	-0.12839058
84	0x3dbf522e	0.093418464
85	0xbd1d7eb8	-0.038450927
86	0xbe27019c	-0.16309208
87	0x3e1ecd6b	0.15508048
88	0x3e14d3f5	0.1453398
89	0xbdfe619e	-0.12420963
90	0x3aba6180	0.0014219731
91	0xbc833b90	-0.016019613
92	0x3ddffb6a	0.10936625
93	0x3e16bbb3	0.14720039
94	0xbdd8f5e6	-0.105937764
95	0xbe1b4ad4	-0.15165263
96	0x3e2c2ebb	0.16814701
97	0x3ca4ced0	0.020118147
98	0x3e2efa39	0.1708764
99	0xbe0f6542	-0.1400347
100	0xbe27b4b8	-0.16377532
101	0x3e0ffe75	0.14061911
102	0xbc8cfae0	-0.01720947
103	0x3e08d309	0.13361754
104	0x3de8108e	0.113312826
105	0xbe2e0deb	-0.16997497
106	0x3d4208dc	0.04737173
107	0x3d8da6ec	0.069166034
108	0xbc634e70	-0.013873681
109	0xbdbd8126	-0.09253149
110	0xbe34a22e	-0.17639992
111	0xbbec38a0	-0.0072088987
112	0xbe13dddb	-0.144401
113	0xbe18c07b	-0.14917175
114	0x3e27332d	0.16328116
115	0xbd658ac2	-0.056040533
116	0xbdfaf0ac	-0.12252936
117	0xbdecc30a	-0.11560638
118	0x3e205a0d	0.15659352
119	0xbdbeeaa0	-0.09322095
120	0xbd9a2bcb	-0.07527884
121	0x3d36dc08	0.044643432
122	0x3d0770e4	0.033066645
123	0x3e138809	0.14407362
124	0xbcd2f8f0	-0.025753468
125	0xbde7f271	-0.11325539
126	0xbdbe1336	-0.09281008
127	0x3dcce992	0.100054875
128	0xbbb0b3e0	-0.0053925365
129	0x3d720f93	0.059096884
130	0x3d8ccf7e	0.068755135
131	0xbe0121f4	-0.12610608
132	0xbda89177	-0.0823087
133	0xbd80b947	-0.06285339
134	0x3cb0af52	0.021567974
135	0xbd2a6bec	-0.04160683
136	0x3e58b090	0.21161103
137	0x3e5ecdda	0.21758214
138	0x3e083c44	0.1330424
139	0x3dd728e8	0.10505849
140	0x3e6daff6	0.23211655
141	0x3e1278ca	0.1430389
142	0x3e42440e	0.18971273
143	0x3d902328	0.070379555
144	0x3e25847c	0.1616382
145	0x3e72bc02	0.23704532
146	0x3d101bb3	0.035182666
147	0x3daa3dbd	0.08312557
148	0x3c0021cf	0.007820561
149	0x3db4e87d	0.08833406
150	0x3e0e9530	0.13924098
151	0xbd423553	-0.047414135
152	0xbe356a0e	-0.17716238
153	0x3de70a42	0.112812534
154	0x3e00dd13	0.12584333
155	0xbde23491	-0.110451825
156	0x3dc1f761	0.09471012
157	0x3e0d5368	0.13801348
158	0xbde72d58	-0.112879455
159	0xbe0329bd	-0.1280889
160	0xbd7d9faf	-0.061919864
161	0x3d98bad0	0.07457507
162	0x3dc16ceb	0.094446026
163	0x3e18b39f	0.1491227
164	0xbcc9334f	-0.024560599
165	0x3d6ce798	0.057838053
166	0xbbdc62c0	-0.006725639
167	0xbccabf00	-0.024749279
168	0x3d5b510c	0.05354409
169	0xbdf29acc	-0.118459314
170	0xbd0a086b	-0.033699434
171	0x3dcc6f8b	0.09982213
172	0xbdda8f88	-0.10671908
173	0xbdfd6f46	-0.12374739
174	0xbde0eeff	-0.10983085
175	0xbc6a6edc	-0.0143086575
176	0x3e06368d	0.13106747
177	0x3e092a32	0.13395002
178	0xbd860994	-0.06544796
179	0x3defc9af	0.1170839
180	0xbde3ed96	-0.111293
181	0xbe05493f	-0.13016222
182	0xbd23d0d4	-0.039994076
183	0x3d9c3a20	0.07628274
184	0x3e0cbe73	0.13744526
185	0xbddabc77	-0.10680478
186	0x3d9d242f	0.07672917
187	0x3d9a758c	0.075419515
188	0xbd3418b2	-0.043968864
189	0x3d03cc44	0.032177225
190	0xbca2ec20	-0.019887984
191	0x3d882844	0.06648305
192	0xbd995558	-0.07486981
193	0x3dc2fbca	0.09520681
194	0xbe2f80a6	-0.17138919
195	0xbe1b052f	-0.15138696
196	0xbdc053c7	-0.09390979
197	0xbe174552	-0.14772537
198	0xbd4c9728	-0.04994884
199	0x3d4e3d20	0.050351262
200	0xbd986ce4	-0.07442644
201	0xbdadf79b	-0.084944926
202	0x3e012f93	0.12615804
203	0xbe046545	-0.12929256
204	0xbd666c16	-0.056255423
205	0x3ce2d918	0.027691409
206	0xbcc72f98	-0.024314687
207	0xbcadec50	-0.021230847
208	0xbe036401	-0.12831117
209	0x3d811e56	0.06304614
210	0x3dfc77ce	0.123275384
211	0xbe0fb5bd	-0.14034171
212	0x3e120af3	0.1426199
213	0x3dd3c1a2	0.10339667
214	0xbdf8200a	-0.12115486
215	0xbda83536	-0.08213274
216	0xbd389d50	-0.0450719
217	0xbc74eeb0	-0.014949486
218	0xbd3ef874	-0.046623662
219	0xbe192490	-0.14955354
220	0x3ace0380	0.0015717596
221	0xbce70458	-0.028200313
222	0x3ddfb396	0.10922925
223	0xbcc55828	-0.024089888
224	0xbe05ef0a	-0.13079467
225	0x3d32e2f5	0.043673474
226	0xbd7194cf	-0.058979806
227	0x3e14f172	0.14545229
228	0x3d8008da	0.06251688
229	0xbe035d1a	-0.12828484
230	0x3dc20f48	0.09475571
231	0xbe05ae3c	-0.13054746
232	0x3e692d19	0.2277111
233	0x3e59502e	0.21221992
234	0x3d8f4103	0.06994822
235	0x3e4efac0	0.20212841
236	0x3e4b7565	0.19869001
237	0x3db7c684	0.08973411
238	0x3e7457f7	0.23861681
239	0x3ded870e	0.11598025
240	0x3dc8db44	0.098074466
241	0x3e54d944	0.20786005
242	0xbd88a382	-0.06671812
243	0xbd898083	-0.06713965
244	0x3e6be3e7	0.23036157
245	0xbc54cb01	-0.012987853
246	0xbd37764a	-0.044790544
247	0xbd9e2cdc	-0.077234
248	0xbd44c417	-0.04803857
249	0xbc24a951	-0.010050134
250	0x3e8ed86a	0.27899486
251	0x3e185473	0.14875965
252	0x3e78338d	0.24238415
253	0x3c96ccec	0.018408261
254	0x3e36c1ec	0.17847413
255	0x3cbb4a7e	0.02286267

net.2.bias f4 [32]
0	0xbdedac6f	-0.11605155
1	0xbe2cbb63	-0.16868357
2	0xbe24f6b6	-0.16109738
3	0xbdfe7e6c	-0.12426457
4	0x3e44494f	0.1916859
5	0xbe112b56	-0.14176688
6	0xbd8b4699	-0.06800575
7	0x3dbdc060	0.09265208
8	0xbd27babe	-0.040949576
9	0x3e04ad44	0.1295672
10	0x3dbb2052	0.09137024
11	0xbd52ced4	-0.051466778
12	0xbdaa2273	-0.08307352
13	0xbe3ed05e	-0.18634173
14	0xbe17e0a2	-0.14831784
15	0xbd65f827	-0.05614486
16	0xbe1d007d	-0.15332218
17	0xbd8d0032	-0.06884803
18	0x3e2e2b42	0.17008689
19	0x3e077ef2	0.1323202
20	0x3e176b18	0.14786947
21	0x3d4a5e81	0.049406532
22	0x3e837045	0.25671592
23	0x3b73062f	0.0037082543
24	0x3e467b05	0.19382866
25	0xbdbac6b2	-0.091199294
26	0x3e1c0152	0.15234879
27	0xbd91c8ad	-0.07118354
28	0x3e0e1442	0.13874915
29	0xbc830cf2	-0.015997384
30	0xbd19f06a	-0.037582792
31	0x3e38181a	0.17977944

net.4.weight f4 [344, 32]
0	0x3d1e3635	0.038625915
1	0x3c327ae0	0.0108935535
2	0xbdd7fc18	-0.1054613
3	0x3d23ce44	0.039991632
4	0x3daa05ef	0.08301913
5	0x3dd1bc6e	0.10241018
6	0xbdd8db6b	-0.10588726
7	0xbdc903ed	-0.09815202
8	0x3dd25602	0.10270311
9	0x3deaeccd	0.114709474
10	0xbe28dd27	-0.16490613
11	0x3d97e5c3	0.074168704
12	0xbda30425	-0.07959775
13	0x3d066b4e	0.032817177
14	0xbdbc79ca	-0.09202917
15	0x3d9931df	0.07480215
16	0xbd7f0cac	-0.062267944
17	0xbdb134c8	-0.08652645
18	0x3e2b9431	0.1675575
19	0x3d052c37	0.03251287
20	0xbdf80103	-0.12109568
21	0xbdc11919	-0.09428615
22	0xbdefc8a0	-0.11708188
23	0xbdb62963	-0.08894613
24	0xbda690ce	-0.08133088
25	0x3e2c094a	0.16800418
26	0xbca8080a	-0.020511646
27	0xbda3d37a	-0.0799932
28	0x3dc51a8b	0.09624203
29	0xbe05bd3d	-0.1306047
30	0x3ddd3d37	0.108026914
31	0xbb5d8bc7	-0.0033805238
32	0x3d5cf936	0.053948604
33	0x3e1e9e15	0.15489991
34	0x3d5f62a0	0.054537416
35	0xbe2fac30	-0.17155528
36	0x3d99eb0d	0.075155355
37	0xbd95be86	-0.0731173
38	0xbc8efdf0	-0.017455071
39	0x3e3d7599	0.18501891
40	0x3d8437d7	0.06455963
41	0x3e2d95a1	0.1695161
42	0xbe156e3c	-0.14592832
43	0x3adb1a00	0.0016716123
44	0xbd547634	-0.05187054
45	0xbe1a1a81	-0.15049173
46	0x3e059db1	0.13048436
47	0x3b3ffb6f	0.0029294153
48	0x3db38d10	0.0876714
49	0x3db24f24	0.08706501
50	0xbc84e54e	-0.016222622
51	0xbdc55307	-0.09634977
52	0x3cadabec	0.021200143
53	0x3e142700	0.14468002
54	0xbda177dc	-0.078841895
55	0x3d9e1e2d	0.07720599
56	0x3e0d2e2d	0.13787146
57	0xbd31ef8d	-0.043441344
58	0x3e398323	0.18116431
59	0xbdcc13c7	-0.0996471
60	0xbd0f99c1	-0.03505874
61	0xbdcef6a4	-0.10105637
62	0xbd99b175	-0.0750455
63	0xbdddcecd	-0.1083046
64	0x3d857664	0.06516722
65	0xbe1b0376	-0.15138039
66	0xbdcbe650	-0.09956038
67	0x3d44e5b4	0.048070624
68	0xbc40d8c9	-0.011770436
69	0x3d9fc06e	0.07800375
70	0x3d7350dc	0.059403285
71	0x3d314e49	0.04328755
72	0xbdca348e	-0.09873305
73	0xbdc9b34c	-0.09848651
74	0x3e14c76a	0.14529195
75	0x3de7b986	0.11314683
76	0x3b698dcc	0.0035637496
77	0xbe11aac6	-0.14225301
78	0xbd841adf	-0.06450438
79	0xbdac3b41	-0.08409739
80	0xbc8711d0	-0.016487986
81	0xbe239f59	-0.15978755
82	0xbe038a2b	-0.12845676
83	0x3db3b117	0.087740116
84	0xbddfb6d3	-0.10923543
85	0xbca89e5e	-0.020583328
86	0x3d87db13	0.06633582
87	0x3c960256	0.01831166
88	0x3c6d975f	0.014501422
89	0x3d7d2ef2	0.06181235
90	0xbe013a24	-0.12619835
91	0x3cdb8dc4	0.026800998
92	0x3e33d774	0.17562658
93	0xbe26a04b	-0.16272084
94	0xbd16c4a4	-0.036808625
95	0x3e1bac1e	0.15202376
96	0x3a13003c	0.000560764
97	0xbde8132a	-0.1133178
98	0xbdcdc311	-0.100469716
99	0xbd877931	-0.06614912
100	0xbd01a142	-0.031647928
101	0xbe244686	-0.16042528
102	0xbdb16287	-0.08661371
103	0x3e072858	0.13198984
104	0xbc3f5ce8	-0.011679865
105	0x3e24a764	0.1607948
106	0x3df128d5	0.11775366
107	0xbdedb6bc	-0.116071194
108	0x3de52a1f	0.111896746
109	0xbe2c3079	-0.16815366
110	0x3ddc7c03	0.10765841
111	0xbe061726	-0.13094768
112	0x3e093fe1	0.13403274
113	0xbc759bec	-0.014990788
114	0x3c90a8dc	0.017658643
115	0x3d1dd6eb	0.03853504
116	0xbe34a899	-0.1764244
117	0xbd9d0f1f	-0.076689
118	0x3e3b1572	0.182699
119	0x3e110f3f	0.14165972
120	0x3df079e8	0.11742002
121	0xbe1eef46	-0.15520963
122	0x3e012ee6	0.12615547
123	0xbca84e97	-0.020545287
124	0xbc1ef957	-0.009703002
125	0x3d589650	0.052877724
126	0x3c3e2608	0.011605747
127	0x3d65228a	0.055941142
128	0xbdfa2fe7	-0.12216168
129	0x3e1221f5	0.14270766
130	0x3c332340	0.010933697
131	0xbc3091a0	-0.010776907
132	0x3e2b5aa7	0.167338
133	0xbe0b7efc	-0.1362266
134	0xbc84a000	-0.016189575
135	0xbde467d2	-0.11152615
136	0xbcbbe3c7	-0.022935761
137	0x3e07111c	0.1319012
138	0xbd70683b	-0.058693152
139	0xbd4a08b0	-0.04932469
140	0x3da21434	0.0791401
141	0x3ddf5858	0.10905522
142	0x3c63d897	0.0139066195
143	0xbc98c365	-0.018647859
144	0xbd814d48	-0.06313568
145	0x3dc2c283	0.095097564
146	0x3e21e1ed	0.1580884
147	0xbd9f6986	-0.07783799
148	0xbd55c769	-0.052192125
149	0xbc935411	-0.017984422
150	0xbe171ee3	-0.14757876
151	0xbd0a70c3	-0.033798944
152	0x3d9ff983	0.078112625
153	0x3ddd84f6	0.10816376
154	0xbd411557	-0.047139492
155	0xbd937a90	-0.07201111
156	0xbd5cd167	-0.05391064
157	0xbb357357	-0.0027687156
158	0x3dab3a9a	0.08360787
159	0xbe31b57c	-0.17354387
160	0x3dacde88	0.08440882
161	0x3b872a20	0.0041248947
162	0x3dbaff6a	0.091307476
163	0xbd88ee6e	-0.06686102
164	0xbde35be3	-0.111015104
165	0xbe0e6195	-0.13904412
166	0xbde7fafe	-0.1132717
167	0x3e05ff8a	0.13085762
168	0xbdf30f86	-0.11868195
169	0xbcd7a82b	-0.026325306
170	0xbd996981	-0.074908264
171	0x3dcfd012	0.10147108
172	0x3d2ea25d	0.04263531
173	0xbd19deca	-0.037565984
174	0x3d0c1c50	0.03420669
175	0x3e2b8187	0.1674863
176	0x3d59d6c8	0.053183347
177	0xbe2847f0	-0.16433692
178	0xbe10571e	-0.14095733
179	0xbdb78c94	-0.0896236
180	0xbe100a9b	-0.14066546
181	0x3e0c1304	0.13679129
182	0xbdfa97b2	-0.12235965
183	0xbda2bce1	-0.07946182
184	0x3d3c4332	0.04596252
185	0x3da6df1a	0.08148022
186	0x3da5cb26	0.08095388
187	0xbd5f466d	-0.054510523
188	0xbdb78822	-0.08961512
189	0xbdf47eb8	-0.11938232
190	0x3e084398	0.13307035
191	0xbd280de4	-0.041028872
192	0x3d21b6da	0.03948102
193	0x3d66be98	0.056334108
194	0x3dfe4c86	0.124169394
195	0xbe31c44e	-0.1736004
196	0xbda88299	-0.082280345
197	0xbe0dd2c2	-0.13849929
198	0xbdca413e	-0.09875725
199	0x3db8ea9a	0.09029122
200	0x3d18c746	0.037299417
201	0x3d820cae	0.06350075
202	0x3da00741	0.078138836
203	0x3e07d46d	0.13264628
204	0x3e30ecfb	0.17277901
205	0xbe091b9b	-0.13389437
206	0x3dda1a26	0.10649519
207	0x3e0ebe93	0.13939886
208	0x3e3534d2	0.1769593
209	0xbe236431	-0.15956189
210	0xbc760479	-0.015015715
211	0x3e0aeb08	0.1356622
212	0xbcdac4df	-0.026705204
213	0xbe114ea2	-0.14190152
214	0x3d92e6e6	0.07172947
215	0x3dbae2f0	0.09125316
216	0xbe043161	-0.12909462
217	0x3d7f59e1	0.062341575
218	0x3d2c1f15	0.04202183
219	0xbe32fbc7	-0.17478858
220	0xbe2367f4	-0.15957624
221	0xbe05604d	-0.13025017
222	0xbc18cab0	-0.009325668
223	0x3cadbd4c	0.021208428
224	0xbddf8f31	-0.109159835
225	0xbe1df8d4	-0.15426952
226	0x3dd72182	0.10504438
227	0x3e156ed3	0.14593057
228	0xbd9bff49	-0.07617051
229	0x3e155625	0.14583643
230	0xbe28c324	-0.1648069
231	0xbdf8c319	-0.12146587
232	0xbd059f18	-0.032622427
233	0xbcfbffcf	-0.030761627
234	0xbe2dafc1	-0.16961576
235	0x3ccb0de8	0.024786904
236	0xbdd5d31f	-0.10440659
237	0xbdf0ab30	-0.117514014
238	0xbe26950f	-0.16267799
239	0x3deb132e	0.114782676
240	0x3cfe743e	0.031061288
241	0x3d8cca7a	0.06874557
242	0xbcaef8ab	-0.021358809
243	0x3dedc3d1	0.11609615
244	0x3cfd9240	0.030953526
245	0x3bf76f94	0.007551143
246	0xbd0f4671	-0.034979288
247	0xbd64d824	-0.05587019
248	0x3c5c2a0a	0.013437757
249	0x3dba9061	0.09109569
250	0xbd8e938d	-0.06961737
251	0xbe3106cb	-0.17287748
252	0xbdf06499	-0.117379375
253	0xbdcb49ba	-0.099261716
254	0x3df7ac46	0.120934054
255	0xbd6bf333	-0.05760498

net.4.bias f4 [344]
0	0x3dec5e0d	0.11541376
1	0xbda75384	-0.08170226
2	0xbd81a8e0	-0.063310385
3	0xbbe3b1e9	-0.006948699
4	0xbcfe5bbd	-0.031049604
5	0xbd491665	-0.049093623
6	0x3df3376a	0.11875804
7	0xbd430aa9	-0.04761759
8	0xbe1f259d	-0.15541692
9	0xbe053d12	-0.13011578
10	0xbd958ba8	-0.07302028
11	0x3d8f0104	0.069826156
12	0xbcda956c	-0.026682578
13	0xbd3e9c37	-0.046535697
14	0xbd8b9105	-0.0681477
15	0xbe1f35b4	-0.1554783
16	0x3b9ecea0	0.004846409
17	0x3e39636c	0.18104333
18	0xbd04fe57	-0.03246912
19	0x3dae7f5f	0.08520388
20	0xbdb313ed	-0.08744035
21	0x3ddbe3dc	0.1073682
22	0xbdc45622	-0.09586741
23	0xbd1ad476	-0.037800275
24	0x3dc40eca	0.09573133
25	0x3ddc2393	0.10748973
26	0x3b5a8b50	0.0033347197
27	0x3dab91fc	0.08377454
28	0x3e2dc439	0.16969384
29	0xbe09bf9b	-0.13451998
30	0x3e344a64	0.17606503
31	0xbd747f09	-0.059691463
32	0xbdfc3abb	-0.123158894
33	0xbda55044	-0.0807195
34	0x3da4480c	0.08021554
35	0xb9f21d37	-0.00046179604
36	0x3df8e7ec	0.121536106
37	0x3dabf8b9	0.083970495
38	0x3d759c8a	0.05996374
39	0xbd96323b	-0.073337995
40	0x3d1c8cd9	0.03822026
41	0x3de1bd88	0.11022478
42	0x3d6ebeb0	0.058287323
43	0xbdfbf7a7	-0.12303095
44	0xbc0fe372	-0.0087822545
45	0x3de6e055	0.11273257
46	0x3dc1b4d7	0.094583206
47	0xbe03cdd7	-0.1287149
48	0x3d1a97ed	0.037742544
49	0xbd8eb895	-0.069688
50	0x3da5b673	0.0809144
51	0x3dc74da4	0.09731606
52	0xbc9c4af0	-0.019078702
53	0x3e33527b	0.17511933
54	0x3e1974c7	0.14985953
55	0xbdb0cb9b	-0.08632585
56	0x3dbffe51	0.09374679
57	0x3dac2471	0.08405388
58	0xbdd10883	-0.102067016
59	0x3da817bc	0.08207652
60	0x3c8b69f5	0.017018298
61	0xbe275613	-0.16341428
62	0xbdb9694f	-0.09053289
63	0xbb536844	-0.0032258192
64	0x3e0b63b1	0.13612248
65	0xbe134488	-0.14381611
66	0xbd896e25	-0.067104615
67	0xbd778b4e	-0.060435586
68	0x3d9574ba	0.072976544
69	0xbdcf6080	-0.10125828
70	0xbe3023b7	-0.17201124
71	0x3ce1f2f5	0.027581671
72	0x3d9e7382	0.07736875
73	0xbd457601	-0.04820824
74	0xbcfb7c99	-0.030699061
75	0x3d477b8b	0.048701804
76	0x3e147d8d	0.14501019
77	0x3e116bc0	0.1420126
78	0xbbad2148	-0.0052835084
79	0x3e0b33f5	0.13594039
80	0x3e278986	0.16361055
81	0x3da07bc9	0.0783611
82	0x3df0144e	0.11722623
83	0x3df3464f	0.11878645
84	0x3da7ae6a	0.08187564
85	0xbcc3da62	-0.023907844
86	0x3db3c7af	0.08778321
87	0xbde5a894	-0.11213794
88	0x3e30451d	0.17213865
89	0xbdebd3b2	-0.11514987
90	0x3c75a769	0.014993527
91	0xbdf863ec	-0.121284336
92	0x3e2f6cea	0.17131391
93	0x3df19ce7	0.11797505
94	0x3d6e7e21	0.058225755
95	0x3e2d56e6	0.1692768
96	0x3da0419b	0.07825013
97	0x3dbe6b19	0.09297771
98	0x3e17f53f	0.14839648
99	0x3d029841	0.031883482
100	0xbd7f7e69	-0.062376413
101	0x3d28d612	0.04121978
102	0x3e0e5d2d	0.13902731
103	0x3d86aaf5	0.06575576
104	0x3da55714	0.080732495
105	0x3dcc28f9	0.099687524
106	0xbe211f89	-0.15734686
107	0x3e02c893	0.12771825
108	0x3dd49c9d	0.10381434
109	0xbd8056c9	-0.06266553
110	0xbdb64fa6	-0.089019105
111	0xbe22343d	-0.1584024
112	0x3d2d71cf	0.042344864
113	0xbd3a513f	-0.04548764
114	0x3e2cb3cb	0.1686546
115	0x3e323987	0.17404757
116	0xbd9e589c	-0.07731745
117	0x3d1363dc	0.035983905
118	0x3d8e356f	0.069437854
119	0x3cb11226	0.0216151
120	0xbe0f0fde	-0.13970897
121	0x3d9f9cd5	0.07793585
122	0x3de89930	0.11357343
123	0x3dc58984	0.0964537
124	0x3dfb862c	0.12281451
125	0xbd025973	-0.031823587
126	0xbd231dde	-0.039823405
127	0x3e326e61	0.17424919
128	0x3df10f03	0.117704414
129	0x3d974c04	0.07387546
130	0xbd47891b	-0.04871474
131	0x3e1f0b76	0.15531716
132	0x3c04a299	0.008095407
133	0xbe033d34	-0.12816316
134	0xbb7b2d9f	-0.0038326753
135	0xbca09b98	-0.019605443
136	0x3d259ae2	0.04043091
137	0xbe2b2047	-0.16711532
138	0xbdb31f6f	-0.0874623
139	0xbdeb5cc6	-0.114923045
140	0xbe220b09	-0.15824522
141	0xbdf81c06	-0.1211472
142	0xbd8cfc4e	-0.06884061
143	0x3bea151e	0.0071436306
144	0x3d858b87	0.06520753
145	0x3e3437ac	0.17599362
146	0x3e038ee0	0.12847471
147	0x3e1fdf5c	0.15612549
148	0xbc7f4d49	-0.015582391
149	0x3df33401	0.11875153
150	0xbde47372	-0.11154832
151	0x3e372270	0.1788423
152	0xbca86852	-0.020557556
153	0xbe0a5fec	-0.13513154
154	0xbd7a8e8c	-0.0611711
155	0xbdc24af0	-0.094869494
156	0xbe1b70b9	-0.15179719
157	0xbd1c0513	-0.038090777
158	0xbe2f5f2e	-0.17126152
159	0xbd45d316	-0.04829701
160	0x3e0399bd	0.12851615
161	0x3d8f0e9d	0.06985209
162	0x3e0df712	0.13863781
163	0xbe02d9e7	-0.12778436
164	0xbcbcd287	-0.023049606
165	0x3da47893	0.0803081
166	0x3d8b1c3f	0.06792497
167	0xbe2e46a8	-0.1701914
168	0xbb658d08	-0.0035026688
169	0xbe21eec3	-0.15813737
170	0xbde47065	-0.1115425
171	0x3e1cbb02	0.15305713
172	0xbe2358b0	-0.159518
173	0x3da5995c	0.080858916
174	0x3d672a4e	0.05643683
175	0x3df4f2de	0.11960386
176	0xbc68fc3f	-0.014220296
177	0x3e2bf140	0.16791248
178	0xbddbdfe5	-0.10736064
179	0x3c152408	0.009102829
180	0x3e33ab96	0.17545924
181	0x3d7cc67f	0.061712738
182	0xbe09c020	-0.13452196
183	0x3d8a4ee9	0.06753332
184	0xbe20b06b	-0.15692298
185	0xbde8a561	-0.113596685
186	0xbe07a744	-0.132474
187	0x3c457628	0.012052096
188	0x3e074861	0.13211204
189	0x3d2b7fd8	0.04186997
190	0x3e077c3b	0.13230984
191	0x3e336b7c	0.17521471
192	0xbd32386b	-0.043510836
193	0x3d646e57	0.05576929
194	0x3d3332cd	0.04374962
195	0x3ddada0a	0.10686119
196	0xbc800686	-0.01562811
197	0x3caefe43	0.021361476
198	0x3dc286c0	0.09498358
199	0xbe22d786	-0.15902528
200	0xbdf17ce2	-0.11791398
201	0xbdfe9aed	-0.124318935
202	0x3e28ca0b	0.16483323
203	0x3e36db7e	0.17857167
204	0xbca4bf01	-0.020110609
205	0x3b8e3aee	0.004340521
206	0x3d290e95	0.041273672
207	0xbd743abd	-0.05962633
208	0x3e21adcd	0.15788956
209	0x3df8bd26	0.12145452
210	0x3e2b75db	0.16744177
211	0xbd9cb04a	-0.07650812
212	0xbe2d8ea0	-0.16948938
213	0x3d6452ad	0.05574291
214	0x3d7c30d3	0.06157
215	0xbe1a329e	-0.15058371
216	0xbd00374e	-0.031302743
217	0x3d991496	0.074746296
218	0xbd179682	-0.03700877
219	0x3ca0fc98	0.019651696
220	0xbce12840	-0.027485013
221	0xbdee160d	-0.116252996
222	0x3e14ee86	0.14544114
223	0x3dd18ad4	0.102315575
224	0xbe21ad0a	-0.15788665
225	0xbc6f2939	-0.014597231
226	0xbdb199af	-0.08671891
227	0xbe24c69a	-0.16091385
228	0x3c9f202c	0.01942452
229	0xbe099a72	-0.13437822
230	0xbdf9cd7b	-0.121973954
231	0x3e1fdeff	0.1561241
232	0xbd13c39f	-0.03607523
233	0xbda1bdf1	-0.078975566
234	0xbdacc1f8	-0.08435434
235	0x3debc682	0.11512472
236	0x3e3c861b	0.18410532
237	0x3d366796	0.04453238
238	0xbe1fbaae	-0.15598556
239	0x3d405e98	0.04696521
240	0xbb94d335	-0.0045417794
241	0xbcd0ed6c	-0.025503837
242	0xbca59e4b	-0.020217082
243	0xbc35f13d	-0.011104879
244	0xbdcf03e9	-0.10108168
245	0x3d5d95f4	0.054098085
246	0xbdcc17f0	-0.09965503
247	0x3e1346be	0.14382455
248	0x3d2cdfbd	0.04220556
249	0xbd0afe53	-0.03393395
250	0x3e32b55c	0.17451996
251	0xbd9a8e97	-0.07546728
252	0x3dcd852a	0.10035165
253	0xbe2eb0c6	-0.17059621
254	0xbe1908fa	-0.1494483
255	0x3c8d22c0	0.017228484
