dual/pg_info/supervised_model.pth.tar (torch, 163543 bytes, 6 tensors)

net.0.weight f4 [32, 874]
0	0xbcec6717	-0.02885775
1	0x3c3de8cc	0.011591148
2	0x3c05cd24	0.008166585
3	0x3cc442cc	0.023957632
4	0xbc7061d8	-0.014671765
5	0x3b0877e0	0.0020823404
6	0x3cdec33a	0.0271927
7	0x3ceb0682	0.028689627
8	0x3cb593c4	0.022165187
9	0x3d9b0e32	0.07571067
10	0xbbef742c	-0.00730755
11	0xbac76c60	-0.0015214793
12	0xbcc29de4	-0.023756929
13	0xbcaa2914	-0.02077154
14	0xbcb2b87d	-0.021816486
15	0x3d08f253	0.033434223
16	0x3b961f88	0.0045813955
17	0xbc9cd9aa	-0.019146759
18	0xbbfdb884	-0.0077429432
19	0xbcf3b432	-0.02974901
20	0xbb86d418	-0.004114639
21	0x3cbb84b8	0.022890434
22	0xbc02b552	-0.0079778
23	0xbcaef8f6	-0.021358948
24	0xbcdf0a40	-0.027226567
25	0xbc417968	-0.011808731
26	0x3bc909c9	0.0061351997
27	0x3c4e7580	0.012601256
28	0xbc086010	-0.008323684
29	0xbc44a6c6	-0.0120026525
30	0x3c428b28	0.011873998
31	0xbb036b00	-0.002005279
32	0xbc3b80f6	-0.011444321
33	0x3c5a0b00	0.013308287
34	0x3cb21d06	0.021742355
35	0xbcd95028	-0.02652748
36	0x3c7cedf0	0.015437588
37	0xbce4eb00	-0.027944088
38	0x3c2941f4	0.010330666
39	0xbaacea40	-0.001319237
40	0xbbae409c	-0.0053177606
41	0x3cffe756	0.03123824
42	0x3c7199f0	0.014746174
43	0xbc797fa2	-0.015228184
44	0xbc99b6b7	-0.018763883
45	0xbc214c48	-0.009844847
46	0xbcbf97ad	-0.023387754
47	0xbc9a4eee	-0.018836465
48	0x3c1efac8	0.009703346
49	0x3cbf9a9a	0.02338915
50	0x3caddb68	0.021222785
51	0x3a9e97c0	0.0012099668
52	0xbcecc762	-0.028903667
53	0x3cfa592a	0.030560095
54	0x3a7af1c0	0.0009572767
55	0x3cfc179e	0.03077298
56	0x3acbafc0	0.0015540048
57	0x3b42fbc0	0.0029752105
58	0x3c9db52e	0.019251432
59	0xbd072a1f	-0.032999154
60	0x3c9b9598	0.01899223
61	0x3cfbb506	0.030725967
62	0xbcfe0c87	-0.031011833
63	0xbc492b2a	-0.0122783575
64	0xbc858d89	-0.01630284
65	0xbcbae41b	-0.022813847
66	0x3bf2f348	0.0074142553
67	0xbcc3c7ea	-0.023899037
68	0xbc46b688	-0.01212848
69	0x3d7d9fce	0.06191998
70	0x3cebebce	0.028798964
71	0xbcc8c50b	-0.02450802
72	0xbca39428	-0.019968107
73	0xbc0cfe2e	-0.008605523
74	0x3cc7064e	0.024294998
75	0x3c260608	0.010133274
76	0x3b61d010	0.003445629
77	0x3cc4576a	0.023967464
78	0x3d1852c3	0.037188303
79	0x3d5ede8a	0.05441145
80	0x3cd54ea0	0.026038468
81	0x3d028331	0.031863395
82	0xbbdf9d60	-0.0068241805
83	0xbbc210ac	-0.0059223976
84	0xbd0759b9	-0.03304455
85	0xbcd1de0e	-0.02561858
86	0x3c4382b8	0.011933021
87	0xbd097321	-0.03355706
88	0xbcaaea90	-0.020863801
89	0xbc8ca4e6	-0.017168473
90	0xbc9d47c4	-0.01919926
91	0xbca30f6a	-0.019904811
92	0xbc9e2d9f	-0.019308863
93	0xbc274c2a	-0.01021103
94	0xbd023374	-0.03178735
95	0xbc33252e	-0.010934157
96	0x3d099123	0.03358568
97	0x3cdcb7b4	0.026943065
98	0xbb92e68c	-0.0044830497
99	0xbce674b9	-0.02813183
100	0x3ccae196	0.02476577
101	0xbc48f2ca	-0.012264917
102	0x3c179078	0.009250753
103	0x3cb6424c	0.02224841
104	0xbceb4e9c	-0.028724007
105	0xbc1c3962	-0.0095351655
106	0xbc8e6df5	-0.017386416
107	0x3c9f9ad8	0.019483015
108	0xbcd6f4fe	-0.026239868
109	0xba96a760	-0.0011493973
110	0xbcfd8a5e	-0.030949768
111	0xbcf7d967	-0.030255033
112	0xbce09ce6	-0.027418565
113	0x3c587dfc	0.013213631
114	0xbcf29c6e	-0.029615607
115	0xbcd3e884	-0.025867708
116	0xbbd879c0	-0.0066063106
117	0x3c1ef150	0.009701088
118	0xbc970b10	-0.018437892
119	0x3d02f199	0.031968687
120	0xbcf824c4	-0.030290969
121	0x3ac1a1e0	0.0014772974
122	0xbc518e38	-0.012790255
123	0x3b9d90f8	0.0048085414
124	0xbb1735a0	-0.0023072734
125	0x3ce5476a	0.027988154
126	0x3cd18f80	0.025581121
127	0x3d007648	0.0313628
128	0xbcc956ca	-0.024577517
129	0x3d3afc62	0.045650847
130	0x3cfa3156	0.030541103
131	0xbc89ff83	-0.01684547
132	0xbc903c58	-0.0176069
133	0x3cacfee0	0.021117628
134	0xbc9aa703	-0.018878466
135	0x3b30f4b0	0.0027001314
136	0x3c9b9964	0.01899404
137	0xbca38f16	-0.01996569
138	0xbcf36695	-0.029712
139	0x3ae10840	0.0017168596
140	0x3ca4ce98	0.020118043
141	0x3b91a640	0.0044448674
142	0xbb030e20	-0.0019997433
143	0x3cfbf45a	0.030756164
144	0xbcc68906	-0.02423526
145	0xbd086520	-0.033299565
146	0x3da29955	0.07939402
147	0xbc7e1c2e	-0.015509648
148	0x3c09ada0	0.008403212
149	0xbcee4c89	-0.02908923
150	0x3c6857f0	0.014181122
151	0x3cd37bae	0.025815811
152	0x3c5ad028	0.013355292
153	0xbd050241	-0.032472853
154	0xbbbffb7c	-0.0058588367
155	0xbca1d69d	-0.019755656
156	0x3c90f558	0.017695114
157	0xbcf8ce39	-0.030371772
158	0xbd00da54	-0.031458214
159	0x3c9a3116	0.018822234
160	0x3c82c89a	0.015964795
161	0xbc8eefed	-0.01744839
162	0xbcd68ce4	-0.026190229
163	0x3cdd5edc	0.027022772
164	0x39276200	0.00015962869
165	0x3cf468a6	0.029835057
166	0xbcf058bd	-0.029339189
167	0x3bf3df88	0.0074424185
168	0xbca77261	-0.020440282
169	0xbcf4972e	-0.029857244
170	0xbc1f63fa	-0.009728426
171	0x3c0917c4	0.008367483
172	0xbb2dbed8	-0.0026511457
173	0xbc6e635e	-0.014550058
174	0x3cf8d3b2	0.030374382
175	0x3cb47c2a	0.022031862
176	0x3c510fd4	0.012760121
177	0x3cec1d76	0.028822642
178	0x3ccc57a4	0.024944134
179	0x3d88ed7f	0.06685924
180	0xbcac5bc2	-0.021039847
181	0x3c6d6c90	0.014491215
182	0x3d044bad	0.032298733
183	0x3cdefec4	0.027221091
184	0x3cf326ee	0.029681649
185	0x3c18a03c	0.009315547
186	0x3d8ac288	0.06775385
187	0xbc921997	-0.017834468
188	0x3dc1bce5	0.09459857
189	0xbd07109b	-0.03297482
190	0xbcaea1ec	-0.021317445
191	0xbc85984b	-0.01630797
192	0xbcf75945	-0.030193934
193	0xbbee8ecc	-0.0072802063
194	0xbcca3fa7	-0.024688555
195	0x3ce96da6	0.028494667
196	0xbced07cb	-0.02893438
197	0xbce05623	-0.027384823
198	0x3cacd05e	0.021095451
199	0xb9efce00	-0.00045739114
200	0x3b579910	0.003289763
201	0x3b432a60	0.0029779896
202	0xbafb5dc0	-0.001917772
203	0x3c4139b4	0.011793543
204	0xbbdeb5e8	-0.0067965873
205	0xbcb61ec7	-0.022231473
206	0x3c83e3c0	0.01609981
207	0xbb0ef1f0	-0.0021811686
208	0x3cc4f03c	0.024040334
209	0xbbd2dc9c	-0.00643499
210	0xbc99ab3e	-0.018758412
211	0xbc23405c	-0.009964075
212	0xbc3b49f6	-0.011431208
213	0x3c292bf0	0.010325417
214	0x3c6ef4e8	0.014584757
215	0x3cf1b0aa	0.029503185
216	0x3bf2b200	0.007406473
217	0xbc5c8a1e	-0.013460664
218	0xbd009bf0	-0.031398714
219	0x3ca06ef2	0.019584153
220	0xbc2e9da8	-0.010657705
221	0x3d06d0e1	0.032914046
222	0xbcd63327	-0.026147438
223	0x3cb2cf3a	0.021827329
224	0xbcbfba71	-0.023404332
225	0x3c43d788	0.011953242
226	0xbcf2bbab	-0.029630503
227	0xbc36aaf8	-0.011149161
228	0xbc26481e	-0.01014903
229	0xbbb8c164	-0.0056382883
230	0xbcbc93f7	-0.023019774
231	0x3b6f8150	0.0036545582
232	0x3c2395bc	0.00998443
233	0x3d06374b	0.032767575
234	0x3db3913c	0.08767936
235	0x3d065985	0.032800216
236	0xbc6946d0	-0.014238074
237	0x3d914e90	0.07095063
238	0x3c975e54	0.018477596
239	0x3bc5b360	0.006033346
240	0xba844020	-0.0010089912
241	0xbca1c190	-0.019745618
242	0xbcc061dc	-0.023484163
243	0x3d007921	0.031365518
244	0x3a9ff3be	0.0012203378
245	0x3cd5bf92	0.026092324
246	0x3cf0ad4a	0.029379506
247	0xbc371d44	-0.011176411
248	0xbbf5cf7c	-0.0075015407
249	0x3c25a550	0.010110214
250	0x3d0711e1	0.032976035
251	0x3cf13302	0.029443268
252	0xbcb88080	-0.022522211
253	0x3cb7f238	0.022454366
254	0xbc94c9ad	-0.018162573
255	0x3c85490c	0.016270183

net.0.bias f4 [32]
0	0x3ddfb299	0.10922737
1	0x3dfdac74	0.123864084
2	0x3dcdfaa5	0.10057572
3	0xbd249b1c	-0.040186986
4	0x3e048444	0.1294108
5	0x3dd4d870	0.10392845
6	0x3e23e5b2	0.1600559
7	0x3d0ec985	0.034860153
8	0x3dc5f69f	0.0966618
9	0x3dfde580	0.12397289
10	0x3e08b89b	0.13351671
11	0x3d8f8035	0.070068754
12	0x3d6bf3ec	0.05760567
13	0x3dd96054	0.10614076
14	0x3df92683	0.12165549
15	0xbd1b745f	-0.037952777
16	0x3bc35142	0.0059606144
17	0xbbf94d41	-0.0076080863
18	0x3ceb75ee	0.028742757
19	0x3e07a146	0.13245115
20	0x3db0ce53	0.08633103
21	0x3d920d8b	0.07131489
22	0x3dd6fd05	0.104974784
23	0xbbb05f2a	-0.005382438
24	0x3d6e91b4	0.058244422
25	0x3dd8809d	0.10571406
26	0x3dd09a41	0.101856716
27	0x3d21ff2f	0.039550003
28	0x3d87cad7	0.066304855
29	0x3e17f557	0.14839683
30	0x3da3283c	0.079666585
31	0x3cb261c4	0.021775134

net.2.weight f4 [32, 32]
0	0xbde2586b	-0.11052021
1	0x3df202a2	0.118169084
2	0xbdc1a464	-0.09455183
3	0xbdc85e05	-0.09783558
4	0x3accdc0e	0.0015629546
5	0x3e86728e	0.26259273
6	0x3e71eff9	0.23626699
7	0xbd8a9f11	-0.06768621
8	0x3dd990c2	0.106233135
9	0x3e0eddd1	0.13951804
10	0xbd96b0cb	-0.07357939
11	0x3d36bdb0	0.044614494
12	0x3e20784c	0.1567089
13	0x3e17031d	0.14747281
14	0x3e5d523c	0.21613401
15	0x3c52cf98	0.012866877
16	0xbc6ad8d8	-0.014333926
17	0x3cc6adb3	0.024252748
18	0xbd602d17	-0.0547305
19	0x3e1bf6fd	0.15230937
20	0x3e741b45	0.23838528
21	0x3d6225ac	0.055211708
22	0xbd855e65	-0.06512145
23	0x3e303c3d	0.17210479
24	0x3b676f36	0.003531409
25	0x3df47799	0.11936874
26	0xbd5052b4	-0.05086012
27	0xbdd649a9	-0.10463268
28	0x3df25132	0.11831893
29	0x3cc82dfc	0.02443599
30	0xbd67bc0c	-0.05657582
31	0x3e1f605d	0.15564103
32	0x3e05572e	0.13021538
33	0x3dac9796	0.0842735
34	0xbdb934d2	-0.09043278
35	0xbcf2ed87	-0.029654277
36	0x3e37f577	0.17964731
37	0xbcc14d92	-0.023596559
38	0x3d0dac34	0.034588054
39	0x3c37a353	0.011208373
40	0x3e464da0	0.19365549
41	0x3e06aa4c	0.131509
42	0x3c425c04	0.011862759
43	0xbdf7aaf9	-0.12093157
44	0x3d8136dc	0.06309292
45	0x3c6ea588	0.014565833
46	0xbd934105	-0.07190136
47	0xbdf6a1b0	-0.12042558
48	0xbe09c64e	-0.13454553
49	0x3dc3faef	0.09569346
50	0xbe6ba174	-0.23010808
51	0xbda24d45	-0.07924894
52	0xbcb4fcb1	-0.022093149
53	0x3dc731c4	0.09726289
54	0x3d9555a2	0.07291724
55	0xbe296c9d	-0.16545339
56	0xbcc62f8c	-0.024192594
57	0x3d422725	0.047400612
58	0x3e470100	0.19433975
59	0xbc023afe	-0.007948635
60	0xbdae1b00	-0.085012436
61	0x3e2a9cba	0.16661349
62	0xbdae616e	-0.08514677
63	0x3e235fe8	0.15954554
64	0x3d946b80	0.072470665
65	0x3da6def2	0.08147992
66	0xbe04b3da	-0.12959233
67	0x3e33c84b	0.17556874
68	0xbd749ea8	-0.05972162
69	0xbe328bfa	-0.1743621
70	0x3d4f32cc	0.050585553
71	0x3dd274ba	0.1027617
72	0x3dae4dd6	0.0851094
73	0x3d8fc044	0.07019094
74	0x3db8bf32	0.090208426
75	0xbde9f19d	-0.11423037
76	0xbb1751c0	-0.0023089498
77	0xbdc5c6d5	-0.09657065
78	0x3c1a6820	0.009424239
79	0xbe329e45	-0.17443188
80	0x3c1dcc30	0.009631202
81	0xbddd47f3	-0.10804739
82	0xbe016491	-0.1263602
83	0xbdd40fa0	-0.10354543
84	0xbe1a81c9	-0.15088572
85	0xbd3c0d50	-0.045911133
86	0x3ccccc88	0.024999872
87	0xbe10ae08	-0.14128888
88	0x3d3a0dbc	0.045423254
89	0x3cbb67c8	0.022876635
90	0x3df9f6ce	0.122052774
91	0xbd14f8b8	-0.03637001
92	0xbb2917c0	-0.002580151
93	0xbe26f1f4	-0.16303235
94	0x3cbfae40	0.023398519
95	0xbca94888	-0.020664468
96	0x3dc7dda7	0.09759074
97	0x3d8f2e44	0.06991246
98	0x3de133b2	0.10996188
99	0xbe26b17e	-0.16278645
100	0xbd6d73a7	-0.057971623
101	0x3bea3593	0.0071475
102	0x3d13ed3e	0.036114924
103	0xbd9506e8	-0.07276708
104	0x3e105e5a	0.14098492
105	0x3e1ae5b0	0.15126681
106	0xbdac2933	-0.084062956
107	0x3e47e582	0.19521144
108	0x3cdaecd3	0.026724255
109	0x3dbb5d1b	0.09148618
110	0x3e3c9c8c	0.18419093
111	0x3dec5d2a	0.11541207
112	0x3dbe9e9b	0.09307595
113	0x3d88940a	0.06668861
114	0x3d4f520e	0.050615363
115	0x3e410a95	0.18851693
116	0x3d6b41b0	0.05743569
117	0x3b975e95	0.0046194294
118	0xbd7f2c38	-0.06229803
119	0xbde2c490	-0.110726476
120	0x3e229629	0.15877594
121	0xbe11951e	-0.1421704
122	0x3d5c0de6	0.053724192
123	0xbd65bff1	-0.056091253
124	0x3db5e9b7	0.08882468
125	0xbd951f1d	-0.07281325
126	0xbd4803bc	-0.048831686
127	0xbdd53328	-0.10410148
128	0xbd20b64c	-0.03923635
129	0xbcad840e	-0.021181133
130	0x3e21353d	0.15742965
131	0xbd636594	-0.055516794
132	0x3e2a003d	0.16601653
133	0xbdba2898	-0.09089774
134	0xbe0c20b1	-0.13684346
135	0xbcc5ef9d	-0.024162108
136	0x3e2e684e	0.17031977
137	0xbe0b9abb	-0.13633244
138	0x3dd2d0da	0.102937415
139	0x3e146784	0.14492613
140	0x3cce832a	0.025209028
141	0x3d9013f4	0.07035056
142	0xbcb93c94	-0.022611894
143	0x3ceeb062	0.02913684
144	0x3d73527a	0.059404828
145	0x3d5191be	0.05116438
146	0xbd86547e	-0.06559084
147	0xbe1776b0	-0.1479137
148	0x3e0e89d6	0.13919768
149	0xbdba766a	-0.09104617
150	0xbe0d9c8a	-0.13829246
151	0xbe008f11	-0.12554576
152	0x3d0a7fdb	0.03381334
153	0xbdbe545e	-0.092934355
154	0x3c073ad3	0.008253771
155	0xbe1dfd53	-0.15428667
156	0xbe296ccf	-0.16545413
157	0xbe10bd15	-0.14134629
158	0xbdc62381	-0.096747406
159	0xbd9ab528	-0.07554084
160	0xbc6a3e20	-0.014297038
161	0xbda5738d	-0.0807868
162	0xbd5c6084	-0.053802982
163	0x3d9cbaf6	0.076528475
164	0xbe2d8147	-0.16943847
165	0xbdf89284	-0.12137321
166	0xbe17b8fc	-0.1481666
167	0x3e0d8a8d	0.13822384
168	0xbdc13be6	-0.09435253
169	0x3d05cf04	0.03266813
170	0xbdd0af88	-0.1018973
171	0xbd7e7e2a	-0.06213204
172	0x3e3174f1	0.17329766
173	0xbdcb12a8	-0.09915668
174	0xbde20675	-0.11036388
175	0x3e13c6f5	0.14431365
176	0x3dffae92	0.124844685
177	0x3c22b420	0.00993064
178	0xba7aaa00	-0.0009562075
179	0x3e14b547	0.14522277
180	0x3e1807db	0.14846747
181	0x3e09bc8d	0.13450833
182	0x3e11c991	0.14237048
183	0x3dc0c732	0.094129935
184	0x3e2b3b59	0.16721858
185	0xbe188f3c	-0.1489839
186	0x3c4dcf40	0.012561619
187	0xbe2bfde6	-0.16796073
188	0xbc9eb718	-0.019374415
189	0xbd41e4a0	-0.047337174
190	0xbd452048	-0.04812649
191	0xbe2467ad	-0.16055174
192	0x3decdcc9	0.11565549
193	0xbde871eb	-0.11349853
194	0x3e014c61	0.12626792
195	0x3e256ac3	0.16154008
196	0x3d3d79a1	0.046258572
197	0xbb201c3c	-0.0024430891
198	0xbd1c17b7	-0.038108554
199	0x3e2ac531	0.16676785
200	0xbdc911e1	-0.09817863
201	0x3e259e7e	0.16173741
202	0x3d2e5c87	0.04256871
203	0x3c9da869	0.019245343
204	0x3da0961e	0.078411326
205	0x39ef5b92	0.00045653858
206	0xbdb3d9d3	-0.08781781
207	0xbe0e8d47	-0.1392108
208	0x3e1c7b41	0.15281393
209	0xbdcc8e7c	-0.09988114
210	0x3e244c06	0.16044626
211	0xbd4a18e4	-0.049340144
212	0x3e3a5c64	0.18199307
213	0xbe3ad837	-0.18246542
214	0xbce97112	-0.028496299
215	0xbd1fa4dd	-0.038975585
216	0x3ba5557a	0.00504559
217	0x3c31eac9	0.0108592
218	0x3d33234a	0.043734826
219	0x3dd620ee	0.104554996
220	0xbd8f4899	-0.06996269
221	0x3df770b7	0.120820455
222	0x3dd98177	0.106203966
223	0x3e476316	0.19471392
224	0x3e0009ce	0.1250374
225	0xbc8dbf93	-0.017303264
226	0x3e297629	0.16548981
227	0xbaa959cf	-0.0012920442
228	0xbe096910	-0.13418984
229	0xbe3a20ce	-0.18176576
230	0x3d9c1623	0.0762141
231	0x3c0b4d4e	0.008502318
232	0xbe1d4478	-0.1535815
233	0xbe07c636	-0.13259205
234	0xbe34d36f	-0.1765878
235	0xbdac809b	-0.08422967
236	0xbe2a5bfe	-0.16636655
237	0xbc06bb3f	-0.008223354
238	0x3d23812a	0.039918102
239	0x3e24dc7b	0.16099732
240	0x3d5d3b36	0.054011546
241	0xbb948324	-0.0045322347
242	0x3dc4e660	0.09614253
243	0x3d8599b3	0.065234564
244	0xbe001e91	-0.1251166
245	0xbb2dfe09	-0.0026549122
246	0x3cf4b152	0.02986971
247	0xbe28d099	-0.16485824
248	0xbe22ad2d	-0.15886374
249	0x3da37c26	0.07982664
250	0x3d0fb5a7	0.035085347
251	0xbe1c4854	-0.15261966
252	0x3ddad268	0.10684663
253	0xbd196b82	-0.037456043
254	0x3e2381d4	0.15967494
255	0xbda44f1f	-0.08022904

net.2.bias f4 [32]
0	0x3d42a4bd	0.047520388
1	0x3d0ff208	0.03514293
2	0xbd6c02ea	-0.057619967
3	0xbdc9da88	-0.09856135
4	0xbd0e683b	-0.03476737
5	0xbdf58acf	-0.11989366
6	0x3e12fbe6	0.14353904
7	0x3de3dc55	0.111260094
8	0xbd8be92b	-0.06831583
9	0x3e4fbc29	0.20286621
10	0xbe0f09fe	-0.13968655
11	0xbdbf8025	-0.093506135
12	0xbd9cbef7	-0.07653611
13	0xbe0679a1	-0.13132335
14	0x3e1afb75	0.15134986
15	0x3d9a09f3	0.07521429
16	0xbe15a5e1	-0.14614059
17	0x3cbc3944	0.022976525
18	0x3d7329cc	0.059366032
19	0x3ddb91e0	0.10721183
20	0xbdb664f6	-0.089059755
21	0xbdadd8b6	-0.084886
22	0x3e3600b6	0.17773709
23	0xbcfe694b	-0.031056067
24	0x3e10d625	0.1414419
25	0x3e1cd48f	0.1531546
26	0x3d730236	0.05932828
27	0x3e2678f1	0.16257073
28	0xbdce2a2c	-0.100666374
29	0x3cb9bc45	0.022672782
30	0x3dda07ab	0.10645994
31	0xbda31604	-0.079631835

net.4.weight f4 [344, 32]
0	0xbde8e26f	-0.11371314
1	0x3d868882	0.065690055
2	0xbd2c8db0	-0.04212731
3	0x3e0736c0	0.13204479
4	0x3ce80946	0.028324734
5	0x3de20502	0.110361114
6	0xbe1b3dc4	-0.1516028
7	0x3dddcf81	0.10830594
8	0x3d97b8f4	0.07408324
9	0x3e367a49	0.17820086
10	0x3e14ad16	0.14519152
11	0xbe010012	-0.12597683
12	0xbe1c7258	-0.15277994
13	0x3b92d1b6	0.004480566
14	0x3df2aec0	0.11849737
15	0xbd0f8689	-0.035040412
16	0x3e160036	0.14648518
17	0x3df9808d	0.12182722
18	0xbd830697	-0.06397741
19	0x3b16c5b6	0.0023006028
20	0x3de0fbdb	0.109855376
21	0xbe09d425	-0.13459833
22	0x3d746c8b	0.059673827
23	0xbe0e0dc4	-0.13872439
24	0xbe05e4bd	-0.13075538
25	0xbd93de7e	-0.072201714
26	0xbd3d4626	-0.046209477
27	0xbcd01399	-0.02539997
28	0xbd98c9fc	-0.074604005
29	0xbda7da66	-0.08195953
30	0xbcd0e60e	-0.025500324
31	0x3e0fd9f9	0.14047994
32	0xbe019561	-0.1265464
33	0xbdaefa8c	-0.08543882
34	0xbe299b4b	-0.16563146
35	0x3b95b1c1	0.004568309
36	0xbe2ad7b1	-0.16683842
37	0xbe26788f	-0.16256927
38	0xbd93d458	-0.07218236
39	0x3dedb7e4	0.1160734
40	0xbe28e01e	-0.16491744
41	0x3d4c6f72	0.04991097
42	0x3dc5e7a1	0.0966332
43	0xbe2730a2	-0.16327146
44	0x3e2177ba	0.15768328
45	0xbd4ef569	-0.05052701
46	0xbcada206	-0.021195423
47	0xbdaf4082	-0.08557226
48	0xbd400ff9	-0.046890233
49	0x3df2402c	0.11828646
50	0x3bfa7580	0.0076434016
51	0xbba26f38	-0.004957106
52	0x3e238b14	0.15971023
53	0x3dd1ce35	0.10244409
54	0xbd6b2ad2	-0.057413884
55	0x3bebfd62	0.0072018364
56	0xbdca439f	-0.09876179
57	0xbe01e5a4	-0.12685257
58	0x3e0ce98a	0.13760963
59	0x3e304a10	0.17215753
60	0xbd18c55d	-0.037297595
61	0xbd152a7c	-0.03641747
62	0xbba20a06	-0.0049450425
63	0x3e2b7e10	0.16747308
64	0x3dfbefda	0.123016074
65	0xbd514beb	-0.05109779
66	0xbdf63cc4	-0.12023309
67	0x3d9db4e7	0.0770052
68	0xbe230456	-0.15919623
69	0x3b724780	0.0036968887
70	0xbdcad16a	-0.09903224
71	0xbdfa925e	-0.122349486
72	0xbd5b3930	-0.053521335
73	0xbd31f44a	-0.043445863
74	0xbdb78304	-0.08960536
75	0x3e109ebd	0.14123054
76	0xbcba96ac	-0.022776924
77	0xbd2eb9af	-0.04265755
78	0xbd98b14c	-0.07455692
79	0xbd8a793a	-0.067614034
80	0x3d1c3ec5	0.0381458
81	0x3d049d24	0.032376423
82	0x3d6a4cd2	0.057202168
83	0x3df8e3ca	0.12152822
84	0x3c71f6ae	0.014768286
85	0x3d830e46	0.06399207
86	0xbe10e59f	-0.14150093
87	0xbda85977	-0.08220189
88	0xbe276cbb	-0.16350071
89	0x3d9a1617	0.075237446
90	0xbd2fa81b	-0.042884927
91	0x3de88250	0.1135298
92	0x3dfa91ec	0.12234864
93	0xbd6e7d17	-0.058224764
94	0x3d1923f3	0.0373878
95	0x3dff833a	0.12476201
96	0x3d900947	0.070330195
97	0x3df548cc	0.119767755
98	0xbbd6be80	-0.006553471
99	0xbe341682	-0.17586711
100	0xbbffe247	-0.007808957
101	0x3c85de08	0.016341224
102	0xbce465de	-0.027880605
103	0x3e12f4e2	0.14351228
104	0x3c8b29ee	0.016987767
105	0x3e1351c8	0.14386666
106	0x3c1be4f5	0.009515037
107	0x3d0bf2bc	0.034167036
108	0xbcc189a7	-0.023625208
109	0x3d4c2999	0.049844358
110	0xbda64d85	-0.081202544
111	0xbe1eebc5	-0.15519626
112	0xbca0321b	-0.019555142
113	0xbe1d1aae	-0.15342209
114	0x3e272c70	0.16325545
115	0xbe0b497f	-0.13602255
116	0x3e27ec9a	0.1639885
117	0xbe33d2ae	-0.17560837
118	0x3d04ae0d	0.03239255
119	0xbcdc2c8f	-0.026876716
120	0x3e12bf19	0.1433071
121	0x3d3e4192	0.04644925
122	0xbdd4254b	-0.103586756
123	0xbde4888c	-0.11158857
124	0x3deecd9c	0.116603106
125	0xbd81bc78	-0.06334776
126	0xbe18f36c	-0.14936608
127	0x3d8b3252	0.06796707
128	0xbb30c022	-0.0026969989
129	0xbe2ed5f1	-0.170738
130	0xbdab6dd7	-0.0837056
131	0x3e111b64	0.14170605
132	0xbe1351f0	-0.14386725
133	0xbd15ae34	-0.036543086
134	0x3c0e733b	0.008694465
135	0xbd1bf781	-0.038077835
136	0x3c22e5bc	0.009942468
137	0xbd02dcc3	-0.031948816
138	0x3dde74b4	0.10862103
139	0xbe2c19db	-0.16806738
140	0xbdda839c	-0.10669634
141	0xbe1ec0fd	-0.15503307
142	0x3de71310	0.11282933
143	0x3e2081c6	0.15674505
144	0x3dc63b4b	0.09679278
145	0xbd4e47a4	-0.05036129
146	0x3d6fd0bf	0.058548685
147	0x3de3065e	0.11085199
148	0xbd50967d	-0.050924767
149	0x3dbc5805	0.09196476
150	0x3e308c8c	0.17241114
151	0xbe181837	-0.14852987
152	0x3e07a04c	0.13244742
153	0xbd4591c4	-0.048234716
154	0x3e333574	0.1750086
155	0xbe251416	-0.16120943
156	0xbe2c3150	-0.16815686
157	0x3e069bcb	0.13145368
158	0xbe1afbb3	-0.15135078
159	0xbd82f6a2	-0.06394698
160	0xbbe685c3	-0.0070349886
161	0x3d424878	0.047432393
162	0xbd7d5358	-0.06184706
163	0x3deb2dd9	0.11483354
164	0xbc07e84a	-0.008295128
165	0x3dbc4a7a	0.09193893
166	0x3d788366	0.060672186
167	0xbd91f8a2	-0.07127501
168	0xbd99c814	-0.07508865
169	0xbd226ac3	-0.039652597
170	0xbdb167bd	-0.08662365
171	0x3df1da26	0.11809187
172	0x3d2a0fb0	0.041518867
173	0xbd8d50ed	-0.06900201
174	0x3e20b366	0.15693435
175	0xbd600ab6	-0.054697715
176	0x3e06c1c3	0.13159852
177	0x3c962bf0	0.018331498
178	0xbe049c95	-0.12950356
179	0xbd5e04d6	-0.05420383
180	0x3e207e94	0.15673286
181	0xbd8a9b6a	-0.06767924
182	0x3baf6590	0.0053526834
183	0xbd9e088b	-0.07716473
184	0xbdbed0d6	-0.09317176
185	0x3de38492	0.1110927
186	0x3dc22582	0.0947981
187	0x3e2010f9	0.15631475
188	0x3cde03af	0.027101366
189	0xbe0d927b	-0.13825409
190	0x3dd6dc1d	0.10491202
191	0x3da29716	0.079389736
192	0x3da666f5	0.08125106
193	0xbd895693	-0.06705966
194	0xbe068a08	-0.13138592
195	0xbcc3e554	-0.023913063
196	0xbd521b83	-0.05129577
197	0xbdb42d21	-0.0879767
198	0xbd87fbcd	-0.06639824
199	0x3da3c05c	0.07995674
200	0xbe095f3e	-0.13415238
201	0x3dce0bd8	0.10060853
202	0x3e010e74	0.1260317
203	0x3ddc86c2	0.107678905
204	0xbe2d29c6	-0.16910467
205	0x3e09d024	0.13458306
206	0xbe2f8740	-0.17141438
207	0xbc8dc285	-0.017304668
208	0x3e04a085	0.12951858
209	0x3de657be	0.11247204
210	0x3d8b517f	0.068026535
211	0xbc9ce927	-0.019154144
212	0xbdf7131c	-0.12064192
213	0x3a7bbbe8	0.00096028903
214	0x3d2046d0	0.039130032
215	0xbd62e0d8	-0.05539021
216	0xbdf2905d	-0.11843941
217	0xbdfc673b	-0.12324377
218	0xbdc74fe4	-0.09732035
219	0x3e1ba8f1	0.15201165
220	0x3d286cbd	0.041119326
221	0xbe1bf77f	-0.15231131
222	0x3ddb12a4	0.10696915
223	0x3e209739	0.15682687
224	0x3d121faa	0.03567473
225	0x3c6253bd	0.01381391
226	0x3c9beb10	0.019032985
227	0xbd2a859b	-0.041631322
228	0xbe0b2aca	-0.13590541
229	0xbdaa00ad	-0.0830091
230	0x3db82a36	0.08992426
231	0xbd1040db	-0.0352181
232	0xbd8dfcd3	-0.06932988
233	0xbcf9aba0	-0.030477345
234	0xbccaa1bc	-0.024735324
235	0xbd99a092	-0.075013295
236	0x3d735412	0.059406348
237	0xbd8596e7	-0.06522923
238	0x3e0ca16b	0.13733451
239	0xbbbf01aa	-0.005829056
240	0x3ddcbf09	0.107786246
241	0x3d32b255	0.043627102
242	0xbdcd5af3	-0.10027113
243	0x3d45a0de	0.048249118
244	0xbcfa8758	-0.030582115
245	0xbe0fc8c0	-0.14041424
246	0xbd4679c9	-0.048455987
247	0xbd3440f1	-0.044007245
248	0x3da5a8f3	0.08088865
249	0x3dcab5aa	0.09897931
250	0xbe1e4e0f	-0.15459464
251	0x3dd84021	0.105591066
252	0xbd06ab4b	-0.0328782
253	0xba5474cd	-0.0008104563
254	0x3e33c659	0.17556132
255	0x3dbb2b4f	0.0913912

net.4.bias f4 [344]
0	0xbdec4bea	-0.11537917
1	0x3d5c6be2	0.053813823
2	0x3df4e47f	0.11957645
3	0xbe11560c	-0.1419298
4	0x3e36518f	0.1780455
5	0x3d936bcc	0.07198295
6	0xbdbd0849	-0.09230096
7	0xbe17e9f0	-0.14835334
8	0xbdf5a563	-0.11994436
9	0xbe2e97fe	-0.17050168
10	0xbe5be372	-0.21473482
11	0x3b37025c	0.002792499
12	0x3c23b669	0.00999222
13	0x3e1cac3d	0.15300079
14	0xbd5c3d1e	-0.053769223
15	0xbd7af9bc	-0.06127332
16	0x3bb1fdf9	0.005431887
17	0xbe0c9b5d	-0.13731141
18	0xbe00d459	-0.12581004
19	0xbd1e3757	-0.038626995
20	0xbdd8652e	-0.105661735
21	0x3d6a8920	0.05725968
22	0x3cc1b8fb	0.023647776
23	0xbd35a7b7	-0.0443494
24	0x3cb5a038	0.022171125
25	0xbd2fac9d	-0.042889226
26	0xbe0307ef	-0.12795995
27	0x3e361b1b	0.17783777
28	0x3e2bb067	0.16766511
29	0xbd082996	-0.033242784
30	0x3e22d652	0.15902069
31	0x3cf3ee12	0.029776607
32	0xbe23977c	-0.15975755
33	0xbdd3212b	-0.10309061
34	0x3c36c0d8	0.011154376
35	0x3d9c0099	0.076173015
36	0xbe05d815	-0.1307071
37	0xbd6e63ad	-0.058200527
38	0x3e316bd6	0.17326292
39	0x3db52c81	0.08846379
40	0xbde92378	-0.11383718
41	0x3d548f58	0.051894516
42	0xbddea159	-0.108706184
43	0x3e009a02	0.1255875
44	0x3d597ce3	0.053097617
45	0xbce67e34	-0.02813635
46	0x3e36c711	0.17849375
47	0xbd8137b0	-0.0630945
48	0xbccd15f7	-0.025034888
49	0x3cede82a	0.029041369
50	0x3e334ed7	0.17510544
51	0xbde0df2d	-0.109800674
52	0xbe24acdd	-0.16081567
53	0xbbde956f	-0.006792716
54	0xbe153f70	-0.1457498
55	0x3da7d6a9	0.0819524
56	0x3dbb96c9	0.09159619
57	0xbdbdbc24	-0.092644006
58	0x3e1ee4d2	0.15516976
59	0x3dbee2ab	0.09320577
60	0x3dbdb668	0.09263307
61	0x3e1ec90c	0.15506381
62	0xbe129c67	-0.14317475
63	0x3e0328c2	0.12808517
64	0xbdf0f37c	-0.11765191
65	0x3e223db2	0.15843847
66	0xbdd1ef19	-0.102506824
67	0x3db2375f	0.087019674
68	0xbd587c36	-0.05285283
69	0xbe0a47e1	-0.13503982
70	0xbdb5d645	-0.08878759
71	0xbde54bd7	-0.11196106
72	0x3e25d65d	0.16195054
73	0xbd154d58	-0.036450714
74	0xbe1925d2	-0.14955834
75	0xbd4d98b3	-0.050194453
76	0x3da3abde	0.079917654
77	0x3bcd6dba	0.006269184
78	0x3e0b1878	0.13583553
79	0x3e5fbf83	0.218504
80	0x3e3d9ae9	0.18516125
81	0x3d395353	0.04524548
82	0x3e124758	0.14285028
83	0xbe05547a	-0.13020507
84	0xbca3cb8d	-0.019994522
85	0x3de21c7c	0.11040589
86	0x3b9d510a	0.0048009204
87	0xbe042277	-0.12903772
88	0xbd903db7	-0.07043021
89	0x3e23e27b	0.16004364
90	0x3db321d3	0.08746686
91	0x3e0faf04	0.14031607
92	0x3e2a7fa9	0.16650261
93	0xbe324158	-0.17407739
94	0x3e1c2146	0.15247068
95	0x3e103739	0.14083566
96	0x3d820c61	0.06350017
97	0x3c8d9061	0.01728076
98	0x3e115f82	0.1419659
99	0xbe317a75	-0.1733187
100	0x3d4cb229	0.049974594
101	0xbd35d11f	-0.044388887
102	0x3e1b93f4	0.15193158
103	0xbd611a40	-0.054956675
104	0xbcd093a9	-0.025461035
105	0x3e048ad0	0.12943578
106	0x3d91561b	0.070965014
107	0x3e0b67b4	0.13613778
108	0x3c70f840	0.014707625
109	0x3d2e9040	0.042618036
110	0x3d272310	0.040804923
111	0x3e335696	0.17513499
112	0x3d6334f2	0.055470414
113	0xbdb7dc09	-0.08977515
114	0xbddf010f	-0.10888874
115	0xbc4b940b	-0.012425433
116	0xbdd22bb5	-0.10262243
117	0xbe1a8614	-0.15090209
118	0x3df675b1	0.120341666
119	0x3dcfee77	0.101529054
120	0x3e2dfef3	0.16991787
121	0x3e02b49e	0.12764212
122	0x3cdaa3ff	0.026689528
123	0xbde19b84	-0.110159904
124	0x3df0e37f	0.117621414
125	0x3dc926f6	0.09821884
126	0x3db3137c	0.08743951
127	0xbe2e9c6f	-0.17051862
128	0xbd9a0647	-0.075207286
129	0xbe2d1bcf	-0.1690514
130	0xbe132be2	-0.14372209
131	0x3d879458	0.06620091
132	0x3e07cbb8	0.13261306
133	0xbd49a522	-0.04922975
134	0x3dc37391	0.09543527
135	0x3e2ea8bc	0.17056555
136	0x3e15a2f4	0.14612943
137	0xbe199b60	-0.15000677
138	0xbc897a5b	-0.016781976
139	0x3dd030c1	0.10165549
140	0xbd9a3afb	-0.07530781
141	0x3db766e3	0.08955171
142	0xbcc0080e	-0.02344134
143	0x3e2b9996	0.16757807
144	0xbd41cce1	-0.04731453
145	0x3d3f6ca8	0.046734482
146	0xbe183fc1	-0.1486807
147	0x3db7aa45	0.08968023
148	0x3dc9a15f	0.09845232
149	0x3c8d1a28	0.017224386
150	0x3e1b04db	0.15138571
151	0xbe03aa7a	-0.12858
152	0x3e07b577	0.13252817
153	0xbd342d0b	-0.04398827
154	0x3debccd2	0.11513676
155	0xbdbba653	-0.09162583
156	0xbe00162f	-0.12508462
157	0x3dbd0353	0.0922915
158	0xbcf3064d	-0.02966609
159	0xbc113d27	-0.0088646775
160	0xbd8f91ae	-0.07010208
161	0xbd532bab	-0.051555317
162	0x3d99c8bb	0.075089894
163	0x3e1aeb72	0.15128878
164	0x3dde4ddc	0.10854694
165	0x3af077d0	0.0018346254
166	0x3cb72f09	0.022361295
167	0x3d919892	0.071091786
168	0x3df95be8	0.12175733
169	0xbdb11f19	-0.086485095
170	0x3cc2a8ae	0.023762073
171	0x3de28c1c	0.1106188
172	0x3dbe98d5	0.09306494
173	0x3d8c59d6	0.06853072
174	0xbe212f8f	-0.15740798
175	0xbbf05cfd	-0.007335304
176	0x3dd87092	0.10568346
177	0x3ca91bb6	0.020643096
178	0x3d4ebadc	0.05047117
179	0xbcc9f0c6	-0.024650943
180	0xbb1b147d	-0.0023663335
181	0xbc27d07c	-0.010242578
182	0x3d5a9d92	0.053372927
183	0x3d103d51	0.035214726
184	0x3e107dd0	0.14110494
185	0xbdfc055b	-0.12305709
186	0xbdcc321c	-0.09970495
187	0xbe26ef4a	-0.16302219
188	0xbca99182	-0.020699266
189	0x3dc61cbb	0.09673449
190	0x3e091974	0.13388616
191	0x3e1986c2	0.14992812
192	0x3c725ef5	0.014793147
193	0xbd905e09	-0.07049186
194	0xbe2ec4ba	-0.17067233
195	0xbd10b7ae	-0.03533142
196	0xbbfd4607	-0.007729295
197	0xbe08067f	-0.13283728
198	0x3e1648e2	0.1467624
199	0xbe1d0e0d	-0.15337391
200	0xbdacae61	-0.08431698
201	0xbd9cdcc4	-0.07659295
202	0x3e161749	0.1465732
203	0xbdf8414c	-0.121218294
204	0x3e37e749	0.17959322
205	0x3d8a0d12	0.06740774
206	0x3ce50824	0.027957983
207	0x3db063eb	0.08612808
208	0x3dbb1e2b	0.091366135
209	0x3dc0b397	0.09409254
210	0xbe2e051b	-0.16994135
211	0x3e34c71c	0.17654079
212	0xbdb3896b	-0.08766445
213	0xbe03912b	-0.12848346
214	0xbe0f9108	-0.14020169
215	0xbde4a221	-0.11163736
216	0x3d94db4c	0.0726839
217	0x3c42862c	0.011872809
218	0xbd922186	-0.071353
219	0xbdab78a2	-0.08372618
220	0x3ceb61fa	0.028733242
221	0xbd7bc38a	-0.061465777
222	0xbc650b3c	-0.013979729
223	0xbd71d89c	-0.059044465
224	0xbe21a473	-0.15785389
225	0xbdfc249c	-0.1231167
226	0x3de5bd81	0.112177856
227	0x3d8f828c	0.07007322
228	0xbda31526	-0.07963018
229	0x3e406876	0.18789849
230	0xbc17c4c5	-0.009263222
231	0xbd0013df	-0.03126895
232	0xbe2e111f	-0.16998719
233	0x3e0d0a73	0.13773517
234	0x3dc01841	0.09379626
235	0x3d635588	0.05550149
236	0x3e01c259	0.12671794
237	0x3d70b315	0.058764536
238	0xbe0d8938	-0.13821876
239	0x3d127e2d	0.03576486
240	0x3da85779	0.08219809
241	0xbbf59e72	-0.007495695
242	0xbde8f086	-0.11374001
243	0x3dd9c4af	0.106332175
244	0xbd9b6fc6	-0.075896785
245	0xbe260818	-0.16214025
246	0x3e105c56	0.14097723
247	0xbdbed4c4	-0.093179256
248	0xbd2ad89c	-0.04171048
249	0xbde3706a	-0.11105426
250	0xbce82ab2	-0.028340671
251	0x3dc96cc7	0.09835201
252	0x3e017e6f	0.12645887
253	0xbdf7454a	-0.12073763
254	0xbd1a8c93	-0.03773172
255	0xbd45d8f1	-0.048302595
